Experiments/MY/edge_model.pt (torch, 4991 bytes, 10 tensors)

encoder.0.weight f8 [6, 8]
00000000: b4e0 b67b 6ae3 b2bf 16b9 fa88 e490 e5bf
00000010: e37b 4cf3 fafa d43f 8de7 0c3b 9d42 e4bf
00000020: 6617 1422 2e1b d6bf 453d 1518 9486 c2bf
00000030: 67ed dcbe da42 cbbf 804d 097d 6a0e c8bf
00000040: 0d24 13b9 4eb9 aabf 5d66 14ed d064 e63f
00000050: d703 485e a3be d03f c5ec 3c39 1df8 efbf
00000060: 1153 0e88 d244 753f 8d56 96f3 c34a 7e3f
00000070: 2024 b87a d77e c4bf 487f f985 71cf bebf
00000080: 69c3 f40b 8d6d bcbf adde 3d23 8f81 cf3f
00000090: 9867 62ad 3305 e83f e05e 5411 4e25 d83f
000000a0: 9695 c53b 9df1 c9bf de92 ff42 2cc5 91bf
000000b0: 101a 2948 1195 b5bf 36c9 2c77 aade babf
000000c0: f4a3 6815 b36e e4bf fcd9 e6e5 3d57 cebf
000000d0: fde3 ca99 12a7 cb3f 2428 0ba4 0745 823f
000000e0: 896b 32a2 54e9 aa3f d96b 2068 cdb2 aabf
000000f0: a5a6 0382 8b66 d53f 5f68 688d 2ea0 c3bf
00000100: 420c ece2 641f e33f 4789 ac19 3552 d13f
00000110: 9ae0 0e2d c582 bd3f 7236 e83f 68ea b63f
00000120: cfc6 78ca 7cef c5bf ce49 b13b 15ad bebf
00000130: 000f 4e27 2fbb 683f 2e97 dc20 78fe c3bf
00000140: 3c0c da13 0490 d83f 4b9c 8289 2a6a d7bf
00000150: c318 d08a d53a e63f 6ec7 f9b8 55a2 b83f
00000160: c0ee 4565 5eb1 d13f aa36 45ea 04ab 973f
00000170: 5e96 e2ec 899b c43f 362d faac 8b81 cc3f
-0.0737825920140292 -0.6739370990160605 0.32781862029690795 -0.6331316140487943 -0.3454089482114483 -0.14473200965810853 -0.21297773665888117 -0.18793994050302487
-0.05219503411496627 0.6998066549742351 0.2616356297222046 -0.9990373723916482 0.005192587269353025 0.007395520625683394 -0.1601209019866312 -0.1203528358541891
-0.11104661504647385 0.24614133091721638 0.7506349932111673 0.37727691356984216 -0.2026859800200042 -0.017353717412237006 -0.0843058396504619 -0.10496011170906602
-0.6385131281032259 -0.23703740811988883 0.21603615292931969 0.008920726484024817 0.05256142120307234 -0.05214540382458894 0.3343838472052119 -0.15332586197547735
0.5975822860785984 0.27064254290793993 0.11527664518405559 0.08951427040320839 -0.17137107740705068 -0.11982853610360353 0.003018943878886904 -0.15620328526090915
0.38379003466269856 -0.3658548682091733 0.6946819029988308 0.09622703329094204 0.27645072832067896 0.02311332397339664 0.1609966665902673 0.22270341821818257

encoder.0.bias f8 [6]
00000000: 9e8f 2f50 c557 b9bf 5105 3884 5ef4 ccbf
00000010: 98e4 a95a 0b7d ccbf bf2d 6f2c a260 cd3f
00000020: ee11 0f6d 008b dbbf 4197 4531 4120 91bf
-0.09899552543316623 -0.22620755630490888 -0.22256605078635938 0.22951152009623674 -0.4303589882877351 -0.01672460425597611

decoder.0.weight f8 [6, 4]
00000000: 0582 45b3 9f96 e0bf 40ff 9f89 4d27 d0bf
00000010: b282 550f 8885 ff3f cd0f c135 37a2 e73f
00000020: fb15 21be 56c9 d53f f1ce d291 d198 de3f
00000030: e4b9 fe35 1a58 fdbf 72d0 0d99 961f 1240
00000040: 0201 ad7e 22bd edbf 50a4 e74d ec89 f63f
00000050: d14c 2501 e726 ee3f d5cb 327b f427 ddbf
00000060: 17dc 92d5 a4e2 fd3f 61a9 454c 2613 d9bf
00000070: 57cb a542 8373 e43f 64f6 ccc9 7300 d63f
00000080: d031 03a3 1166 f5bf 2835 ef5d 8abb 0140
00000090: 9dfd 7d01 e457 f53f d65e 700b db2b e4bf
000000a0: 86f8 0015 fd2a 11c0 e257 418e 5a8b e13f
000000b0: 486b 4972 d365 f03f 51c4 e643 cc74 0240
-0.5183866979023725 -0.2523988574975995 1.9701004599557277 0.738551716793603 0.3404137474757076 0.4780773090417219 -1.8340093716793655 4.530847922771601
-0.929337737477937 1.4086726229818574 0.9422488233925838 -0.455563659964523 1.8678329794618145 -0.3917937989086991 0.6391006757461167 0.3437776060780833
-1.3374191634821848 2.2165725077271823 1.3339576776778366 -0.6303534720818458 -4.291981056389096 0.5482609537527845 1.0248598541572438 2.3070302300261933

decoder.0.bias f8 [6]
00000000: ae20 9abb 2c68 c53f b465 f0de a158 e83f
00000010: 7cbc 80f2 63bd e43f e3d3 e92a 8e08 c23f
00000020: 3aa5 e8b5 047b d83f 0860 03be 56a8 f93f
0.16724166069275753 0.7608193735388142 0.6481189476379678 0.14088608832722035 0.3825084473088115 1.6035983488454821

decoder.2.weight f8 [8, 6]
00000000: fc62 608e efaa d43f 21a3 152f a12a a93f
00000010: 3a57 4733 0dca ca3f e6d5 f207 f803 d03f
00000020: 7073 122f 7e84 babf 839e af8d d913 a63f
00000030: 478a 3a11 e63e b43f f1e3 458e f289 d7bf
00000040: 5f7b 5b6a 33a8 e7bf 2243 d8c4 b3cc b0bf
00000050: 45ab 28b8 e58d d73f 732e b52f 76c2 993f
00000060: ad0b a88c 5de0 a63f 6529 bb9b 3bb9 9a3f
00000070: e5b8 3cd7 de32 cf3f 04e6 fee6 626f acbf
00000080: 760b 3306 b554 bfbf 754b 84b0 7697 dbbf
00000090: d3da f6a1 0630 a53f b8b5 b7bf b3c5 7ebf
000000a0: a3d3 1748 be61 f2bf 64ba 6275 2cc0 9bbf
000000b0: dedc d62b 61e7 e33f 3d57 d7b3 d85e 92bf
000000c0: 8852 d219 e3f5 0c3f 5f7b 2362 6036 6abf
000000d0: 8afc 2b8e 3866 c1bf d461 c586 3566 533f
000000e0: 4baf 0469 d3b6 b23f 6762 0881 fc0d 713f
000000f0: 2d1f 9370 75bd fdbe e838 5436 23f1 f6be
00000100: 73f2 b64c c9d0 34bf ba0c aff4 1303 103f
00000110: 990a 0c51 47c0 2e3f 9701 4dae 86c8 ff3e
00000120: 6615 50e3 a0d9 05bf a832 f0f6 82f6 033f
00000130: 1064 cf2a bdf6 d7be 4667 b028 b94a 053f
00000140: 502b d8ce d273 eebe 6bf9 870d 3211 ff3e
00000150: f193 d72f 3d88 f8be fb69 b07f 5576 d23e
00000160: 756b b492 7b63 22bf 3091 cd46 25f6 e93e
00000170: 5c06 a662 78d7 173f 8fe3 dac9 7fe7 f83e
0.3229330912013635 0.049153363225576514 0.20929112438050784 0.25024224067905576 -0.10358418130131297 0.04312019209447462 0.07908475800153623 -0.36779464620445795
-0.7392823293010727 -0.06562350803166031 0.368035726397171 0.025155874883508077 0.04468052236554541 0.026097232227394147 0.24373994359616016 -0.05553731031200118
-0.12238627816536315 -0.43111960638014263 0.0413820336065577 -0.00751276220715396 -1.1488631073127429 -0.027100271858837024 0.6219945770489195 -0.017939935661920748
5.523776347008286e-05 -0.003199756859529598 -0.13593203489287858 0.001184036514208943 0.07310220064090094 0.004163729041942155 -2.836234401540278e-05 -2.1879142328145538e-05
-0.00031762041609421156 6.108102131379108e-05 0.00023461218417971245 3.031092173278043e-05 -4.167577973394447e-05 3.80762784218715e-05 -5.7134208590542895e-06 4.061105308768172e-05
-1.4520852768226032e-05 2.9627962108585823e-05 -2.3395713460678346e-05 4.4017415304028466e-06 -0.00014029391727706964 1.2379410884562862e-05 9.094879411544174e-05 2.3750585220058995e-05

decoder.2.bias f8 [8]
00000000: 687b 42e0 13c5 cf3f b95c 7134 35b4 e23f
00000010: a4af ce51 a2e9 d23f ac90 a7a5 55c6 db3f
00000020: 5f85 c68f 37b4 a83f 6dcc 0bc2 2359 0f3f
00000030: 70f3 b755 5cc5 09bf 3ba9 4b9d e883 f33e
0.24820183229618498 0.5844980263017511 0.29550989140511263 0.4339803807945468 0.048249946881024235 5.979194998486583e-05 -4.915416749538034e-05 1.8611210026367132e-05

mu.weight f8 [4, 6]
00000000: c662 d840 e737 7dbf 9560 107b da9d c2bf
00000010: ca36 f92a bf2f dd3f 618c 4273 d84a ca3f
00000020: 4e3a 4576 238b d93f e7da e743 5198 ed3f
00000030: e6bc 0c93 b62b e63f ac24 a41b a860 dc3f
00000040: a856 b693 45a2 cebf e0de cceb 3c34 a6bf
00000050: 872c 657d 2bc9 d3bf 8238 5d91 2fd0 babf
00000060: 05f5 63a3 db94 92bf e4af b6c5 ce1d db3f
00000070: 8338 e25e 61a4 ccbf a5cb dc6c c80f eabf
00000080: 5622 cc60 cfe3 e73f a00a 2cfd 2995 c53f
00000090: 05a9 2529 f93d ca3f 2296 6fcb c652 ecbf
000000a0: 2d0f cf94 a41f d7bf ff5e e708 3077 dbbf
000000b0: b08c 6eea 0d14 903f fe28 6e4e e615 d33f
-0.007133391698083974 -0.1454423046968755 0.45603923031454185 0.20540910365989176 0.39911734151693146 0.9248434377940072 0.6928360817018102 0.44339945506414824
-0.23932714188111004 -0.043367294105733256 -0.3091534351885418 -0.10473916338853154 -0.018145973060190296 0.4236943178937038 -0.22376649029724058 -0.8144266248913153
0.7465588465284536 0.1686146246139133 0.2050162745393395 -0.8851045583111878 -0.361306329079741 -0.42914963597785055 0.015701501306136734 0.2982116475983644

mu.bias f8 [4]
00000000: b541 c039 9fd6 a1bf 34e8 b9f6 9520 c53f
00000010: a4ca 7ef3 f46c 76bf dee3 b930 3c3c c4bf
-0.0348405607220487 0.1650569395749827 -0.005475003090327366 -0.15808822993474697

gamma.weight f8 [4, 6]
00000000: 7052 6ce9 030e a9bf c4e4 3bea aa49 7dbf
00000010: d1c4 41eb 19e6 bebf a8b1 35e8 5743 75bf
00000020: f452 7de7 ba69 74bf cb58 0554 359a 813f
00000030: 095c 08a9 4429 be3f 6236 95c6 87ea a73f
00000040: 42c2 af98 7352 b03f 2612 90dc 5c86 d2bf
00000050: 1b05 56c6 8944 cfbf 7040 34e1 6f1a adbf
00000060: adcd ce86 b54f 81bf 2e18 3bfe 9fe7 8fbf
00000070: 96fc 9962 c866 903f f9d4 61fc 3d10 c2bf
00000080: fd93 d8a0 42e1 bdbf ef2b 2207 f2e5 b03f
00000090: 426a bb6e 9071 ac3f 30d8 cda0 bbb0 babf
000000a0: e540 7a67 11d1 b83f 41c9 473b fd02 d7bf
000000b0: f3b5 01c8 7799 d2bf f02d 58c8 ab75 993f
-0.0489350531044338 -0.007150333058001116 -0.12069856637551203 -0.005191176783551667 -0.004983644575834435 0.008594910265554387 0.11781720282338894 0.04671119975192252
0.06375811078738372 -0.2894508508618706 -0.2442791193425727 -0.05684232353280627 -0.008452814270504339 -0.015578508325585796 0.016017085092695803 -0.14112067054126223
-0.11671844889549728 0.06600868868024155 0.055553926007366985 -0.10425923038369045 0.09694012428576888 -0.3595574454222011 -0.29061693698790164 0.02486294184022414

gamma.bias f8 [4]
00000000: c8fb 22cc 3a14 b4bf f36c 5782 e514 8dbf
00000010: ef93 2dc9 f597 c0bf 37bd 7333 2514 c3bf
-0.0784336803799156 -0.014200013199050043 -0.12963745425363934 -0.14905228626546727
