autoencoder_model/autoencoder_model_edge_1.pt (torch, 43279 bytes, 12 tensors)

encoder.0.weight f4 [50, 63]
0	0xbd814123	-0.06311252
1	0xbd7b243a	-0.061313845
2	0xbcead3d8	-0.028665468
3	0x3dede916	0.11616723
4	0xbcf6da1c	-0.0301333
5	0x3d28ab84	0.041179195
6	0xbddb7c77	-0.10717099
7	0xbd8ef036	-0.0697941
8	0xbdd52b32	-0.104086295
9	0xbd390408	-0.04516986
10	0x3ddbb198	0.10727233
11	0x3d3319c4	0.043725744
12	0x3dad1bce	0.08452569
13	0xbdd8fcc3	-0.105950855
14	0xbdc94620	-0.098278284
15	0x3b381b00	0.0028092265
16	0xbbc58b60	-0.0060285777
17	0xbcda4470	-0.026643962
18	0x3dede516	0.1161596
19	0xbd30040a	-0.042972602
20	0xbd3d46ce	-0.046210103
21	0xbdad0172	-0.08447541
22	0x3de4fae2	0.111806646
23	0xbd583112	-0.052781172
24	0xbde57cbc	-0.11205432
25	0xbe00c362	-0.12574533
26	0xbd19bec8	-0.03753546
27	0xbd8f53d2	-0.06998409
28	0x3d307400	0.043079376
29	0xbe003585	-0.12520416
30	0xbd868f5c	-0.065703124
31	0x3dbcb3ca	0.092139795
32	0x3c943820	0.018093169
33	0xbd7d78bc	-0.06188272
34	0x3acf6f00	0.0015825927
35	0xbdcaef66	-0.09908943
36	0x3d8438e4	0.064561635
37	0x3bff7980	0.0077964664
38	0xbd773ee0	-0.060362697
39	0x3d248be0	0.040172458
40	0xbde07b3b	-0.10961004
41	0xbd747824	-0.059684888
42	0xbc93a338	-0.018022165
43	0x3d1c3f98	0.038146585
44	0x3d834c66	0.06411056
45	0x3cf0d490	0.029398233
46	0x3de29bcc	0.11064872
47	0x3d809736	0.06278841
48	0xbd993966	-0.07481651
49	0xbb3164e0	-0.0027068183
50	0x3c859488	0.016306177
51	0xbd94b918	-0.07261866
52	0x3db2c426	0.087288186
53	0x3d2f7fe8	0.04284659
54	0x3d495320	0.04915154
55	0x3d045468	0.03230706
56	0x3d8b725c	0.06808922
57	0xbd28b600	-0.041189194
58	0x3d4e56f8	0.05037591
59	0xbd77f624	-0.060537472
60	0xbd938fc5	-0.07205156
61	0x3d6d29e4	0.05790128
62	0xbd26fbf0	-0.04076761
63	0x3d5228c8	0.051308423
64	0xbda30914	-0.07960716
65	0x3da795e8	0.08182889
66	0x3d13e90c	0.036110923
67	0xbc8f6fc0	-0.017509341
68	0x3d748744	0.05969931
69	0x3d697c50	0.05700332
70	0x3d25b88c	0.0404592
71	0x3dc9e14e	0.098574266
72	0x3d79d784	0.060996547
73	0xbd8ca75e	-0.0686786
74	0xbd18d238	-0.037309855
75	0xbdd4a7c6	-0.10383563
76	0x3daf556a	0.08561213
77	0x3c07bac0	0.008284271
78	0xbc08ebe8	-0.008357026
79	0x3db92346	0.09039931
80	0x3cde8600	0.027163506
81	0x3da2f6c0	0.0795722
82	0xbc4ce4f8	-0.012505762
83	0x3dc96fac	0.09835753
84	0x3d978a3e	0.073994145
85	0xbd1c294a	-0.038125314
86	0xbd78b16c	-0.060716078
87	0x3c801e80	0.015639544
88	0x3d6309f0	0.0554294
89	0x3c4e0170	0.012573585
90	0xbd9420e8	-0.07232839
91	0xbdacc369	-0.08435709
92	0x3d010b5c	0.031504974
93	0x3c7e6e10	0.015529171
94	0x3d670288	0.0563989
95	0xbd9eeb87	-0.07759767
96	0x3d0ba0d4	0.034088925
97	0x3d4fef90	0.050765574
98	0xbd5716ec	-0.052512094
99	0xbd84039f	-0.06446003
100	0x3df83878	0.121201456
101	0x3d0d6030	0.03451556
102	0x3d539d7c	0.05166386
103	0xbd369afe	-0.044581406
104	0x3bd4b620	0.0064914376
105	0xbd7729f6	-0.06034275
106	0xbdeacbbc	-0.114646405
107	0xbdff7637	-0.124737196
108	0x3cb26710	0.02177766
109	0x3d5c7784	0.053824916
110	0x3d8f24c4	0.06989434
111	0x3dc95f1e	0.09832595
112	0x3ac22d80	0.0014814585
113	0x3bf30300	0.007416129
114	0x3dc7ad3c	0.09749839
115	0xbd539940	-0.051659822
116	0x3bfabf20	0.0076521784
117	0xbd055dc4	-0.032560125
118	0xbd75ab16	-0.059977613
119	0xbbe96e50	-0.007123746
120	0x3d8a918e	0.067660436
121	0x3cffea00	0.03123951
122	0xbdbc45eb	-0.09193023
123	0xbdd3c3c8	-0.10340077
124	0x3dba24e4	0.090890676
125	0x3a8a3180	0.0010543317
126	0xbce2e634	-0.02769766
127	0xbdc9da80	-0.09856129
128	0x3c75c170	0.014999732
129	0xbd090608	-0.033453017
130	0x3e00b0f4	0.12567502
131	0x3db4676c	0.08808789
132	0xbdfadf20	-0.12249589
133	0xbde5d76e	-0.112227306
134	0xbd905409	-0.070472784
135	0x3db829ce	0.089923486
136	0x3c0823f0	0.008309349
137	0xbd01208e	-0.031525187
138	0xbd25e498	-0.040501207
139	0xbdd9a6ce	-0.106275186
140	0xbd20f038	-0.03929159
141	0x397c8400	0.00024081767
142	0xbbe88360	-0.0070957392
143	0x3cbc5638	0.022990331
144	0x3c602460	0.0136805475
145	0x39b0e000	0.0003373623
146	0xbcfcfdf0	-0.030882806
147	0xbdc481f0	-0.09595096
148	0x3d08eea8	0.033430725
149	0x3b0ea940	0.0021768361
150	0x3da3bb68	0.07994729
151	0x3dc926be	0.098218426
152	0xbcae9534	-0.02131138
153	0xbd6b5ec0	-0.057463408
154	0x3d530028	0.05151382
155	0x3dc58ea0	0.09646344
156	0x3d13cd38	0.036084384
157	0x3d9e3a54	0.07725969
158	0x3d79fc94	0.061031893
159	0xbca94694	-0.020663537
160	0xbdef83ea	-0.116950825
161	0xbddc3987	-0.1075316
162	0x3c495150	0.012287453
163	0x3dd5fbde	0.104484305
164	0x3d376134	0.044770434
165	0xbdee7d47	-0.116449885
166	0x3de7b8b0	0.11314523
167	0x3d93e24e	0.072208986
168	0x3b6419c0	0.0034805387
169	0xbd1cdbc0	-0.038295507
170	0x3d193c68	0.037411124
171	0xbdf5d6df	-0.12003874
172	0x3b004840	0.0019574314
173	0x3dc800e6	0.09765796
174	0x3dd87b1c	0.10570356
175	0x3c5c9550	0.013463333
176	0xbd5640fe	-0.052308075
177	0xbdb05fdf	-0.08612036
178	0xbd49cbb6	-0.04926654
179	0xbdbd2670	-0.09235847
180	0xbccd7e64	-0.025084682
181	0xbdebfb38	-0.115225255
182	0x3c9b6fb8	0.01897417
183	0xbcbed028	-0.023292616
184	0x3dcfbd24	0.101434976
185	0xbcc64060	-0.024200618
186	0xbdea422e	-0.11438404
187	0x3db122b0	0.08649194
188	0x3da840da	0.082154945
189	0xbdad021d	-0.08447669
190	0x3d95d43a	0.0731587
191	0xbdd95ac6	-0.10613017
192	0xbdd3faf3	-0.10350599
193	0xbd03a3cc	-0.03213863
194	0xbd8f2984	-0.0699034
195	0x3da39e0a	0.07989128
196	0xbdd1ddbe	-0.10247372
197	0xbddc8eb6	-0.107694075
198	0x3ccbe518	0.024889514
199	0xbb8e1950	-0.0043365136
200	0x3df8b6ac	0.12144217
201	0x3d728708	0.059210807
202	0xbd548162	-0.0518812
203	0x3de4ecd4	0.11177984
204	0x3c8e9bd8	0.017408296
205	0xbdf72e53	-0.120693825
206	0x3d2b75dc	0.041860446
207	0x3dacd3e8	0.084388554
208	0xbd210efe	-0.03932094
209	0x3df9ad7a	0.12191291
210	0x3d77c374	0.060489133
211	0x3dc48308	0.09595305
212	0x3cc28fc8	0.0237502
213	0xbdc81042	-0.09768726
214	0x3ccc1300	0.024911404
215	0x3d0c6ad0	0.03428155
216	0xbb85afb0	-0.0040797815
217	0xbd13bcf4	-0.03606887
218	0xbd16b66c	-0.036795065
219	0x3d8940de	0.067018256
220	0xbd8a112e	-0.06741558
221	0x3db26382	0.08710386
222	0x3d195cd8	0.03744206
223	0x3cbcbc60	0.023039043
224	0xbd2c2d8e	-0.04203563
225	0xbdd65026	-0.10464506
226	0xbdb20ef8	-0.08694261
227	0xbdf15bce	-0.117850885
228	0xbd9185e3	-0.07105615
229	0xbde3ffbf	-0.11132764
230	0x3d68eb8c	0.05686526
231	0xbde44cb3	-0.11147442
232	0xbd9c2d98	-0.07625884
233	0xbde4a67a	-0.111645654
234	0x3dba9ab0	0.091115355
235	0x3d319bd4	0.0433615
236	0x3c1c2d40	0.009532273
237	0xbd266b3a	-0.040629603
238	0xbb6a6e80	-0.003577143
239	0x3dda6d58	0.10665387
240	0x3d0381ac	0.032106087
241	0x3d862b0c	0.06551179
242	0x3caa7958	0.020809814
243	0xbd268922	-0.040658124
244	0xbcf7ee88	-0.030265108
245	0xbd97743e	-0.07395218
246	0x3d94b44a	0.0726095
247	0xbdb53dfd	-0.08849714
248	0xbd18c838	-0.03730032
249	0xbd327afa	-0.04357431
250	0x3d78b4a0	0.060719132
251	0xbc3e2de8	-0.011607625
252	0x3dbe2aec	0.092855304
253	0x3daa22fc	0.08307454
254	0x3db87f8e	0.09008704
255	0xbd1efa44	-0.03881289

encoder.0.bias f4 [50]
0	0x3c58fb80	0.013243556
1	0xbd18505c	-0.03718601
2	0xbde6424e	-0.11243115
3	0x3b7a9a40	0.0038238913
4	0xbdf85835	-0.12126199
5	0xbd5bbf5a	-0.053649284
6	0xbdf3a115	-0.11895958
7	0x3d3c7e98	0.046019167
8	0x3de8c1c8	0.11365086
9	0xbdbf20ef	-0.093324535
10	0xbc17afd0	-0.009258226
11	0xbc961bb4	-0.018323757
12	0xbda0aa9b	-0.078450404
13	0x3d1f77ac	0.038932487
14	0xbd49997a	-0.049218632
15	0x3da7d030	0.081940055
16	0xbcf3cab8	-0.02975975
17	0x3def771c	0.1169264
18	0x3ce0df58	0.027450249
19	0xbda7939b	-0.081824504
20	0xbd8b4dc2	-0.068019405
21	0xbc8606b4	-0.016360618
22	0xbdc7d65f	-0.09757685
23	0x3ddd82c2	0.10815956
24	0x3d8915a4	0.06693581
25	0xbcc49a50	-0.023999363
26	0x3c81ef10	0.015861064
27	0xbdf16f19	-0.11788768
28	0x3d108638	0.03528425
29	0x3bfa1cc0	0.007632822
30	0xbd796ffe	-0.06089782
31	0x3dfcedd6	0.12350051
32	0xba68a200	-0.00088742375
33	0x3dbb355c	0.09141037
34	0x3df0022c	0.11719164
35	0xbdf7fec3	-0.12109139
36	0x3d901224	0.0703471
37	0xbd678e58	-0.056532234
38	0xbdad12fa	-0.08450885
39	0xbdc62b94	-0.096762806
40	0xbd8c4ca4	-0.068505555
41	0xbddfd34c	-0.109289736
42	0xbd89db20	-0.06731248
43	0xbded0e2e	-0.1157497
44	0xbd9256d2	-0.07145466
45	0xbd57a058	-0.05264315
46	0x3d9a6008	0.07537848
47	0xbdf4a948	-0.1194635
48	0xbc8a21b8	-0.016861781
49	0x3db0cc1c	0.08632681

encoder.2.weight f4 [25, 50]
0	0xbd175a5c	-0.036951408
1	0x3d97c3fe	0.074104294
2	0x3daa8510	0.08326161
3	0x3d35ca88	0.044382602
4	0x3d817452	0.063210145
5	0x3d09eec0	0.033674955
6	0x3dca6dfa	0.098842576
7	0x3e109773	0.14120273
8	0xbd4fc2b8	-0.050722808
9	0xbe08780b	-0.13327043
10	0x3c85c2d8	0.01632826
11	0x3dc6c640	0.09705782
12	0xbc9b0298	-0.018922135
13	0xbe087582	-0.13326076
14	0xbc83c3e8	-0.016084626
15	0x3d65d098	0.056107134
16	0x3b22b880	0.002482921
17	0xbd054eda	-0.0325459
18	0xbc1f2900	-0.009714365
19	0xbc4c0b60	-0.012453884
20	0x3e0203f1	0.12696816
21	0xbe0f3738	-0.13985908
22	0xbd30d4fe	-0.043171875
23	0x3dc7efe8	0.09762555
24	0xbd483558	-0.048878998
25	0x3d33ccd0	0.043896496
26	0xbc4a7ea0	-0.012359291
27	0x3c89db08	0.016828075
28	0x3d055da4	0.032560006
29	0xbde0f7a6	-0.10984735
30	0xbd933462	-0.071877256
31	0x3cb425f8	0.021990761
32	0xbd19f768	-0.03758946
33	0xbda24164	-0.079226285
34	0x3e0f7eab	0.14013164
35	0x3d8c2b94	0.06844249
36	0xbd9d2577	-0.076731615
37	0x3d8ef79c	0.069808215
38	0xbdef411b	-0.1168234
39	0x3cd8f150	0.026482254
40	0xbd5c59b6	-0.053796493
41	0x3c1ad8d0	0.009451106
42	0xbdbbc79b	-0.09168931
43	0x3d2e92f0	0.0426206
44	0xbd7a0a42	-0.06104494
45	0x3def753a	0.11692281
46	0x3da896b8	0.08231872
47	0x3de598e6	0.11210804
48	0x3e06045b	0.13087599
49	0x3dc933fa	0.09824367
50	0x3d8e63c6	0.06952624
51	0x3b8ec620	0.0043571144
52	0x3d04c1e8	0.032411486
53	0xbd5ca84e	-0.053871445
54	0xbd09edd2	-0.03367407
55	0xbcdd0730	-0.026980966
56	0xbc6a2370	-0.0142906755
57	0x3e024853	0.12722902
58	0x3dcd27a2	0.10017325
59	0x3da6ccd2	0.08144535
60	0x3dbd4f82	0.092436805
61	0x3d80a460	0.06281352
62	0x3d90b6a2	0.070660844
63	0xbc9e71a0	-0.01934129
64	0xbc7147b0	-0.014726564
65	0xbda42ac3	-0.08015969
66	0x3be80f20	0.007081881
67	0x3e0153c3	0.12629609
68	0x3d158704	0.036505714
69	0x3d94d584	0.072672874
70	0x3bbf6dc0	0.0058419406
71	0xbe0fcf72	-0.14043978
72	0xbdcb3315	-0.099218525
73	0xbdcb616e	-0.099306926
74	0x3d698984	0.05701591
75	0xbda7c934	-0.08192673
76	0x3d61caf0	0.055125177
77	0x3de17eee	0.11010538
78	0x3dee03d2	0.116218224
79	0x3d0d7240	0.034532785
80	0xbd91905f	-0.07107615
81	0xbd869053	-0.065704964
82	0x3d505e30	0.050871074
83	0x3d2f52f4	0.04280372
84	0x3cbf87c0	0.02338016
85	0x3d90cdfa	0.07070537
86	0xbd719a98	-0.058985323
87	0x3d3a71f8	0.045518845
88	0xbe0f1d1c	-0.13975948
89	0x3e0c3d83	0.1369534
90	0xbdc4185e	-0.0957496
91	0x3c0ba970	0.008524284
92	0x3d602310	0.05472094
93	0xbdb8f696	-0.090314075
94	0x3d643520	0.055714726
95	0xbd222bda	-0.0395926
96	0xbdf039b7	-0.11729758
97	0xbda16955	-0.078814186
98	0xbd7e2a6a	-0.062052168
99	0xbd9313ef	-0.071815364
100	0x3dcdfb8a	0.10057743
101	0x3cc34668	0.023837283
102	0x3d488538	0.048955172
103	0x3d170e60	0.036878943
104	0xbdda3060	-0.10653758
105	0x3db4b812	0.08824171
106	0xbd947ee9	-0.07250769
107	0x3dbc3290	0.091893315
108	0xbdb341e8	-0.08752805
109	0x3e03359d	0.1281342
110	0xbcb39d00	-0.02192545
111	0xbd710e4e	-0.058851533
112	0xbc8391c8	-0.016060725
113	0xbbb1df40	-0.005428225
114	0xbe07782d	-0.13229437
115	0xbe0316e9	-0.12801708
116	0xbd69acde	-0.057049625
117	0x3de9756e	0.11399351
118	0xbdbddbd4	-0.092704445
119	0x3d6d8f64	0.057998076
120	0xbdcedc6e	-0.101006374
121	0xbcc5c110	-0.024139911
122	0x3ddf884e	0.1091467
123	0xbe02248c	-0.12709254
124	0x3c9a5aa0	0.018842041
125	0xbcba0f24	-0.022712298
126	0x3e0ba33f	0.13636492
127	0xbcd26960	-0.025685012
128	0xbdd23bd8	-0.102653205
129	0xbdb747b2	-0.08949222
130	0x3cb3df98	0.021957204
131	0x3c9d1090	0.019172937
132	0xbdd55d16	-0.10418145
133	0x3ddad764	0.10685614
134	0xbdfdebba	-0.12398477
135	0xbdbcc298	-0.09216803
136	0xbd9aed45	-0.07564787
137	0xbe05920e	-0.13043997
138	0xbde58faf	-0.11209046
139	0x3d5ae670	0.05344242
140	0x3d3b6e14	0.045759276
141	0xbdbb5770	-0.09147537
142	0xbd8d4cbd	-0.06899402
143	0x3d5062b8	0.050875396
144	0xbcfe1898	-0.031017587
145	0xbc8e6504	-0.017382152
146	0x3dba5104	0.09097484
147	0xbde1c704	-0.11024287
148	0xbd5842d6	-0.052798115
149	0x3c9a0fb8	0.018806323
150	0x3cf69918	0.030102298
151	0xbd89e250	-0.06732619
152	0xbd57502a	-0.052566685
153	0xbd9ef184	-0.07760909
154	0xbd4f50c4	-0.050614133
155	0xbdbaa674	-0.0911378
156	0x3d151dc8	0.036405355
157	0x3db4fbc0	0.0883708
158	0x3e040b4f	0.12894939
159	0xbdc25fa8	-0.09490901
160	0x3d43a690	0.04776627
161	0x3e0aad0b	0.13542573
162	0xbd9f191d	-0.07768462
163	0x3d3d1f68	0.04617253
164	0x3dccdae8	0.100026906
165	0x3cbcff98	0.023071095
166	0xbddbf69c	-0.107403964
167	0x3d6a7884	0.05724384
168	0x3ded3906	0.11583142
169	0x3d9f0f0a	0.0776654
170	0x3d150f6c	0.03639166
171	0x3c8c9e18	0.017165229
172	0x3e018f43	0.12652306
173	0x3dcf0d2e	0.10109936
174	0xbdba6e3e	-0.09103058
175	0x3decaa26	0.11555891
176	0x3cc33730	0.023830026
177	0xbda799bd	-0.0818362
178	0xbd5f7782	-0.05455733
179	0xbe009dfe	-0.12560269
180	0xbd21fc00	-0.039546967
181	0x3dd6beac	0.104855865
182	0xbd6cf782	-0.05785323
183	0xbcc94a8c	-0.02457168
184	0xbd8b7c4b	-0.068108164
185	0xbe03a640	-0.12856388
186	0x3dd623f8	0.10456079
187	0x3c832fc0	0.01601398
188	0x3ce06888	0.027393594
189	0xbd9813c6	-0.074256465
190	0x3e06f60f	0.13179801
191	0x3e0cc8af	0.1374843
192	0xbdd8e5df	-0.105907194
193	0x3d995bde	0.074882254
194	0xbd937916	-0.0720083
195	0x3da09e54	0.07842699
196	0x3de8bd2e	0.11364208
197	0xbc571010	-0.013126388
198	0xbc24b750	-0.010053471
199	0xbdf2035b	-0.11817046
200	0xbda82328	-0.082098305
201	0xbc876044	-0.016525395
202	0xbde8dd00	-0.113702774
203	0xbd914090	-0.070923924
204	0xbc95170c	-0.018199466
205	0xbd050350	-0.032473862
206	0x3c8bc0e0	0.017059743
207	0x3d1b276c	0.037879393
208	0xbd216234	-0.039400294
209	0xbc3a48b0	-0.011369869
210	0xbdd2facc	-0.10301742
211	0xbdc29b63	-0.09502294
212	0x3d99be70	0.07507026
213	0xbe0c1599	-0.13680114
214	0x3e049a8b	0.12949578
215	0x3c200680	0.009767175
216	0xbd2e4370	-0.042544782
217	0x3dc63a34	0.0967907
218	0xbe0803cc	-0.13282698
219	0x3ddfe9a2	0.10933234
220	0x3c498de0	0.012301892
221	0x3df40dea	0.119167164
222	0x3dc0c0dc	0.09411785
223	0x3de3d5d6	0.1112477
224	0xbda76822	-0.08174159
225	0xbc389590	-0.011266127
226	0xbe0ac1e1	-0.13550521
227	0x3df76eb2	0.1208166
228	0x3e06ab59	0.13151301
229	0x3bd113c0	0.006380528
230	0x3dd6b87c	0.10484406
231	0x3d277728	0.04088512
232	0x3de62cea	0.112390354
233	0x3d44c840	0.048042536
234	0xbd63e492	-0.055637904
235	0xbe0d5e9f	-0.13805626
236	0xbd0a0144	-0.033692613
237	0xbdedea04	-0.116169006
238	0xbdea9d6a	-0.114558056
239	0x3e07dfc1	0.13268949
240	0x3dc5d7f0	0.096603274
241	0x3dc09244	0.09402898
242	0xbd5fd0be	-0.05464243
243	0x3cc1ade8	0.023642495
244	0xbdbf6436	-0.093452856
245	0x3e07bdc5	0.13255985
246	0x3cfb1698	0.030650422
247	0x3db57a8a	0.08861263
248	0x3d9faa32	0.07796134
249	0x3dfd36b6	0.12363951
250	0x3d9f900e	0.07791148
251	0x3ac61980	0.0015113801
252	0xbd9bd7f7	-0.076095514
253	0x3dfa4f0a	0.12222107
254	0xbdf3ca1d	-0.119037844
255	0xbdbec445	-0.09314779

encoder.2.bias f4 [25]
0	0xbe0b2efd	-0.13592143
1	0xbe0bf2a6	-0.13666782
2	0x3c8e40a0	0.0173648
3	0x3ca6eb18	0.020375773
4	0xbbe05420	-0.006845966
5	0x3d39d184	0.045365825
6	0xbcfb243c	-0.030656926
7	0xbb1ae000	-0.002363205
8	0x3e0e1161	0.13873817
9	0x3e0d335f	0.13789128
10	0xbd81795e	-0.06321977
11	0x3cad3a70	0.02114603
12	0x3da27056	0.07931583
13	0x3b97f100	0.0046368837
14	0x3d983620	0.074321985
15	0x3d85cf2e	0.06533657
16	0xbd9c9318	-0.076452434
17	0x3db60bae	0.088889465
18	0x3d0dcb28	0.034617573
19	0xbc7d74e0	-0.01546976
20	0x3d1cebcc	0.03831081
21	0xbdaf7402	-0.085670486
22	0x3df28dd2	0.11843456
23	0xbe0edd46	-0.13951597
24	0xbdbabd7a	-0.09118171

encoder.4.weight f4 [15, 25]
0	0xbe3b8fcf	-0.18316577
1	0xbdee0263	-0.11621549
2	0x3df53cc2	0.11974479
3	0xbe26510e	-0.16241857
4	0xbdda732d	-0.10666499
5	0xbe195db8	-0.14977157
6	0xbdafc063	-0.08581617
7	0x3e0ce28d	0.13758297
8	0xbd8bec64	-0.06832197
9	0x3d9e7812	0.07737745
10	0xbe49f790	-0.19723344
11	0x3d83704e	0.06417905
12	0x3e17d381	0.14826776
13	0xbd88943c	-0.066688985
14	0x3e00d245	0.12580211
15	0x3e1fbb75	0.15598853
16	0x3e34f375	0.17670996
17	0xbe3d020f	-0.18457817
18	0x3e469539	0.19392861
19	0x3c0e3230	0.008678958
20	0xbdee09e0	-0.11622977
21	0xbe0c619c	-0.1370911
22	0x3e2472df	0.16059445
23	0xbdf24fb0	-0.118316054
24	0x3d55d204	0.05220224
25	0xbe0736fd	-0.1320457
26	0x3d6db104	0.058030143
27	0x3e17d4d9	0.14827289
28	0xbcf1d640	-0.029521108
29	0x3d972d3a	0.07381673
30	0xbd0dfe98	-0.034666628
31	0x3d485994	0.048913553
32	0xbd3e07c8	-0.04639414
33	0xbe0e8846	-0.13919172
34	0xbe16aeeb	-0.14715163
35	0x3c7ace20	0.015307933
36	0xbda3a62a	-0.07990678
37	0xbbef8800	-0.0073099136
38	0xbe3ce38a	-0.18446174
39	0xbdc3f0d0	-0.09567416
40	0xbb023000	-0.0019865036
41	0xbe25fab5	-0.16208918
42	0x3ccaadd0	0.024741083
43	0xbe146c68	-0.14494479
44	0xbc07ad80	-0.008281112
45	0xbdfc83d3	-0.12329831
46	0x3e3e25f1	0.18569161
47	0xbe113486	-0.14180192
48	0xbdf3c76d	-0.11903272
49	0x3d21cdb8	0.03950283
50	0x3e33fa41	0.17575933
51	0xbe244023	-0.16040091
52	0x3dcff582	0.10154249
53	0x3cb186f0	0.021670789
54	0xbe228d6b	-0.15874259
55	0xbdccf4da	-0.10007639
56	0xbdb31b00	-0.08745384
57	0xbdba60ba	-0.091004804
58	0x3e3da56b	0.18520133
59	0x3de9d9f6	0.11418526
60	0x3e2f8bed	0.17143221
61	0x3dc64942	0.096819416
62	0x3e3c00a9	0.18359627
63	0xbd16e02c	-0.03683488
64	0x3da629e6	0.0811346
65	0x3d795214	0.06086929
66	0x3dee4c7a	0.116356805
67	0xbdac7fa7	-0.08422785
68	0xbe3391d7	-0.17536102
69	0xbc585630	-0.013204142
70	0xbd692bec	-0.056926653
71	0xbc26a160	-0.010170311
72	0xbe412e6b	-0.18865363
73	0xbe03192a	-0.12802568
74	0x3e42c537	0.19020544
75	0xbcf2d230	-0.02964124
76	0xbc814140	-0.015778184
77	0x3e3daed7	0.18523727
78	0xbd83005a	-0.063965514
79	0x3cfe5230	0.03104505
80	0x3e214891	0.15750338
81	0x3e21509f	0.15753411
82	0x3d65660c	0.056005523
83	0x3de0551e	0.10953735
84	0x3e34de0d	0.1766283
85	0x3de0ec0e	0.10982524
86	0x3e28374b	0.16427343
87	0x3de200b6	0.11035292
88	0x3c5f51e0	0.01363036
89	0xbb2f8140	-0.002677992
90	0xbce68a58	-0.02814214
91	0xbdab393d	-0.08360527
92	0x3c383830	0.011243865
93	0xbd1f57e8	-0.038902193
94	0x3d4adf98	0.049529642
95	0x3e18b891	0.14914156
96	0x3e2d4399	0.16920318
97	0x3bc194c0	0.005907625
98	0xbce10600	-0.027468681
99	0xbdd9cdf7	-0.10634988
100	0xbdb78a7a	-0.08961959
101	0x3d059d00	0.03262043
102	0xbe2fb5b0	-0.17159152
103	0x3e097dff	0.1342697
104	0xbc6d50a0	-0.0144845545
105	0x3de0edc6	0.10982852
106	0x3e2775a1	0.16353466
107	0xbd90ca8c	-0.07069883
108	0x3da82362	0.08209874
109	0x3d30ea0c	0.043191954
110	0x3dc4e772	0.09614457
111	0x3e4a9a8f	0.19785522
112	0x3e2b9b31	0.1675842
113	0xbda9c86a	-0.08290179
114	0x391a6c00	0.00014726818
115	0x3e4bcc8f	0.19902252
116	0xbde1ff27	-0.110349946
117	0x3c49f9e0	0.012327641
118	0xbe42e67d	-0.19033237
119	0xbd884ce4	-0.06655291
120	0x3e30b397	0.17256008
121	0x3d907992	0.07054438
122	0xbd57d92c	-0.052697346
123	0x3e1df175	0.1542414
124	0x394cc000	0.00019526482
125	0xbdf417cd	-0.11918602
126	0x3df2e09a	0.118592456
127	0xbe26ea2b	-0.16300265
128	0x3dfc830e	0.12329684
129	0xbddacb5d	-0.1068332
130	0x3dfc3aa2	0.12315871
131	0xbe2dac82	-0.16960338
132	0x3e2a8951	0.16653945
133	0x3dd52b82	0.10408689
134	0xbe232026	-0.15930232
135	0xbdf43ff0	-0.119262576
136	0x3d5590f4	0.05214019
137	0xbd65de78	-0.056120366
138	0xbd3fc954	-0.04682286
139	0xbd362614	-0.044469908
140	0x3c6f2000	0.014595032
141	0xbd420788	-0.047370464
142	0x3e2f2f67	0.17107926
143	0x3e3fd461	0.1873336
144	0x3e249283	0.16071515
145	0x3db77896	0.08958547
146	0xbe1bec92	-0.15226963
147	0x3d484080	0.048889637
148	0xbde07f5d	-0.109617926
149	0xbe3681d7	-0.17822967
150	0x3d1a7780	0.03771162
151	0x3d0117c8	0.03151682
152	0xbe084ff4	-0.1331175
153	0xbe11942e	-0.14216682
154	0xbcdde230	-0.027085394
155	0xbd14bcc8	-0.03631285
156	0xbe41465f	-0.188745
157	0x3d2923cc	0.041293904
158	0x3daa9dfa	0.08330913
159	0xbe39ad7a	-0.18132582
160	0x3dc5bd86	0.09655289
161	0x3deb6a66	0.11494903
162	0x3e36451d	0.17799802
163	0x3da8cbee	0.082420215
164	0x3e07011b	0.13184015
165	0x3cdecd10	0.02719739
166	0x3b8f7fa0	0.0043792278
167	0xbd8a6bc0	-0.06758833
168	0xbd18784c	-0.0372241
169	0x3d00d7a0	0.031455636
170	0x3d2d3054	0.042282417
171	0x3df78b22	0.12087084
172	0x3bd620c0	0.006534666
173	0x3e323377	0.17402445
174	0xbdef1737	-0.1167435
175	0x3d42b340	0.047534227
176	0x3d593e44	0.053037897
177	0xbe29bb95	-0.16575463
178	0x3dac18b6	0.08403151
179	0xbc7e0f60	-0.015506595
180	0x3c930ec0	0.01795137
181	0xbd310f58	-0.043227524
182	0xbd809e54	-0.06280199
183	0x3db8961e	0.090130076
184	0xbd726478	-0.059177846
185	0x3dbbdbf2	0.091728106
186	0xbe24801b	-0.16064493
187	0xbe336bd0	-0.17521596
188	0xbd662500	-0.05618763
189	0xbe02b020	-0.12762499
190	0x3d1ada34	0.03780575
191	0xbe0baff0	-0.13641334
192	0xbe0f1ff2	-0.1397703
193	0x3dbc0be2	0.09181954
194	0x3dbf83f6	0.093513414
195	0x3e1b3c3f	0.15159701
196	0x3d3e7af8	0.04650399
197	0xbc79aab0	-0.015238449
198	0xbe01df66	-0.12682876
199	0x3d304074	0.043030217
200	0x3d53086c	0.051521704
201	0x3e2ca809	0.16860975
202	0xbe08e1be	-0.13367364
203	0x3c8d2b80	0.017232656
204	0xbcd26218	-0.02568154
205	0xbddfbbca	-0.1092449
206	0xbcf49ab0	-0.029858917
207	0x3ddd8616	0.108165905
208	0xbe46cca0	-0.19413996
209	0x3cede3e8	0.029039338
210	0xbe15dcab	-0.1463496
211	0xbb8bd640	-0.004267484
212	0xbcc148b0	-0.02359423
213	0xbd035540	-0.032063723
214	0x3dddceb2	0.108304396
215	0xbddd0ead	-0.10793815
216	0xbd4c2180	-0.049836636
217	0xbe356615	-0.17714722
218	0x3c908f68	0.017646506
219	0x3e2890cd	0.16461487
220	0xbd54faec	-0.05199711
221	0xbe3a3c6a	-0.18187109
222	0xbc4b7a60	-0.012419313
223	0x3dd88bb2	0.1057352
224	0xbd14be80	-0.036314487
225	0x3dd64ff2	0.10464467
226	0x3de49e72	0.111630335
227	0x3e3d6dd1	0.18498923
228	0xbe3caa9d	-0.18424459
229	0x3db1e442	0.08686115
230	0x3dc39bf6	0.095512316
231	0xbdb1e07a	-0.08685394
232	0x3db43e52	0.08800949
233	0xbe3a4e7b	-0.18194
234	0x3e3d1787	0.18466006
235	0x3bc17000	0.005903244
236	0x3ccd13e8	0.025033906
237	0xbcd64e50	-0.02616039
238	0xbcc3d140	-0.02390349
239	0x3d91ab9e	0.071128115
240	0x3e1b0f8f	0.15142654
241	0xbe37dcdd	-0.17955346
242	0x3dfd2ae2	0.12361695
243	0xbdfa22ba	-0.12213655
244	0xbd29fa2c	-0.041498348
245	0xbcd9da30	-0.026593298
246	0x3d4b9b2c	0.04970853
247	0x3e2a285b	0.16616957
248	0x3e4a0d7b	0.19731705
249	0xbdbdee0a	-0.09273918
250	0xbe3a9542	-0.18221
251	0x3dd79106	0.10525708
252	0xbd56e868	-0.052467734
253	0x3c41a4a0	0.011819035
254	0xbd969d4a	-0.07354219
255	0xbdcf089d	-0.10109065

encoder.4.bias f4 [15]
0	0xbcfa0a90	-0.030522615
1	0xbe164e2e	-0.1467826
2	0xbc60b120	-0.013714105
3	0x3da359c2	0.07976104
4	0x3d06fc0c	0.032955214
5	0xbe236826	-0.15957698
6	0xbe25713d	-0.16156478
7	0xbdfc5fe7	-0.123229794
8	0x3e230ad9	0.15922107
9	0xbc036a20	-0.008020908
10	0x3e49eebb	0.19719975
11	0xbe23f9e3	-0.16013293
12	0x3dafc87e	0.08583163
13	0x3c878798	0.016544148
14	0x3c7b2cd0	0.015330508

decoder.0.weight f4 [25, 15]
0	0xbe318694	-0.17336494
1	0xbe628785	-0.22122009
2	0xbe19d8e0	-0.15024137
3	0x3e73cb94	0.23808128
4	0x3e61b096	0.22040018
5	0x3e3a3490	0.18184114
6	0xbd90d79e	-0.07072376
7	0x3e532186	0.20618257
8	0xbe1dce34	-0.15410691
9	0x3e83b95d	0.25727358
10	0xbe2527e6	-0.16128501
11	0x3ce5abb0	0.028035969
12	0x3d98da7c	0.074635476
13	0x3deb00d4	0.11474767
14	0x3e837951	0.25678495
15	0x3df329f0	0.11873233
16	0xbd2e6b88	-0.04258302
17	0xbe5f890e	-0.21829626
18	0xbdaae776	-0.08344929
19	0x3e24d474	0.1609667
20	0xbde5739e	-0.11203693
21	0xbe5c0510	-0.21486306
22	0xbdcf01ea	-0.10107787
23	0x3ddd6260	0.10809779
24	0xbd5fdfe4	-0.054656878
25	0xbd5f43e0	-0.05450809
26	0x3e19c1a6	0.15015277
27	0x3e461826	0.1934515
28	0xbdbefe62	-0.093258634
29	0x3befecc0	0.007321924
30	0x3e474716	0.19460711
31	0xbe16c34e	-0.1472294
32	0x3dc76998	0.09736937
33	0xbe090cc6	-0.13383779
34	0x3e6a1dce	0.22862932
35	0xbe55784e	-0.20846674
36	0x3d306420	0.043064237
37	0x3e313d36	0.17308506
38	0xbe4ace72	-0.19805315
39	0x3db52294	0.08844486
40	0xbdeb2d92	-0.11483301
41	0x3e5a52c4	0.21320635
42	0xbe80c98e	-0.25153774
43	0xbdedb058	-0.116059005
44	0xbca3b6a8	-0.019984558
45	0x3d4fd148	0.050736696
46	0x3e02b9a2	0.12766126
47	0xbd817dfa	-0.06322856
48	0xbe1f68ec	-0.15567368
49	0x3e435980	0.1907711
50	0x3e2beb3a	0.1678895
51	0x3e55be36	0.20873341
52	0xbe79d01f	-0.24395798
53	0x3d987d9c	0.07445833
54	0x3df389f0	0.11891544
55	0x3d3d9218	0.046281904
56	0xbe76adb8	-0.24089706
57	0x3e2a7fdc	0.16650337
58	0xbe1a0f74	-0.15044957
59	0xbe18aad9	-0.14908923
60	0xbd9e1eb6	-0.077207014
61	0xbe526b8d	-0.2054884
62	0xbe229158	-0.15875757
63	0xbe2ec4f0	-0.17067313
64	0xbd71703c	-0.058944926
65	0x3c386a20	0.011255771
66	0xbe7dd924	-0.24789864
67	0x3dc2c4dc	0.09510204
68	0xbdd3b21c	-0.10336706
69	0xbe47c4a6	-0.19508609
70	0x3d046460	0.032322288
71	0xbe2e68e2	-0.17032197
72	0xbd358298	-0.044313997
73	0x3dd84620	0.1056025
74	0x3dacbaa8	0.08434039
75	0x3e53ddf6	0.2069014
76	0x3e232a42	0.15934089
77	0xbe3b57e7	-0.18295251
78	0xbd65f460	-0.056141257
79	0xbdaa78e4	-0.08323839
80	0xbd167524	-0.036732808
81	0x3e601f62	0.21886972
82	0xbe229214	-0.15876037
83	0xbcbfe0f8	-0.023422703
84	0x3da75d94	0.081721455
85	0x3dfe2f04	0.12411311
86	0xbdc96d7c	-0.098353356
87	0x3df0bb20	0.11754441
88	0x3dacc020	0.084350824
89	0x3e7c32fe	0.24628827
90	0x3df4045c	0.11914894
91	0x3da632bc	0.081151456
92	0xbd931394	-0.071814686
93	0x3e80ba4f	0.25142142
94	0xbdcac06e	-0.09899984
95	0x3e3b6c8c	0.18303126
96	0xbe3f940e	-0.18708822
97	0xbda24f14	-0.07925239
98	0x3d488ff0	0.048965394
99	0x3d8bbe30	0.06823385
100	0xbe691dc0	-0.22765255
101	0x3c002960	0.007822365
102	0x3d729378	0.05922267
103	0xbd5493ac	-0.051898643
104	0xbd5503f4	-0.052005723
105	0x3e6052c0	0.21906567
106	0x3e111398	0.1416763
107	0x3e0ebfac	0.13940305
108	0x3e1e4222	0.15454915
109	0xbda6bfdc	-0.08142063
110	0xbd0ebd48	-0.03484848
111	0x3e15f996	0.1464599
112	0x3e5eadbe	0.21745965
113	0x3e05b672	0.13057879
114	0xbe4aea49	-0.19815935
115	0x3e55faaa	0.20896402
116	0xbe0d9eb9	-0.13830079
117	0x3e298200	0.16553497
118	0xbc803a30	-0.015652746
119	0xbe1c99f0	-0.15293097
120	0x3e57c058	0.21069467
121	0xbde5069c	-0.11182901
122	0x3d91d884	0.07121375
123	0x3e813319	0.25234297
124	0xbd102f50	-0.03520137
125	0x3e766782	0.24062923
126	0xbc7b8390	-0.015351191
127	0x3dd97394	0.10617748
128	0xbe2bd97c	-0.16782182
129	0x3d9853b8	0.07437843
130	0x3d7f94b0	0.06239766
131	0x3dc3f9fc	0.09569165
132	0x3e1f88d4	0.1557954
133	0x3c634060	0.013870329
134	0xbd5d2564	-0.053990737
135	0x3e01123a	0.12604609
136	0x3d58f6e8	0.052969843
137	0x3d93e370	0.07221115
138	0x3e704f1c	0.23467678
139	0x3bddb500	0.0067659616
140	0x3dd82254	0.105534226
141	0x3e83e2fb	0.2575911
142	0x3d84ac90	0.06478226
143	0x3e5e4a48	0.21708024
144	0x3e138e40	0.14409733
145	0xbe4f2617	-0.20229374
146	0x3e3e1262	0.185617
147	0x3e8212ed	0.25405064
148	0xbcc082c0	-0.023499846
149	0xbe24c73a	-0.16091624
150	0xbe80b853	-0.25140628
151	0xbc916b40	-0.017751336
152	0x3e311cc0	0.17296124
153	0x3d2450d8	0.04011616
154	0x3c7bbaa0	0.015364319
155	0x3e22a050	0.15881467
156	0xbe70fed3	-0.23534708
157	0x3e4f67c4	0.20254427
158	0xbe83707d	-0.2567176
159	0xbe48cede	-0.19610164
160	0x3e51de70	0.2049501
161	0xbe358986	-0.17728242
162	0x3e69faa8	0.22849524
163	0x3d87bf68	0.06628305
164	0x3e118054	0.1420911
165	0x3db4c4b4	0.08826581
166	0x3de2cfb4	0.110747725
167	0x3e78aa1a	0.24283639
168	0xbe0e3f9d	-0.13891454
169	0x37fe8000	3.0338764e-05
170	0x3d8098a0	0.06279111
171	0xbd84db60	-0.06487155
172	0x3e635422	0.22200063
173	0x3d5959f0	0.053064287
174	0xbd0be1c4	-0.034150854
175	0x3e1667e0	0.14688063
176	0xbdba5274	-0.09097758
177	0xbe031ae9	-0.12803234
178	0x3dd2ab18	0.1028654
179	0x3e450226	0.19239101
180	0xbd49366c	-0.049124166
181	0xbe40fc82	-0.18846324
182	0x3cb1fbd0	0.021726519
183	0xbda1f1e6	-0.079074666
184	0x3c0014e0	0.007817477
185	0x3ba93080	0.0051632524
186	0x3e825081	0.25452045
187	0xbad7de00	-0.0016469359
188	0xbdafdbde	-0.08586858
189	0xbe04e503	-0.12977986
190	0xbe076b34	-0.13224488
191	0x3e81cdb5	0.25352255
192	0x3df33c88	0.1187678
193	0xbe177f54	-0.14794666
194	0x3e0e7d38	0.13914955
195	0xbdcbe948	-0.09956604
196	0xbc475060	-0.012165159
197	0xbcb3c150	-0.021942765
198	0x3dfc9868	0.12333757
199	0xbe7a98a3	-0.24472289
200	0xbce10de8	-0.027472451
201	0xbdcd2412	-0.100166455
202	0xbe2b5dc6	-0.1673499
203	0x3e1708ca	0.14749447
204	0xbe4266f4	-0.18984586
205	0x3df324f4	0.118722826
206	0x3dfa5080	0.122223854
207	0xbdbdb1ce	-0.09262429
208	0xbe7188e8	-0.23587382
209	0xbe3a467a	-0.18190947
210	0xbe0bc8d3	-0.13650827
211	0xbdd368e0	-0.10322738
212	0x3e6c3920	0.23068666
213	0x3e551dd6	0.20812163
214	0xbd42d150	-0.047562897
215	0x3d266330	0.040621936
216	0x3e381740	0.17977619
217	0x3cf2e210	0.02964881
218	0x3e609660	0.21932364
219	0xbe536d73	-0.2064722
220	0xbc0a45a0	-0.008439451
221	0xbcf9a1c8	-0.030472651
222	0x3e3ed356	0.18635306
223	0x3e44931a	0.1919674
224	0x3e51c784	0.20486265
225	0x3e44d1d6	0.19220671
226	0x3e1db9f4	0.15402967
227	0x3df3818c	0.118899435
228	0xbd770674	-0.06030889
229	0x3e793802	0.24337772
230	0x3e2ce56c	0.16884392
231	0x3e724f94	0.23663169
232	0x3dff2338	0.12457889
233	0xbda07ac4	-0.07835916
234	0xbd069e8c	-0.032866046
235	0xbe11c578	-0.14235485
236	0xbc828c28	-0.015935972
237	0xbe6de146	-0.23230466
238	0xbe0b4b6c	-0.1360299
239	0xbde08566	-0.10962944
240	0xbe2a5fe4	-0.16638142
241	0x3e624b82	0.22099116
242	0x3de7a100	0.11310005
243	0xbe4418a0	-0.19150019
244	0x3d800fec	0.06253037
245	0xbd6fe96c	-0.058572218
246	0x3e16fa80	0.14743996
247	0x3e30982a	0.17245546
248	0x3e6ceb08	0.23136532
249	0xbe675fd3	-0.22595148
250	0xbe806886	-0.25079745
251	0xbe2593a4	-0.16169602
252	0xbd6d8ee0	-0.057997584
253	0x3d567bc8	0.05236414
254	0x3e0e3d74	0.1389063
255	0xbde307aa	-0.11085446

decoder.0.bias f4 [25]
0	0x3e70c0f6	0.23511109
1	0xbdd5f260	-0.1044662
2	0x3d8cf17c	0.06881997
3	0xbe42a554	-0.1900838
4	0x3d719370	0.058978498
5	0xbe5211ee	-0.20514652
6	0xbe1c43ea	-0.15260282
7	0xbddffc1a	-0.109367564
8	0x3ddc83e8	0.107673466
9	0x3e773a44	0.2414332
10	0xbd57019c	-0.05249177
11	0x3e4de6cc	0.20107573
12	0x3d93dd98	0.0722
13	0x3e35beac	0.17748517
14	0x3e0824b4	0.13295251
15	0x3cb1d6a0	0.021708786
16	0xbcaf1198	-0.021370694
17	0x3e595ff8	0.21228015
18	0x3e479f52	0.1949437
19	0x3e7d2d5a	0.24724331
20	0x3d40bca0	0.047054887
21	0x3bb9d4c0	0.0056711137
22	0xbc092680	-0.0083709955
23	0xbe4bbef4	-0.19897062
24	0x3e14a96e	0.14517757

decoder.2.weight f4 [50, 25]
0	0x3d7d9a84	0.061914936
1	0x3d59eac4	0.053202406
2	0xbe33cff5	-0.17559798
3	0x3e4bfa55	0.19919713
4	0x3c7bb1d0	0.015362218
5	0x3dd9e43a	0.10639234
6	0x3d460de8	0.048353106
7	0xbe216683	-0.15761761
8	0x3deab20e	0.114597425
9	0xbe0fea4a	-0.14054218
10	0x3d210894	0.03931482
11	0xbd856d96	-0.065150425
12	0xbdabf85d	-0.08396981
13	0x3c8a0430	0.0168477
14	0xbe44c497	-0.19215618
15	0xbdd58e83	-0.104275726
16	0x3ccf6a50	0.025319248
17	0xbd480588	-0.0488334
18	0xbd054328	-0.03253475
19	0xbe2997b5	-0.16561778
20	0xbde0646d	-0.10956655
21	0xbdf39403	-0.11893465
22	0xbe0b8102	-0.13623431
23	0xbd51e8cc	-0.051247403
24	0xbca5e680	-0.020251513
25	0xbe09a9e8	-0.1344372
26	0xbd4c38c8	-0.04985884
27	0x3debf792	0.1152183
28	0xbdbe93ed	-0.09305558
29	0xbc4aa420	-0.012368232
30	0x3e409479	0.18806638
31	0x3e45753f	0.19283007
32	0xbd4a1038	-0.049331874
33	0xbd825c5a	-0.06365271
34	0x3d5eac54	0.054363564
35	0x3e30c149	0.17261232
36	0xbd9cee2a	-0.07662614
37	0x3da1c652	0.07899155
38	0x3d55086c	0.052009985
39	0xbd1925ec	-0.03738968
40	0xbdaa8ef7	-0.0832805
41	0xbd8a5dd6	-0.06756179
42	0xbe41132b	-0.18854968
43	0xbc8a3c70	-0.016874522
44	0x3e022d43	0.12712578
45	0xbe4c1feb	-0.1993405
46	0x3c6f6320	0.014611036
47	0x3daf76c2	0.08567573
48	0x3deb0cf6	0.114770815
49	0x3e024299	0.12720717
50	0x3e293baf	0.16526674
51	0xbd9c3b43	-0.07628491
52	0x3de62e22	0.11239268
53	0xbdbea37d	-0.09308527
54	0x3d80ad96	0.06283109
55	0xbe4bfddd	-0.1992106
56	0xbd57cd60	-0.052686095
57	0x3c699ba0	0.014258295
58	0x3e39cf79	0.18145551
59	0x3e3b1c7b	0.18272583
60	0xbd6d4b80	-0.05793333
61	0x3e264def	0.16240667
62	0xbcdaf2a8	-0.026727036
63	0xbc64fb00	-0.013975859
64	0x3d97231e	0.07379745
65	0x3e1a1b01	0.15049364
66	0xbd5aeb18	-0.05344686
67	0xbc90b350	-0.017663628
68	0xbe43ac30	-0.19108653
69	0xbe3c0ea0	-0.18364954
70	0x3c37e700	0.011224508
71	0xbd91081c	-0.07081625
72	0xbd650794	-0.05591543
73	0xbdd139da	-0.102161124
74	0x3e0f26ff	0.1397972
75	0xbe0c1516	-0.13679919
76	0xbcd6a928	-0.026203707
77	0x3aa76680	0.0012771636
78	0x3e35e913	0.17764692
79	0xbe25293d	-0.16129012
80	0x3c925a28	0.017865255
81	0xbd297f6c	-0.041381285
82	0x3e2599c7	0.16171943
83	0x3d57f914	0.052727774
84	0x3d48e5a0	0.049047112
85	0x3e1413f9	0.14460744
86	0xbd868c90	-0.06569779
87	0xbe315448	-0.17317307
88	0xbd9fcb50	-0.07802451
89	0x3dccc55a	0.09998579
90	0xbe27bfe0	-0.16381788
91	0x3e07b261	0.1325164
92	0x3da60a5e	0.08107446
93	0x3d9f6d0e	0.077844724
94	0xbdefab3a	-0.11702581
95	0x3e109b53	0.14121751
96	0xbde77393	-0.11301341
97	0xbe0fa17a	-0.14026442
98	0xbca4b228	-0.020104483
99	0x3e2c2ee9	0.1681477
100	0xbe082ce8	-0.1329838
101	0xbe2fbc7d	-0.17161746
102	0x3e314ef9	0.17315282
103	0x3d6d0594	0.057866648
104	0x3d008648	0.03137806
105	0xbd8e8b64	-0.069601804
106	0x3dc2577a	0.09489341
107	0xbcb96358	-0.022630379
108	0x3da0f2d2	0.07858814
109	0xbe23f856	-0.16012701
110	0x3b7290c0	0.0037012547
111	0x3db522da	0.08844538
112	0x3c7fff60	0.015624851
113	0xbe1e7d3d	-0.15477462
114	0xbdcb8857	-0.09938114
115	0x3d8210ae	0.06350838
116	0x3e412c29	0.18864502
117	0xbda74c2d	-0.08168826
118	0x3cc39d18	0.02387862
119	0x3d853f3a	0.065062
120	0xbe30061d	-0.17189832
121	0x3e309b29	0.17246689
122	0x3e39aed1	0.18133093
123	0x3d13bb78	0.036067456
124	0x3e431521	0.19051029
125	0xbd7dd4e8	-0.06197062
126	0xbe2d0a57	-0.16898476
127	0x3ded955e	0.11600755
128	0x3d1e7ccc	0.038693234
129	0x3d841f5a	0.06451292
130	0x3da3d3f2	0.0799941
131	0xbdbe19da	-0.092822745
132	0xbd3f23f4	-0.046665147
133	0x3d00e2e8	0.031466395
134	0xbe1f2ee5	-0.15545233
135	0xbe49811f	-0.19678162
136	0x3e27fd7b	0.16405289
137	0xbe2749bd	-0.16336723
138	0xbbc21b00	-0.005923629
139	0x3e25f28b	0.16205804
140	0xbe17899a	-0.14798585
141	0x3da6803e	0.08129929
142	0x3e30a5c1	0.1725073
143	0xbe16ba4e	-0.14719507
144	0xbde3ff7d	-0.11132715
145	0xbc511b00	-0.012762785
146	0xbe0ae715	-0.13564713
147	0x3da4fa3e	0.080555424
148	0xbc1f2500	-0.009713411
149	0x3d749f1c	0.05972205
150	0xbd707874	-0.058708623
151	0x3e0b1f39	0.13586129
152	0xbdb11f20	-0.08648515
153	0xbde6a303	-0.11261561
154	0x3e337c29	0.17527832
155	0x3a5a5800	0.0008329153
156	0x3d14d3a0	0.036334634
157	0x3e282f49	0.16424288
158	0xbdff8983	-0.124774
159	0xbbe5d800	-0.0070142746
160	0xbda79c10	-0.081840634
161	0x3de7adb2	0.113124266
162	0xbe04b4bd	-0.12959571
163	0xbe036ef2	-0.12835291
164	0x3e127b7f	0.14304923
165	0xbdf6c310	-0.12048924
166	0xbcdaa468	-0.026689723
167	0x3de13562	0.1099651
168	0xbd08a354	-0.033358887
169	0xbdb176f0	-0.08665264
170	0x3b2a1e80	0.002595812
171	0xbd01c7a0	-0.031684518
172	0xbe170c7b	-0.14750855
173	0xbc578a80	-0.01315558
174	0x3e325dc5	0.17418583
175	0x3a86f680	0.0010296851
176	0x3dd869de	0.105670676
177	0xbd93429c	-0.07190439
178	0xbe401d22	-0.18761113
179	0x3dfe8616	0.124279186
180	0xbe48973b	-0.1958894
181	0xbe2d2237	-0.16907583
182	0xbe1fd3e5	-0.15608175
183	0xbe0dcd8b	-0.1384794
184	0x3da8e102	0.08246042
185	0x3db9a02a	0.09063752
186	0xbd4bdc68	-0.049770743
187	0x3e161c1d	0.14659162
188	0xbdebd05d	-0.115143515
189	0xbe49f23a	-0.19721308
190	0x3dae54f2	0.08512296
191	0xbe33a067	-0.17541657
192	0xbe2a55c8	-0.16634285
193	0xbdc9cd9a	-0.098536685
194	0x3e3097f7	0.1724547
195	0xbc348220	-0.011017352
196	0x3bc95fc0	0.0061454475
197	0x3e40c481	0.1882496
198	0xbd77e54c	-0.06052141
199	0x3e349851	0.17636229
200	0x3e218893	0.15774755
201	0x3daf3de6	0.08556728
202	0x3e3ba485	0.18324478
203	0xbdd02ef3	-0.10165205
204	0x3e117483	0.14204602
205	0x3e394f87	0.18096744
206	0x3e13e101	0.14441301
207	0x3d0d8d34	0.03455849
208	0x3e254199	0.16138305
209	0x3d6d7aac	0.057978317
210	0x3d8b2aca	0.06795271
211	0x3d34dac8	0.04415396
212	0xbd0d92d4	-0.034563854
213	0x3d68a294	0.05679567
214	0xbe04677e	-0.12930104
215	0xbd68a960	-0.056802154
216	0x3db5049e	0.08838771
217	0x3d10b6a8	0.035330445
218	0x3de7ea3e	0.11323975
219	0xbd5ff4ec	-0.054676935
220	0xbc1b1be0	-0.009467095
221	0x3dfaaf1a	0.12240429
222	0x3d8bb8de	0.0682237
223	0xbd775b34	-0.060389712
224	0x3a307800	0.00067317486
225	0x3da4c65a	0.08045645
226	0x3c260e30	0.0101352185
227	0xbe3879c3	-0.18015198
228	0x3e1fa287	0.15589343
229	0x3e38ebdb	0.18058722
230	0x3cc0e7c0	0.023548007
231	0x3e405b19	0.18784751
232	0xbd3a9880	-0.04555559
233	0xbe082a52	-0.13297394
234	0xbc4a4550	-0.012345627
235	0xbdb0cec0	-0.086331844
236	0xbd9eb89a	-0.07750054
237	0xbaca4d80	-0.0015434474
238	0x3e49c353	0.19703417
239	0x3de20f36	0.110380575
240	0xbccfd970	-0.025372237
241	0x3d2643e8	0.040592104
242	0x3d178a8c	0.036997363
243	0x3d448f28	0.047988087
244	0xbdebc510	-0.11512196
245	0x3e3e068b	0.18557183
246	0xbe04ef00	-0.12981796
247	0xbe4c09ab	-0.19925563
248	0x3e18edc1	0.14934446
249	0xbdd840e0	-0.10559249
250	0xbe0cfc1a	-0.13768044
251	0xbde53e4d	-0.111935236
252	0x3d233cf8	0.039853066
253	0x3e4c0829	0.19924988
254	0xbd1328cc	-0.03592758
255	0x3d238b18	0.039927572

decoder.2.bias f4 [50]
0	0x3e404b67	0.18778764
1	0xbe457c72	-0.19285753
2	0xbe218f28	-0.15777266
3	0x3e41dcad	0.18931837
4	0xbdc19c80	-0.09453678
5	0xbe32efff	-0.17474364
6	0x3ce42270	0.027848452
7	0xbe366d9a	-0.17815247
8	0x3e2bcb5b	0.16776793
9	0x3d8a493a	0.06752248
10	0xbc9120d8	-0.017715856
11	0x3db2b266	0.08725433
12	0x3e3e18c3	0.18564133
13	0x3ce05700	0.027385235
14	0xbe26a84a	-0.16275135
15	0x3d501124	0.050797597
16	0xbdf2e2f0	-0.11859691
17	0x3deddf62	0.116148725
18	0xbdd49700	-0.103803635
19	0x3da97b32	0.08275451
20	0x3e31f9f9	0.17380513
21	0xbe26e6cb	-0.16298978
22	0x3d87d916	0.06633203
23	0xbe13a960	-0.1442008
24	0x3e17e355	0.14832814
25	0xbdbd1877	-0.09233182
26	0xbe1416b3	-0.14461784
27	0x3d72778c	0.05919604
28	0x3b350cc0	0.0027626008
29	0x3d450468	0.048099905
30	0xbd45edd8	-0.04832253
31	0x3d36968c	0.044577166
32	0x3dee2c92	0.11629595
33	0xbe0c4918	-0.13699758
34	0xbdfebcbd	-0.12438343
35	0x3ccdef50	0.025138527
36	0xbd265d0c	-0.04061608
37	0xbe30381b	-0.17208903
38	0xbda8e38a	-0.08246525
39	0x3da9a422	0.08283259
40	0x3dcd4676	0.10023205
41	0x3db7f452	0.08982147
42	0x3e4899fd	0.19589992
43	0x3e09f621	0.13472797
44	0xbe2b0360	-0.16700506
45	0x3cdf2140	0.027237535
46	0x3d339738	0.043845385
47	0x3d6e6c34	0.05820866
48	0x3e245161	0.16046669
49	0x3d9e7fa2	0.07739188

decoder.4.weight f4 [63, 50]
0	0xbd826eff	-0.06368827
1	0x3c26dfb0	0.010185167
2	0xbdba89f2	-0.09108342
3	0x3c45dd50	0.012076691
4	0x3d6e16ec	0.05812733
5	0xbd9b9938	-0.075975835
6	0xbd01c574	-0.031682447
7	0xbe022a12	-0.12711361
8	0xbd5d5c8c	-0.054043338
9	0xbda06261	-0.07831264
10	0x3c06f380	0.008236766
11	0xbdb7a9ac	-0.08967909
12	0x3e0d7267	0.13813172
13	0x3e0233e1	0.12715103
14	0x3d78a7bc	0.06070684
15	0xbde9862e	-0.11402546
16	0xbd9fb100	-0.07797432
17	0xbdab8121	-0.08374239
18	0xbb616200	-0.0034390688
19	0xbc91d988	-0.017803922
20	0x3b64bfc0	0.003490433
21	0x3d517c78	0.051144093
22	0x3dbd4d08	0.09243208
23	0x3e0cfdc5	0.1376868
24	0x3d28ee84	0.04124309
25	0xbcd9c8f8	-0.026585087
26	0xbc9acb38	-0.01889573
27	0xbe03041b	-0.12794535
28	0xbb7c0100	-0.0038452744
29	0xbc5c8a80	-0.013460755
30	0x3be39ac0	0.006945938
31	0x3d8a6084	0.0675669
32	0x3d8f1fda	0.06988497
33	0xbd97a650	-0.074047685
34	0x3d41375c	0.047171935
35	0xbddd7a20	-0.10814309
36	0x3dc0103e	0.09378098
37	0x3da177c2	0.0788417
38	0xbe052380	-0.13001823
39	0x3de25d12	0.11052908
40	0x3d5aa030	0.053375423
41	0xbd4c33ea	-0.049854197
42	0x3e0fcff5	0.14044173
43	0x3df31f9a	0.11871262
44	0x3d221c58	0.039577812
45	0x3dfe41d6	0.12414901
46	0xbdfc4f97	-0.12319868
47	0x3d437e58	0.047727913
48	0xbddefa17	-0.108875446
49	0xbddcc0b4	-0.10778943
50	0x3e0b8c69	0.13627781
51	0x3d3d99e0	0.046289325
52	0xbce71c8c	-0.028211854
53	0xbc166620	-0.009179622
54	0xbdfef9a6	-0.124499604
55	0x3d2bb2d8	0.041918606
56	0xbddc770a	-0.107648924
57	0x3cccb3d0	0.024988085
58	0xbd839946	-0.06425719
59	0xbdd7cd46	-0.105372
60	0x3b3e98c0	0.0029082745
61	0x3df49a4a	0.11943491
62	0xbd80c14a	-0.06286867
63	0xbdbae8e4	-0.091264516
64	0xbd89bd62	-0.06725575
65	0x3da4aab0	0.080403686
66	0x3cc8eb20	0.024526179
67	0x3d36dc58	0.04464373
68	0x3dc6f890	0.09715378
69	0xbd5c3fa2	-0.053771622
70	0xbd7779ae	-0.060418777
71	0xbd80218e	-0.062564
72	0xbca96bd0	-0.020681292
73	0x3d2f6530	0.04282111
74	0xbe0aa57a	-0.13539687
75	0xbdc26556	-0.094919845
76	0x3d25f850	0.040520012
77	0xbdccd5dc	-0.10001728
78	0x3df57a6a	0.11986239
79	0xbd9c883f	-0.076431744
80	0x3dabcc4e	0.083885774
81	0x3c2f80e0	0.010711879
82	0xbcee3de0	-0.029082239
83	0x3d916d9c	0.071009845
84	0x3d21f0f4	0.03953643
85	0x3d12fd64	0.035886183
86	0x3cabb878	0.020961985
87	0xbbfe3720	-0.0077580363
88	0x3e04388d	0.12912197
89	0xbc4b1560	-0.012395233
90	0x3da9278c	0.08259496
91	0xbdc5e176	-0.09662144
92	0x3d9b9cb6	0.075982496
93	0x3d797318	0.060900778
94	0x3d7bc4b4	0.061466888
95	0x3dea47b6	0.11439459
96	0xbd97d889	-0.07414348
97	0xbdd6414c	-0.10461673
98	0xbdefc368	-0.11707193
99	0x3d4c0730	0.049811542
100	0x3dc10530	0.094248176
101	0x3d8b5fb0	0.0680536
102	0x3dbbdc30	0.09172857
103	0xbb27b9c0	-0.0025592893
104	0xbdd65b4e	-0.10466634
105	0xbda76508	-0.08173567
106	0x3da722fe	0.08160971
107	0x3de510ba	0.11184831
108	0xbd71be6e	-0.0590195
109	0x3dbafd8e	0.09130393
110	0xbdee59f8	-0.11638254
111	0x3ce25eb8	0.027633056
112	0x3d109d38	0.035306185
113	0xbdb01b42	-0.08598949
114	0xbcc6524c	-0.024209164
115	0x3d2b5810	0.04183203
116	0xbd988fcc	-0.07449302
117	0x3c9dc658	0.019259617
118	0x3da9f8d6	0.08299415
119	0xbdec23ba	-0.11530252
120	0xbe0e8656	-0.13918433
121	0xbcb34288	-0.02188231
122	0xbd29017a	-0.041261174
123	0x3def1366	0.11673622
124	0xbd408804	-0.047004715
125	0xbcaa4760	-0.020785987
126	0x3dfbea1a	0.12300511
127	0xbd3534b4	-0.044239715
128	0xbdf4fcf6	-0.11962311
129	0xbd2de7b2	-0.04245729
130	0xbdca6358	-0.098822296
131	0xbbb01aa0	-0.0053742677
132	0x3ccc9ec8	0.024978057
133	0xbdf310bf	-0.118684284
134	0x3da84cec	0.08217797
135	0x3d363ecc	0.04449348
136	0xbde98d32	-0.11403884
137	0x3e0b2e5d	0.13591905
138	0xbdb187b6	-0.08668463
139	0xbddc5610	-0.107586026
140	0xbe0e1b84	-0.13877684
141	0x3c9fe2f8	0.019517407
142	0xbdbf4a22	-0.093403116
143	0x3e0a5469	0.13508762
144	0xbded2510	-0.11579335
145	0xbe09b55f	-0.13448094
146	0x3e009399	0.12556304
147	0x3de6fd5e	0.11278795
148	0xbde7492a	-0.11293252
149	0x3d7c6448	0.061619073
150	0x3ceea610	0.02913192
151	0xbd8cc55d	-0.068735816
152	0x3b9a7240	0.0047133267
153	0x3d826a98	0.063679874
154	0x3defa2fa	0.11701007
155	0x3c7f9910	0.015600458
156	0x3da0d382	0.07852842
157	0xbd0cde2a	-0.03439156
158	0xbd955bae	-0.07292877
159	0xbcb8d8cc	-0.022564314
160	0x3e0823b9	0.13294877
161	0x3e049e69	0.12951054
162	0x3c0b3e70	0.008498773
163	0xbdf57702	-0.119855896
164	0xbdf6c1d6	-0.1204869
165	0x3dd313e0	0.10306525
166	0x3e1075e7	0.14107476
167	0xbda6b870	-0.081406474
168	0x3c4b5dc0	0.012412488
169	0x3c827498	0.015924737
170	0xbd6cd450	-0.057819664
171	0xbde4be4f	-0.11169111
172	0xbde606b0	-0.11231744
173	0x3d4ee2dc	0.05050932
174	0xbe05903a	-0.130433
175	0x3dbc7b4c	0.092032045
176	0xbdb21a2d	-0.08696399
177	0x3c939e80	0.018019915
178	0xbe087a54	-0.13327914
179	0x3bbec1e0	0.0058214515
180	0xbd6ea52a	-0.05826298
181	0xbd79c3ec	-0.06097786
182	0x3dc10480	0.094246864
183	0x3d899bc0	0.0671916
184	0xbb101b80	-0.0021989048
185	0x3e03aa6d	0.12857981
186	0x3dc0a24e	0.09405957
187	0xbd926a1d	-0.07149146
188	0xbc322c80	-0.010874867
189	0xbd454e8c	-0.04817061
190	0xbe0f4675	-0.13991721
191	0xbdf92edf	-0.12167143
192	0xbdf96853	-0.121781014
193	0xbdbf6819	-0.09346027
194	0x3d61bac0	0.05510974
195	0x3de79616	0.113079235
196	0x3e0348e3	0.12820773
197	0x3c06b0c0	0.008220851
198	0xbd51d5ca	-0.051229276
199	0x3d4149d8	0.047189564
200	0x3dec5752	0.115400925
201	0xbdf981a4	-0.1218293
202	0x3dd1cd04	0.10244182
203	0x3ded27ea	0.11579879
204	0xbdb8ecd6	-0.09029548
205	0xbd3c7406	-0.046009086
206	0x3dacaec8	0.084317744
207	0x3ddda6f4	0.108228594
208	0xbd958731	-0.07301176
209	0x3d8752e0	0.06607604
210	0x3db377e8	0.08763105
211	0x3c360980	0.011110663
212	0x3c908c90	0.01764515
213	0xbdb9d9ce	-0.09074746
214	0x3d555ee0	0.052092433
215	0xbde9319c	-0.11386415
216	0x3dc37566	0.09543876
217	0x3ddda5a0	0.10822606
218	0xbdef9166	-0.116976544
219	0xbbf66520	-0.0075193793
220	0x3d30ad34	0.04313393
221	0xbdae9b1f	-0.08525681
222	0x3ddcd68e	0.107831106
223	0x3e0c7d6b	0.13719718
224	0xbd1d1a42	-0.03835512
225	0x3e1030f7	0.14081179
226	0xbd8d6185	-0.06903366
227	0xbd9f034a	-0.07764299
228	0x3d0fdfe0	0.035125613
229	0xbdc37714	-0.09544197
230	0x3da28372	0.079352275
231	0x3dd75c38	0.10515636
232	0x3ca8f1c0	0.020623088
233	0x3c7ec0a0	0.015548855
234	0x3c948a30	0.0181323
235	0xbc7819f0	-0.015142903
236	0x3d98749a	0.07444115
237	0xbdb3b076	-0.08773892
238	0x3bad1800	0.005282402
239	0x3dba5460	0.090981245
240	0x3c764190	0.01503028
241	0xbc5fdf20	-0.013664037
242	0xbd9e2943	-0.07722714
243	0xbd45a6be	-0.04825472
244	0xbcc5622c	-0.024094664
245	0xbd2034ec	-0.03911297
246	0xba3f0300	-0.0007286519
247	0xbce764b4	-0.028246261
248	0x3d1d7100	0.038437843
249	0xbbc10da0	-0.005891517
250	0xbd549894	-0.051903322
251	0xbd11b3da	-0.03557191
252	0xbd1e8ce2	-0.038708575
253	0x3b1517c0	0.0022749752
254	0xbd7583ea	-0.059940256
255	0x3df7483a	0.12074323

decoder.4.bias f4 [63]
0	0xbc537df0	-0.012908444
1	0x3df69366	0.12039833
2	0xbe0764b0	-0.13222003
3	0x39a40800	0.00031286478
4	0x3dd49526	0.1038001
5	0x3dafa712	0.08576788
6	0x3d8506c6	0.064954326
7	0xbd8cceef	-0.06875407
8	0x3dddf732	0.108381644
9	0x3d02bb48	0.031916887
10	0x3d3a0a64	0.045420066
11	0x3c9d4de8	0.019202188
12	0xbdba47f9	-0.09095759
13	0xbdfdb0b8	-0.12387222
14	0xbd72a712	-0.059241362
15	0x3de61fde	0.11236547
16	0x3cd86878	0.026417002
17	0xbda0cfd7	-0.07852142
18	0xbd8754a1	-0.066079386
19	0x3dfe85d6	0.12427871
20	0xbdf7f760	-0.1210773
21	0x3d18efb4	0.037337974
22	0xbdf2e0c2	-0.118592754
23	0xbcefd330	-0.029275507
24	0x3d776840	0.060402155
25	0x3df47206	0.11935811
26	0x3d1bbfdc	0.03802477
27	0x3d392314	0.04519947
28	0xbdee857a	-0.116465524
29	0xbdb94cf6	-0.09047882
30	0x3d1e181c	0.03859721
31	0xbb06afc0	-0.0020551533
32	0x3cce2790	0.02516535
33	0xbd01c58e	-0.031682543
34	0xbd327c9c	-0.043575868
35	0x3dc61a4a	0.09672983
36	0x3ca941b0	0.020661205
37	0x3da3c978	0.079974115
38	0xbcfeb2c8	-0.031091109
39	0x3b866880	0.004101813
40	0x3c4d91a0	0.012546927
41	0x3e0d82cb	0.13819425
42	0xbcc99650	-0.024607807
43	0x3e0c138d	0.13679333
44	0xbd7fd644	-0.0624602
45	0xbd3a7504	-0.04552175
46	0x3ddcdf6a	0.107848
47	0xbdddf230	-0.10837209
48	0xbde41000	-0.11135864
49	0x3d476360	0.048678756
50	0x3c067b10	0.008208051
51	0xbcad3ac4	-0.021146186
52	0x3d4f879c	0.050666437
53	0x3db99faa	0.09063657
54	0x3c1dbe10	0.009627834
55	0xbd06a646	-0.032873414
56	0xbdd6d606	-0.104900405
57	0x3d478620	0.048711896
58	0x3e021f47	0.12707244
59	0x3be81620	0.0070827156
60	0xbdcb1798	-0.099166095
61	0xbd1fdb86	-0.039027713
62	0x3c952030	0.018203825
