autoencoder_model/autoencoder_model_node_1.pt (torch, 28751 bytes, 12 tensors)

encoder.0.weight f4 [35, 50]
0	0x3edde4e8	0.43338704
1	0x3f09f308	0.5388646
2	0x3eff53b2	0.49868542
3	0x3f07657d	0.52889234
4	0x3ee223f0	0.44168043
5	0x3f1f94b6	0.6233629
6	0x3ed5a41e	0.41726774
7	0x3f08f78e	0.5350274
8	0x3f1da339	0.61577183
9	0x3f04d963	0.51894206
10	0x3f259868	0.6468568
11	0x3f159e74	0.58444905
12	0x3f2b9755	0.6702779
13	0x3f2846d2	0.65733063
14	0x3f01120f	0.5041818
15	0x3f1c6859	0.6109672
16	0x3eff2c72	0.49838597
17	0x3f1c66b3	0.61094207
18	0x3f040b02	0.51579297
19	0x3f255cc0	0.6459465
20	0x3f1861ca	0.59524214
21	0x3f02e39e	0.51128566
22	0x3efd21a2	0.49439722
23	0x3f19b0ba	0.6003529
24	0x3f30f846	0.69128835
25	0x3f2090ab	0.62720746
26	0x3f0bb1e8	0.5456834
27	0x3f0d6f05	0.5524753
28	0x3f25a16b	0.6469943
29	0x3eefc800	0.46832275
30	0x3f1d16af	0.6136274
31	0x3f050e6c	0.5197513
32	0x3f25ffe2	0.6484357
33	0x3f042351	0.5161639
34	0x3f12d7c4	0.5736048
35	0x3f1d472e	0.61436737
36	0x3f29eedc	0.66380095
37	0x3f0bbb33	0.5458252
38	0x3f3214c9	0.69562966
39	0x3ee4d850	0.44696283
40	0x3f091188	0.53542376
41	0x3ed6d994	0.41962874
42	0x3f140d41	0.57832724
43	0x3f1b539d	0.6067446
44	0x3f0265a5	0.5093635
45	0x3f2016c7	0.62534755
46	0x3f0b2f03	0.5436861
47	0x3ee32f10	0.44371843
48	0x3f2cd8fd	0.675186
49	0x3f275fea	0.6538073
50	0x3f27099f	0.65249056
51	0x3f319c71	0.69379336
52	0x3f220ba7	0.6329903
53	0x3f27fb5a	0.6561791
54	0x3f32c69d	0.6983431
55	0x3f0d702f	0.55249304
56	0x3ef2c796	0.47417897
57	0x3f03d218	0.5149245
58	0x3f0fe656	0.5621084
59	0x3f10c11c	0.5654466
60	0x3f147cbc	0.5800283
61	0x3f297ae4	0.6620314
62	0x3f221475	0.63312465
63	0x3ef3eddb	0.47642407
64	0x3f09db56	0.53850305
65	0x3f0b4282	0.5439836
66	0x3f29cf9b	0.66332406
67	0x3f07993f	0.5296821
68	0x3f073bf0	0.5282583
69	0x3f0e52b3	0.5559494
70	0x3f0b8600	0.5450134
71	0x3f0bcfa9	0.5461374
72	0x3ee2ada2	0.44273096
73	0x3f350509	0.7071081
74	0x3f27adf2	0.65499794
75	0x3f0347a8	0.51281214
76	0x3efba509	0.4914935
77	0x3f15aba6	0.5846504
78	0x3f295c53	0.661565
79	0x3ef5809a	0.47949678
80	0x3f070f23	0.5275747
81	0x3f23e035	0.6401399
82	0x3efac2d8	0.4897678
83	0x3f10b38b	0.5652396
84	0x3ef2dcd6	0.4743411
85	0x3f364ffb	0.7121579
86	0x3f283f7a	0.6572186
87	0x3ee68970	0.45026731
88	0x3f00be73	0.502906
89	0x3f2190f5	0.6311181
90	0x3f16de29	0.5893274
91	0x3f1e7a5e	0.6190547
92	0x3eee3ada	0.46529275
93	0x3f0158fa	0.5052639
94	0x3f2528e0	0.64515495
95	0x3ef2410e	0.47315258
96	0x3f0d237e	0.5513228
97	0x3f24a748	0.6431775
98	0x3f2785e6	0.6543869
99	0x3f16fbd1	0.5897799
100	0x3f2fda6c	0.6869266
101	0x3f357685	0.7088397
102	0x3f2120e5	0.6294082
103	0x3f1b7748	0.60728884
104	0x3f41015e	0.7539271
105	0x3f48a679	0.7837902
106	0x3f39d443	0.7258951
107	0x3f193bcb	0.5985686
108	0x3f05ddbe	0.52291477
109	0x3f019fc8	0.5063443
110	0x3f259bc5	0.6469081
111	0x3f1777a0	0.5916691
112	0x3f1959f2	0.5990287
113	0x3f204544	0.6260569
114	0x3f4798b3	0.77967376
115	0x3f453d18	0.77046347
116	0x3f1f8974	0.6231911
117	0x3f1a7c95	0.6034635
118	0x3f349eee	0.7055501
119	0x3f20eca9	0.62861115
120	0x3f02e8d9	0.5113655
121	0x3f3129f2	0.6920463
122	0x3f3adb7d	0.7299116
123	0x3ef6ffb7	0.4824197
124	0x3f1c0266	0.6094116
125	0x3f2bae07	0.6706242
126	0x3f0658ef	0.5247945
127	0x3f04d50c	0.51887584
128	0x3f4062aa	0.7515055
129	0x3f1889d1	0.5958529
130	0x3f3a7a0a	0.72842467
131	0x3f289836	0.65857255
132	0x3f2e30fa	0.6804348
133	0x3f0d3abc	0.55167747
134	0x3f1da035	0.6157258
135	0x3f3d3d6c	0.7392185
136	0x3f35f6a1	0.7107945
137	0x3f1ae3f8	0.605041
138	0x3f29cfd2	0.66332734
139	0x3f41138b	0.75420445
140	0x3f064f52	0.52464783
141	0x3f3d497d	0.7394026
142	0x3f1a7a2d	0.60342675
143	0x3f1dfe29	0.6171594
144	0x3f369603	0.7132265
145	0x3f0747fe	0.52844226
146	0x3f1fe380	0.6245651
147	0x3f47f48a	0.7810751
148	0x3f32635a	0.6968285
149	0x3f17f88f	0.59363645
150	0x3f0e2ba0	0.55535316
151	0x3f329b95	0.6976865
152	0x3f23bc0b	0.63958806
153	0x3f2e991d	0.6820238
154	0x3efd7c5b	0.49508938
155	0x3f207e7e	0.6269301
156	0x3f1c7916	0.6112226
157	0x3f1c4fe8	0.6105943
158	0x3f37ac75	0.71747524
159	0x3f2a190d	0.66444474
160	0x3f2f030b	0.6836402
161	0x3f25f403	0.6482546
162	0x3f2aea50	0.6676378
163	0x3f0fc243	0.56155795
164	0x3eec34f2	0.46134144
165	0x3ef03b44	0.46920216
166	0x3f002644	0.5005839
167	0x3efd3ba1	0.49459556
168	0x3f2bf57a	0.6717144
169	0x3f20eb3f	0.6285896
170	0x3f0bbbb1	0.5458327
171	0x3ef4f05e	0.47839636
172	0x3f3b877a	0.73253596
173	0x3f3317df	0.699583
174	0x3f275ccd	0.6537598
175	0x3f39faff	0.72648615
176	0x3f02de8c	0.5112083
177	0x3f0186f3	0.5059654
178	0x3f00dd5f	0.50337785
179	0x3f144db5	0.5793107
180	0x3eec3214	0.46131957
181	0x3f32b789	0.698113
182	0x3f16fcdb	0.58979577
183	0x3f2815f7	0.65658516
184	0x3f022c9d	0.50849324
185	0x3f125399	0.5715881
186	0x3f1ad174	0.6047585
187	0x3f0c25ac	0.5474498
188	0x3f383ab3	0.7196457
189	0x3f058409	0.52154595
190	0x3f21ca07	0.63198894
191	0x3efbf773	0.49212226
192	0x3f11c56a	0.56941855
193	0x3f0c7394	0.5486386
194	0x3f25ad47	0.64717525
195	0x3f2f58af	0.68494695
196	0x3f1edc89	0.6205526
197	0x3f12c4eb	0.5733172
198	0x3f0cc922	0.54994404
199	0x3f3270fd	0.69703656
200	0x3f15acfe	0.5846709
201	0x3f385dd4	0.7201817
202	0x3f0e1f42	0.55516446
203	0x3f3c1182	0.73464215
204	0x3f424a0c	0.75894237
205	0x3f370c30	0.7150297
206	0x3f31e767	0.69493717
207	0x3f2a9d4d	0.6664627
208	0x3f0c6dd6	0.54855096
209	0x3f1ea992	0.61977494
210	0x3f2ab24c	0.6667831
211	0x3f14c532	0.58113396
212	0x3f24c5c4	0.64364266
213	0x3f336ecc	0.7009094
214	0x3ef95f65	0.48705593
215	0x3efafe6f	0.49022242
216	0x3f08c961	0.5343228
217	0x3f22a58c	0.63533854
218	0x3f1796d3	0.59214514
219	0x3f26d7ae	0.6517285
220	0x3f159ef8	0.5844569
221	0x3f06878b	0.5255057
222	0x3f23b057	0.6394095
223	0x3f376707	0.7164158
224	0x3f083f7c	0.5322187
225	0x3f3db8bc	0.7411001
226	0x3f26e580	0.6519394
227	0x3f41af36	0.75657976
228	0x3efa17bb	0.4884623
229	0x3ef726bb	0.48271737
230	0x3f2a8354	0.6660664
231	0x3ef8e98d	0.48615685
232	0x3f008fb8	0.502193
233	0x3f30a3b0	0.6899977
234	0x3f2fce06	0.6867374
235	0x3efa7b39	0.48922136
236	0x3f384828	0.719851
237	0x3f1730cc	0.59058833
238	0x3f391bd8	0.7230811
239	0x3f08fbf8	0.53509474
240	0x3ef6f861	0.48236373
241	0x3f05e901	0.5230866
242	0x3f189e22	0.5961629
243	0x3ef42537	0.47684643
244	0x3f1bc37c	0.6084516
245	0x3f0c2962	0.54750645
246	0x3f15cdc6	0.5851711
247	0x3f1e39a4	0.618067
248	0x3f204324	0.6260245
249	0x3ef5a201	0.47975162
250	0x3f3b87e6	0.7325424
251	0x3f12b81d	0.57312185
252	0x3f3ef8d6	0.74598444
253	0x3f4a1534	0.78938603
254	0x3f1cd5b5	0.6126359
255	0x3f2cf8c6	0.675671

encoder.0.bias f4 [35]
0	0xbf0e0348	-0.55473757
1	0xbef53614	-0.4789282
2	0xbf069698	-0.5257354
3	0xbf1c59f0	-0.61074734
4	0xbef9365f	-0.48674294
5	0xbf0e7e63	-0.556616
6	0x3e8baeb3	0.27281722
7	0xbf3e2708	-0.74278307
8	0xbf0be0a1	-0.5463963
9	0xbf26d2ab	-0.65165204
10	0xbf186090	-0.5952234
11	0x3d9257fc	0.07145688
12	0xbef3c027	-0.47607538
13	0xbef56161	-0.47925857
14	0xbf28d784	-0.6595385
15	0xbf42a6b1	-0.760356
16	0xbf377a8a	-0.71671355
17	0xbf4c3ab5	-0.7977708
18	0xbf2cbdf0	-0.6747732
19	0xbf18f61d	-0.5975054
20	0xbf3b1d35	-0.7309144
21	0xbf0dc41d	-0.5537737
22	0xbf2b4169	-0.6689668
23	0xbf1c0c76	-0.60956514
24	0xbf2dbced	-0.678664
25	0xbf18da85	-0.59708434
26	0xbf34f4b6	-0.706859
27	0xbf3274e1	-0.69709593
28	0xbd8c2091	-0.06842149
29	0xbf2dc8bd	-0.6788443
30	0xbf121921	-0.57069594
31	0xbf2ac89f	-0.66712373
32	0xbf06570d	-0.5247658
33	0xbf10b9b9	-0.5653339
34	0xbf21632d	-0.63041955

encoder.2.weight f4 [25, 35]
0	0x3f1dfdb4	0.61715245
1	0xbf31b196	-0.694116
2	0x3eed656e	0.46366447
3	0xbf2be142	-0.6714059
4	0x3ee994e6	0.45621413
5	0x3f1b3bec	0.6063831
6	0xbef9248d	-0.486607
7	0x3f357a0d	0.7088936
8	0x3ed4c3a4	0.41555512
9	0x3f1e3115	0.61793643
10	0x3f453a5d	0.7704218
11	0xbd869f1a	-0.06573315
12	0x3f0454cb	0.51691884
13	0x3f0788fe	0.5294341
14	0x3c6e301b	0.014537836
15	0x3ecf8704	0.40532696
16	0x3eb17560	0.34659863
17	0x3f41e2fe	0.7573699
18	0x3f1d4f9c	0.614496
19	0xbec680df	-0.38770196
20	0xbea7f278	-0.32802176
21	0x3f2bc729	0.6710077
22	0x3f321acc	0.6957214
23	0x3ee8085f	0.45318887
24	0x3f250b41	0.644703
25	0xbf1b32ae	-0.60624206
26	0x3f2b8950	0.670064
27	0x3f2efa53	0.68350714
28	0xbf0559a4	-0.52089906
29	0x3ee0ee56	0.43931836
30	0xbf21d0ab	-0.6320903
31	0x3f2ce7e5	0.6754134
32	0x3ed8582f	0.4225478
33	0x3f470aef	0.7775106
34	0xbf446c55	-0.767278
35	0x3e437cf1	0.1909063
36	0xbf2aa56a	-0.6665865
37	0xbf059d6e	-0.52193344
38	0xbf235549	-0.6380201
39	0xbda74fdf	-0.08169531
40	0x3f064670	0.5245123
41	0xbf34af17	-0.70579666
42	0x3eb4f2dc	0.35341537
43	0x3d95377d	0.07285974
44	0x3ea82169	0.3283799
45	0x3eadf2d6	0.33974332
46	0xbf681d83	-0.9067003
47	0xbd889b4d	-0.06670246
48	0xbe84c31f	-0.25930116
49	0x3ec7c3ad	0.39016476
50	0xbe8d6082	-0.27612692
51	0xbe9b6faa	-0.3035863
52	0x3f4a4987	0.79018444
53	0x3e6f885d	0.23391862
54	0x3f429a0c	0.76016307
55	0xbf3012b4	-0.6877854
56	0x3f12867c	0.57236457
57	0x3f7a3ec9	0.9775205
58	0xbd5d098e	-0.05396419
59	0x3f7c3f37	0.9853396
60	0xbf3c67ed	-0.7359608
61	0x3e9624f7	0.29325077
62	0x3e99b58d	0.30021325
63	0xbf1fcfa1	-0.6242619
64	0x3db98e81	0.090603836
65	0x3f2f269c	0.6841829
66	0x3f51180c	0.8167732
67	0x3f40f85e	0.7537898
68	0x3f141da4	0.5785773
69	0xbf02eaf8	-0.51139784
70	0x3f3df06f	0.74195
71	0xbf14a119	-0.58058316
72	0x3f0f2e16	0.55929697
73	0xbf20bdcd	-0.62789613
74	0x3f6652de	0.89970195
75	0x3f07fa60	0.53116417
76	0xbf085f56	-0.5327047
77	0x3f6d74ab	0.92756146
78	0x3f30a36b	0.68999356
79	0x3f204abd	0.6261404
80	0x3f5979ac	0.8495128
81	0xbf22f118	-0.6364913
82	0x3f1fa3cc	0.6235931
83	0x3f1c538c	0.6106498
84	0x3f354549	0.70808846
85	0x3f6a293e	0.9146918
86	0x3f21b73b	0.6317021
87	0x3efffecf	0.4999909
88	0x3f410667	0.75400394
89	0x3f11037e	0.56645954
90	0xbf4a9fc5	-0.7915004
91	0x3f38f6e3	0.7225172
92	0x3f0823f8	0.53179884
93	0x3f23f74c	0.6404922
94	0x3f10af03	0.56517047
95	0xbf110546	-0.5664867
96	0x3f596365	0.8491729
97	0x3f38a5a1	0.7212773
98	0xbf0ca070	-0.5493231
99	0x3f6024db	0.87556237
100	0x3eecdc85	0.46261993
101	0x3f0db3a0	0.5535221
102	0x3f3515ce	0.70736396
103	0x3f001b2c	0.5004146
104	0xbf349e69	-0.70554215
105	0x3f27d0fe	0.6555327
106	0x3efe65ef	0.49687144
107	0x3eddc4e3	0.43314275
108	0x3f1b1928	0.6058526
109	0x3ee4acd8	0.4466312
110	0x3f1d27d2	0.61388886
111	0xbeac0556	-0.3359782
112	0x3f35e016	0.71045053
113	0x3f32f452	0.69904053
114	0x3f22ed4d	0.6364334
115	0x3f0cb970	0.54970455
116	0xbeded5d8	-0.43522525
117	0x3f42da8b	0.7611472
118	0x3f04d48a	0.5188681
119	0x3ec7f1f7	0.39051792
120	0x3ee59477	0.44839832
121	0x3f24f64c	0.6443832
122	0x3f4bfacf	0.7967958
123	0x3f2801f2	0.6562797
124	0x3e55c6db	0.20876639
125	0x3ee77632	0.45207363
126	0x3f553423	0.8328268
127	0x3f0b3d58	0.5439048
128	0x3ee2ec16	0.44320744
129	0x3f0be35a	0.54643786
130	0x3e82ae7e	0.25523752
131	0x3f352b75	0.70769435
132	0x3f1c0551	0.6094561
133	0xbed81775	-0.42205396
134	0x3f448f57	0.7678122
135	0x3e9dc1e2	0.30811983
136	0x3f1380a7	0.5761818
137	0x3ef543eb	0.4790338
138	0x3f5002b9	0.81254154
139	0x3e9dac6c	0.3079561
140	0x3ed5d780	0.41765976
141	0xbf2c4e89	-0.67307335
142	0xbf12b2bf	-0.57303995
143	0xbf166f55	-0.5876363
144	0xbde0516a	-0.109530285
145	0x3f0872bc	0.5330007
146	0xbf7b9c89	-0.9828573
147	0x3eb43bb3	0.35201797
148	0x3e422466	0.18959197
149	0x3e40482d	0.18777533
150	0x3e0e436f	0.13892911
151	0xbf76e342	-0.9644052
152	0x3e031cd8	0.12803972
153	0x3d83df6d	0.064390995
154	0x3f0bb842	0.5457803
155	0x3da7de26	0.08196668
156	0xbdd7712f	-0.10519635
157	0x3f532d54	0.8249104
158	0x3f09db57	0.5385031
159	0x3f2750dc	0.65357757
160	0xbf11e5f5	-0.5699151
161	0x3ef9d6b6	0.48796624
162	0x3f572640	0.8404274
163	0x3cdc7532	0.026911352
164	0x3f405bad	0.75139886
165	0xbeffd43f	-0.49966618
166	0x3edce56d	0.43143788
167	0x3e426d36	0.18986973
168	0xbf66ceac	-0.90159106
169	0x3ea216a8	0.3165791
170	0x3f5b8c86	0.85761297
171	0x3f3fbfca	0.7490202
172	0x3f51cf3a	0.8195683
173	0x3f1a585d	0.6029108
174	0xbf261c35	-0.6488679
175	0x3f612e19	0.87960964
176	0xbf602a7a	-0.87564814
177	0x3f045930	0.5169859
178	0xbf27540d	-0.65362626
179	0x3f265dad	0.6498669
180	0x3f04c891	0.5186854
181	0xbf1d0d8d	-0.613488
182	0x3f608a0d	0.8771065
183	0x3f1e4f8a	0.61840117
184	0x3f410ccc	0.7541015
185	0x3f162c7a	0.58661616
186	0xbf3bf99a	-0.73427737
187	0x3f28653a	0.6577946
188	0x3f3a6760	0.7281399
189	0x3f14d4c5	0.5813716
190	0x3f23c4b5	0.63972026
191	0x3f5ce0d6	0.8628057
192	0x3f0493d0	0.51788044
193	0x3f367a00	0.7127991
194	0x3f2a22ac	0.66459155
195	0xbf2efd70	-0.68355465
196	0x3f552c4b	0.8327071
197	0x3f14cb76	0.58122957
198	0x3f3321d4	0.6997349
199	0x3f28e113	0.65968436
200	0xbf340b94	-0.70330167
201	0x3f577753	0.8416645
202	0x3f347c17	0.70501846
203	0xbf1429d9	-0.57876354
204	0x3f1da90b	0.61586064
205	0x3f4095ac	0.7522838
206	0x3f0a8b9b	0.5411927
207	0x3f322f85	0.6960376
208	0x3f432dd7	0.7624182
209	0xbf342efb	-0.70384187
210	0x3ecf6cff	0.40512845
211	0xbedd9719	-0.4327934
212	0xbeda135c	-0.42592895
213	0xbf263a5a	-0.6493279
214	0x3ec59b56	0.38595074
215	0x3e333391	0.1750014
216	0xbf6af939	-0.91786534
217	0x3ec8fc26	0.39254874
218	0x3f088570	0.5332861
219	0x3f22ec71	0.6364203
220	0x3f13c4d9	0.5772224
221	0xbf630afd	-0.8868864
222	0x3edbe4c4	0.42947972
223	0x3f026fcd	0.50951844
224	0x3e3e4bb8	0.18583572
225	0x3ea77ffa	0.32714826
226	0x3efa3210	0.4886632
227	0x3f6a0fc6	0.9143032
228	0x3f116cb7	0.5680651
229	0x3f77e3b3	0.96831816
230	0xbf0e7667	-0.5564942
231	0x3edf8de9	0.43662956
232	0x3f6818b3	0.9066269
233	0x3ec2cf21	0.38048652
234	0x3f4163b9	0.7554279
235	0xbf38bc84	-0.7216265
236	0x3f27d285	0.655556
237	0x3edc0e9d	0.429799
238	0xbf412ed7	-0.75462097
239	0x3f0790b3	0.5295517
240	0x3f5d65ee	0.8648366
241	0x3f41f8cd	0.75770265
242	0x3f1f12a3	0.6213781
243	0x3f6be942	0.921528
244	0xbf0c4988	-0.547997
245	0x3ecc7a36	0.3993699
246	0x3df65950	0.12028754
247	0x3e8be9d9	0.2732685
248	0x3ed1c166	0.40967864
249	0x3ee6c642	0.45073134
250	0x3edbf6c4	0.42961705
251	0xbe1fcb49	-0.15604891
252	0x3ed60b6c	0.4180559
253	0x3ee7ab98	0.45248103
254	0x3ee90c8b	0.45517382
255	0x3e66997c	0.22519487

encoder.2.bias f4 [25]
0	0xbf3a2bdb	-0.7272317
1	0xbf512141	-0.81691366
2	0xbf1a34b6	-0.6023668
3	0xbf1167af	-0.56798834
4	0xbf3c8caa	-0.73652136
5	0xbf470309	-0.77739006
6	0xbf1db4f7	-0.61604255
7	0xbf053321	-0.5203114
8	0xbee4c573	-0.44681892
9	0xbf069b85	-0.52581054
10	0xbf2aa66c	-0.6666019
11	0xbf314ee3	-0.69260997
12	0xbf49b31a	-0.7878891
13	0xbf279c00	-0.6547241
14	0xbf1f064e	-0.62118995
15	0xbf4c7242	-0.79861844
16	0xbf06f2be	-0.52714145
17	0xbf4f9dbf	-0.81100076
18	0xbf614dc0	-0.8800926
19	0xbf143a7e	-0.5790175
20	0xbf0609ff	-0.52359
21	0xbf6b72b0	-0.91971874
22	0xbf5b5b45	-0.8568614
23	0xbf573d6c	-0.840781
24	0xbf59b913	-0.85048026

encoder.4.weight f4 [15, 25]
0	0xc0239459	-2.5559294
1	0xbf978007	-1.1835946
2	0xc0051f6a	-2.0800424
3	0xc01ec425	-2.4807217
4	0xc00506e6	-2.078546
5	0xc0099e42	-2.1502843
6	0xbf9f4516	-1.2442958
7	0xbf778834	-0.96692204
8	0xc01480bb	-2.320357
9	0xc0190300	-2.390808
10	0xbf992b4e	-1.196634
11	0xc02188a5	-2.5239651
12	0xc0180dd4	-2.375844
13	0xbfa29a52	-1.2703345
14	0xbf8499ab	-1.0359396
15	0xc01dfc53	-2.4685256
16	0xc00a6471	-2.1623805
17	0xc0189b08	-2.3844624
18	0xc0284bca	-2.6296258
19	0xc0249b62	-2.5719838
20	0xbf7375ec	-0.9510181
21	0xc01d8ca1	-2.4617083
22	0xbfc4ba4d	-1.5369354
23	0xc0325fdd	-2.787101
24	0xc01da6f9	-2.4633162
25	0x3d85711a	0.06515713
26	0x3f0824ed	0.53181344
27	0x3cbf60fe	0.02336168
28	0xbf7cc179	-0.98732716
29	0x3d3f0c6c	0.046642706
30	0xbec8c3a4	-0.39211762
31	0x3ea1e08d	0.3161663
32	0x3d34673d	0.04404377
33	0xbf3a5e80	-0.72800446
34	0x3e83a69e	0.25713056
35	0x3e03b8ed	0.12863512
36	0xbefdf195	-0.49598375
37	0xbf38b888	-0.7215657
38	0x3c89da0d	0.016827608
39	0x3dc889ea	0.0979193
40	0xbe00915a	-0.12555447
41	0xbdba09b2	-0.090838805
42	0x3e843458	0.25821185
43	0xbe94ea2d	-0.29084912
44	0x3e63b655	0.22237523
45	0x3e7a1725	0.24422891
46	0xbf763b29	-0.9618402
47	0x3e919da4	0.28440583
48	0xbec7e828	-0.3904431
49	0xbf517384	-0.8181689
50	0xbe85073b	-0.2598208
51	0x3de10b9e	0.10988544
52	0xbeb3052c	-0.34964883
53	0x3f7d5fa9	0.9897409
54	0x3e9ebacd	0.31001893
55	0xbe6766e7	-0.22597848
56	0x3f15c0f4	0.5849755
57	0x3f393acb	0.72355336
58	0x3e8fff6f	0.28124568
59	0xbeea9be2	-0.45822054
60	0x3f9a6a1e	1.2063634
61	0xbe45fffd	-0.19335933
62	0x3eeb44be	0.45950884
63	0x3ed1e5b3	0.4099556
64	0x3f059653	0.521825
65	0xbec337dc	-0.38128555
66	0xbe76fe6a	-0.24120489
67	0xbebaea38	-0.3650682
68	0x3ecefd58	0.4042766
69	0xbef85936	-0.48505563
70	0x3f7b9e2c	0.98288226
71	0x3f804d1e	1.0023534
72	0x3efaf8e1	0.49018005
73	0x3dae754f	0.085184686
74	0x3f0e41ca	0.55569136
75	0x400e6bf8	2.22534
76	0x40152a8c	2.3307219
77	0x3fd88833	1.6916565
78	0x3edc63b1	0.43044809
79	0x3febbda7	1.8417252
80	0x3fec2296	1.8448055
81	0x3fe5dd75	1.7958208
82	0x3f4d71dc	0.8025186
83	0x3ffdfd8b	1.9843
84	0x3ffcbd10	1.9745197
85	0x3f32f285	0.69901305
86	0x400a3852	2.1596875
87	0x3fa572f6	1.2925708
88	0x3feec74e	1.8654573
89	0x3fe05644	1.7526326
90	0x4008bee5	2.1366513
91	0x400be3cb	2.1857784
92	0x4005e147	2.0918748
93	0x3fdb2176	1.7119586
94	0x3ff1c3b9	1.8887855
95	0x3f0ce06b	0.55029935
96	0x3f19faf9	0.6014858
97	0x3ffa80db	1.9570574
98	0x3fa87810	1.316164
99	0x3fa3196c	1.2742133
100	0x3dca9646	0.09891944
101	0xbf7fe4df	-0.99958605
102	0x3c79a476	0.015236964
103	0xbf0f3b4d	-0.5594986
104	0xbe005426	-0.125321
105	0xbe4fcd5e	-0.20293185
106	0xbf882bc1	-1.0638353
107	0xbeb3557f	-0.35026166
108	0x3d3da2d5	0.046297867
109	0x3e8fb31d	0.2806634
110	0xbf0e6d4e	-0.55635536
111	0xbe2d2124	-0.16907173
112	0xbdc6f122	-0.09713961
113	0xbf73be36	-0.95212114
114	0xbfa3a520	-1.2784767
115	0x3d934e2a	0.07192643
116	0x3ea08a1a	0.31355363
117	0x3e92e85f	0.2869291
118	0xbe8256d0	-0.25456858
119	0x3d6b2aa6	0.05741372
120	0xbeaf379b	-0.3422211
121	0xbf81addc	-1.0131183
122	0xbf772716	-0.96544015
123	0xbcec090c	-0.028812908
124	0xbea6ccb0	-0.3257804
125	0x3fd1962b	1.6373953
126	0x400a474a	2.1606011
127	0x3ff1d867	1.8894166
128	0x3f11ac8f	0.5690393
129	0x3fd15424	1.6353803
130	0x3fffb102	1.9975893
131	0x3fdf0b18	1.742526
132	0x3ee0704f	0.43835685
133	0x4008d5fc	2.1380606
134	0x3fe58afc	1.793304
135	0x3eca9cc7	0.39572737
136	0x4008923b	2.1339252
137	0x3f91420b	1.134828
138	0x3fcac46e	1.5841196
139	0x4004f212	2.0772748
140	0x3ffea986	1.9895484
141	0x3fed6d97	1.8549069
142	0x3fdbbdf6	1.7167346
143	0x3fb66450	1.4249363
144	0x3fcbb2bb	1.5913919
145	0x3ee4fc70	0.44723845
146	0x3fbb8a79	1.4651634
147	0x3fdeb0e5	1.7397734
148	0x3f9af3ee	1.2105691
149	0x3f876fb2	1.0580962
150	0x3f8db3a0	1.1070442
151	0xbe6ac7f5	-0.2292784
152	0x3f77bea9	0.967753
153	0x3f79cb93	0.97576255
154	0x3f19746d	0.59943277
155	0x3f50462e	0.81357086
156	0xbebfef14	-0.3748709
157	0xbe917f14	-0.28417265
158	0x3f14b0a6	0.58082044
159	0x3f8c370a	1.0954297
160	0xbe621cec	-0.22081345
161	0x3f81510c	1.0102859
162	0x3f9b8597	1.2150143
163	0xbe9f7594	-0.31144392
164	0xbeef1f7f	-0.46703717
165	0x3f85d39f	1.0455207
166	0x3f443f39	0.7665897
167	0x3f67839f	0.9043521
168	0x3f92621e	1.1436193
169	0x3f7b8981	0.9825669
170	0xbf0390c9	-0.513928
171	0x3f9cfe94	1.2265191
172	0xbe3aa5fd	-0.18227382
173	0x3f9c345c	1.2203479
174	0x3f830a0f	1.0237445
175	0x3fa9487d	1.3225247
176	0x3f6d24b7	0.9263415
177	0x4004bf10	2.0741615
178	0x3ff6e5c2	1.9288867
179	0x4002a2e8	2.041193
180	0x40029c73	2.040799
181	0x3fbf9b4a	1.4969265
182	0x3f0a372a	0.53990424
183	0x3fadc86f	1.3576792
184	0x3fbee25a	1.4912827
185	0x3fd60d63	1.6722835
186	0x3facbc0a	1.3494885
187	0x400566e9	2.0844061
188	0x3fedf35e	1.8589895
189	0x3fb571a6	1.4175308
190	0x3fad5da5	1.3544203
191	0x3f9d1477	1.227187
192	0x3fa781f8	1.3086538
193	0x3ff76159	1.9326583
194	0x3fc4b686	1.5368202
195	0x3fffe9b4	1.9993196
196	0x3fecf9b0	1.8513699
197	0x3fd12162	1.6338313
198	0x40008b88	2.0085163
199	0x3ffcc8a5	1.9748732
200	0x3fed48be	1.8537824
201	0x3f29260a	0.6607367
202	0x3ff3695b	1.9016527
203	0x3f753a97	0.95792526
204	0x3fb35deb	1.4013036
205	0x3fcbbcb2	1.591696
206	0x3f4b314b	0.7937209
207	0x3e8a1c0e	0.2697453
208	0x3fb899fa	1.442199
209	0x3ff3d2e9	1.904874
210	0x3f05af3c	0.5222051
211	0x3fe5d850	1.7956638
212	0x3fec7e67	1.8476075
213	0x3f33e9dc	0.70278716
214	0x3f6716ee	0.9026936
215	0x3fe2803c	1.7695384
216	0x3fe85e85	1.8153845
217	0x3ffbd723	1.967503
218	0x40024a44	2.0357828
219	0x3ffaf955	1.960734
220	0x3f26ca99	0.6515289
221	0x3f632735	0.887317
222	0x3f3756a6	0.7161659
223	0x3ff15126	1.885289
224	0x3fdba639	1.7160102
225	0x3f6163e4	0.88043046
226	0x3ec78b5a	0.38973504
227	0x3e965e7d	0.29368964
228	0x3fbbc759	1.4670211
229	0x3f1561fc	0.5835264
230	0x3ef5f8d3	0.480414
231	0x3ecaaae6	0.3958351
232	0x3eb0495d	0.34430972
233	0x3fa07f0b	1.253877
234	0x3efb95b5	0.49137655
235	0x3f04c001	0.51855475
236	0x3fb97cb9	1.4491187
237	0x3fc0286e	1.5012338
238	0x3ed45300	0.41469574
239	0x3e1d58b5	0.1536587
240	0x3f2aadd6	0.666715
241	0x3f1f492d	0.6222103
242	0x3f15df80	0.5854416
243	0x3f67c61f	0.90536684
244	0x3f5119f7	0.81680244
245	0x3ec80639	0.39067248
246	0x3fd87c45	1.6912924
247	0x3e9719bc	0.2951182
248	0x3f82c59e	1.0216558
249	0x3f804eb9	1.0024024
250	0xc025deae	-2.5917163
251	0xbfae0b1e	-1.3597143
252	0xc02911d3	-2.641713
253	0xbf212168	-0.629416
254	0xc000d3c9	-2.0129263
255	0xc0209672	-2.5091825

encoder.4.bias f4 [15]
0	0x4022e576	2.5452552
1	0xbc230d87	-0.009951956
2	0x3f0063f4	0.50152516
3	0xbfe4458b	-1.7833723
4	0xbe7ec50f	-0.2487986
5	0xbfe19adf	-1.7625388
6	0xbf848f3f	-1.0356215
7	0xbfc11510	-1.5084553
8	0xc005f6b0	-2.0931816
9	0xbf908962	-1.1291926
10	0x4028475e	2.629356
11	0x4010b3d7	2.2609766
12	0xbff422e1	-1.9073144
13	0xbf88418b	-1.0645002
14	0xbf98ffcd	-1.1953064

decoder.0.weight f4 [25, 15]
0	0x3edc7be9	0.43063286
1	0xbf1943d5	-0.5986913
2	0x3df76f73	0.12081804
3	0x3f70660e	0.93905723
4	0xbcafbaf0	-0.021451443
5	0x3f229804	0.6351321
6	0xbf503a08	-0.8133855
7	0xbf77fcad	-0.9686993
8	0x3f62df95	0.8862241
9	0xbf523d15	-0.82124454
10	0xbf7cb920	-0.9871998
11	0xbf2adbff	-0.6674194
12	0x3f28d421	0.65948683
13	0x3ddaf815	0.10691849
14	0x3ee47c3d	0.44626036
15	0xbf2b908b	-0.6701743
16	0xbf4e1517	-0.8050093
17	0xbe3f7d2d	-0.18700095
18	0x3f0052f8	0.501266
19	0xbea1f382	-0.31631094
20	0x3f215237	0.63016075
21	0xbf3c0c09	-0.73455864
22	0xbed16eb5	-0.40904775
23	0x3ed749c5	0.4204847
24	0x3e398829	0.18118347
25	0xbf8c8523	-1.097813
26	0xbf2b5678	-0.66928816
27	0x3f49178e	0.78551567
28	0xbede0e43	-0.43370256
29	0xbeaffe42	-0.3437367
30	0x3eb72b03	0.35775003
31	0xbeb7cfc7	-0.3590071
32	0x3e79d4d7	0.24397598
33	0x3f81984a	1.01246
34	0xbcb1995b	-0.02167957
35	0x3f48624c	0.7827499
36	0xbf197c4c	-0.59955287
37	0xbef9bd77	-0.48777363
38	0x3f6462a3	0.8921301
39	0xbf388982	-0.7208482
40	0xbf896296	-1.0733211
41	0xbf2b9d0a	-0.670365
42	0x3f056d18	0.5211959
43	0xbea3b424	-0.31973374
44	0x3f0cacb2	0.5495101
45	0x3d92c44c	0.07166347
46	0x3e94c708	0.290581
47	0xbeacb568	-0.33732152
48	0x3fe3eac0	1.7806015
49	0x3eab1e30	0.3342147
50	0x3f492df6	0.78585756
51	0xbdde0be3	-0.10842111
52	0xbcb5b75f	-0.022182165
53	0x3fcf6f17	1.6205777
54	0xbe8c0d52	-0.27353913
55	0xbfe94b83	-1.8226169
56	0xbf87f81d	-1.0622593
57	0x3f8ee7be	1.1164472
58	0x3f491f17	0.78563064
59	0xbe137953	-0.1440175
60	0xbf1eccbf	-0.6203117
61	0xbdb2acce	-0.08724366
62	0xbdfcbdfb	-0.123409234
63	0xbe20f0a5	-0.15716799
64	0x3e93d5e3	0.2887412
65	0xbe38f219	-0.18061103
66	0x3d2be4b0	0.04196614
67	0x3ee99a29	0.45625427
68	0x3f39f6f8	0.7264247
69	0xbd487e80	-0.048948765
70	0xbed4c4fd	-0.4155654
71	0xbf61b243	-0.8816263
72	0x3f3a1ae4	0.7269728
73	0xbe5970f8	-0.212345
74	0xbeae2324	-0.34011185
75	0xbf28908e	-0.6584557
76	0xbf3f88bf	-0.7481803
77	0xbeb806f1	-0.35942796
78	0x3ec76cca	0.38950187
79	0x3e4299fc	0.19004053
80	0x3e57fcd1	0.21092536
81	0xbec4453b	-0.3833407
82	0xbd8958b4	-0.06706372
83	0x3f23fa9e	0.64054286
84	0x3f0075d0	0.5017977
85	0xbf854a59	-1.0413314
86	0xbf659794	-0.89684415
87	0x3f734a9d	0.95035726
88	0x3cfdc29a	0.030976582
89	0x3e6e4180	0.23267174
90	0x3e38f360	0.1806159
91	0x3e666a4b	0.22501485
92	0x3e962854	0.29327643
93	0x3f4387ac	0.76378894
94	0xbf0b1c22	-0.543398
95	0x3ef674ac	0.4813589
96	0xbed11d4b	-0.4084266
97	0xbeddf6c9	-0.43352345
98	0x3e5cff02	0.21581653
99	0xbf18d2f1	-0.5969687
100	0xbf2735dc	-0.6531656
101	0xbe6c5822	-0.23080495
102	0x3f268a7a	0.6505505
103	0x3ee205ff	0.441452
104	0x3f1534dd	0.5828379
105	0xbf375cbb	-0.7162587
106	0x3f3473c6	0.70489156
107	0xbf84a077	-1.036147
108	0x3f519fae	0.81884277
109	0x3e9d671f	0.30742738
110	0x3e9dbbd0	0.30807352
111	0x3f5cc634	0.86239934
112	0x3f7ce873	0.9879219
113	0xbede0809	-0.43365505
114	0xbf6be861	-0.9215146
115	0xbf35f3e7	-0.7107529
116	0x3ed2507d	0.41077033
117	0x3e947d95	0.2900206
118	0x3f78f43c	0.9724767
119	0xbec3d3f9	-0.3824766
120	0xbef1f5af	-0.47257754
121	0x3f8e697a	1.1125939
122	0xbeae5f25	-0.34056965
123	0x3f35b5fd	0.7098082
124	0x3d86e290	0.06586182
125	0x3f6c388e	0.92273796
126	0x3ea5854c	0.3232826
127	0x3f127897	0.57215255
128	0xbd8f4919	-0.06996364
129	0x3f2ffbd5	0.6874364
130	0xbe6f7d9a	-0.23387757
131	0xbed3bab1	-0.41353372
132	0x3e2a8c17	0.16655003
133	0x3f6d98f5	0.9281152
134	0xbfaf2582	-1.3683321
135	0xbf1ed9ed	-0.6205128
136	0x3e2076b3	0.1567028
137	0xbee51e23	-0.44749555
138	0x3ee14d99	0.44004515
139	0x3f1f36f8	0.6219325
140	0xbd931531	-0.07181776
141	0x3f533e0e	0.8251656
142	0xbe6b07bf	-0.22952174
143	0x3f3d89c6	0.7403835
144	0x3f1a5b40	0.60295486
145	0xbf6fb4d2	-0.93635285
146	0xbeee0d9e	-0.46494764
147	0x3e61bc21	0.22044422
148	0x3ed588e8	0.41706014
149	0x3e5a6f28	0.21331465
150	0xbf5b11bd	-0.8557394
151	0xbe8bd349	-0.27309635
152	0xbf58f4aa	-0.8474833
153	0x3fc06a55	1.503245
154	0x3f1eaf1a	0.61985934
155	0xbb0a276c	-0.0021080626
156	0x3f92669c	1.1437564
157	0x3f761bf8	0.96136427
158	0x3f56695b	0.8375451
159	0xbd519393	-0.05116613
160	0xbf15588e	-0.5833825
161	0xbf78c18e	-0.9717034
162	0xbe8e286c	-0.27765214
163	0xbeb211e2	-0.34779269
164	0xbcef61f9	-0.029221522
165	0xbf2f4417	-0.6846327
166	0xbf05447f	-0.5205764
167	0xbf0de6e8	-0.5543046
168	0x3f0532ae	0.52030456
169	0x3f07dcb0	0.5307112
170	0x3f082eda	0.5319649
171	0x3f4d170f	0.8011331
172	0xbdbdcdea	-0.092677906
173	0x3ed55c1a	0.4167183
174	0xbed515bf	-0.41618153
175	0xbef3035a	-0.47463495
176	0xbeccc74d	-0.39995804
177	0xbecd33b8	-0.4007852
178	0xb7b50cae	-2.1582786e-05
179	0x3f1ce068	0.61279917
180	0xbf19036e	-0.5977086
181	0x3ec3a896	0.38214558
182	0x3cf07f6a	0.02935763
183	0x3dcaab58	0.098959625
184	0x3efd652d	0.49491253
185	0xbf1f75c3	-0.62289065
186	0x3f0f5c54	0.56000257
187	0x3f3e6396	0.74370706
188	0x3f093f6b	0.53612393
189	0xbead5a9b	-0.3385819
190	0xbf20f501	-0.62873846
191	0xbef4d358	-0.47817492
192	0x3ebccb64	0.36873925
193	0xbcc42406	-0.023942959
194	0xbf0a6d00	-0.5407257
195	0xbf2b94d8	-0.6702399
196	0x3f99ab46	1.2005394
197	0x3e1e5d20	0.15465212
198	0x3f809968	1.0046816
199	0x3f3abe84	0.72946954
200	0xbeac32b5	-0.33632436
201	0x3f50a8e5	0.8150771
202	0x3f419ed6	0.7563299
203	0x3f190e50	0.59787464
204	0xbf270191	-0.65236765
205	0xbf5db360	-0.8660183
206	0xbf0b7e61	-0.54489714
207	0x3f2bec95	0.6715787
208	0x3dab6081	0.08368016
209	0xbfa00f0c	-1.2504592
210	0x3f14775c	0.5799463
211	0x3e610eaa	0.2197825
212	0x3e2f001a	0.17089882
213	0x3f096eb2	0.5368453
214	0xbcee6460	-0.029100597
215	0x3f07f7c2	0.53112423
216	0xbf17b562	-0.59261143
217	0xbf01aa2c	-0.50650287
218	0x3dc28a12	0.09498991
219	0xbf2d4004	-0.67675805
220	0xbf31f381	-0.6951218
221	0xbd15734a	-0.0364869
222	0x3f57c19e	0.8427981
223	0x3f04931f	0.5178699
224	0x3f0a6b30	0.54069805
225	0xbf25bf7e	-0.6474532
226	0xbf340870	-0.70325375
227	0xbf6d04b7	-0.9258532
228	0x3f77d258	0.96805334
229	0x3f3fbe7b	0.74900025
230	0xbe4b4a7e	-0.19852635
231	0xbedd12d9	-0.43178442
232	0x3e949d4d	0.2902626
233	0x3f5fcfbf	0.8742637
234	0xbf2101cf	-0.62893385
235	0xbf1687a4	-0.5880072
236	0xbe816d40	-0.25278664
237	0x3efcf1ca	0.4940322
238	0xbe9d1270	-0.3067813
239	0x3ef65bf3	0.48117027
240	0xbfa5c490	-1.2950611
241	0x3cd89108	0.026436344
242	0xbf80a3b6	-1.0049961
243	0x3fcea234	1.614325
244	0x3f8048d9	1.0022231
245	0x3ddb8687	0.107190184
246	0x3fc0092e	1.5002801
247	0x3fa59ea4	1.2939038
248	0x3f60de9a	0.87839663
249	0xbbecdeb3	-0.0072286963
250	0xbfa1cee6	-1.2641265
251	0xbfa7e09f	-1.3115424
252	0x3f1d492d	0.6143978
253	0xbd711dc5	-0.05886628
254	0xbd555cec	-0.05209057
255	0xbefac1e4	-0.48976052

decoder.0.bias f4 [25]
0	0xbf732dc3	-0.949917
1	0xbf7b52db	-0.981733
2	0xbf437163	-0.7634489
3	0xbfc382e4	-1.527432
4	0xbf3416b7	-0.7034716
5	0xbf8461c1	-1.0342332
6	0xbf4f667c	-0.81015754
7	0xbf3a0b9c	-0.72673965
8	0xbf536e9a	-0.8259064
9	0xbe48d881	-0.1961384
10	0xbf2b1896	-0.6683439
11	0xbf3d647f	-0.7398147
12	0x3cf1a55f	0.0294978
13	0xbe693f0d	-0.22777958
14	0xbf3357d6	-0.700559
15	0xbf8994a7	-1.074849
16	0xbf8c2084	-1.0947423
17	0xbf586807	-0.84533733
18	0xc008a623	-2.1351402
19	0xbf313afb	-0.6923062
20	0xbf8baad1	-1.0911504
21	0xbf8d8240	-1.1055374
22	0x3e9943a9	0.29934433
23	0xbf587604	-0.8455508
24	0xc0166087	-2.3496416

decoder.2.weight f4 [35, 25]
0	0x3ff4c53a	1.9122689
1	0x3fa2269c	1.2668033
2	0x3ff17b44	1.8865743
3	0x3fe63306	1.7984321
4	0x3ede57c7	0.43426344
5	0x3ec9d405	0.3941957
6	0x3fc58bdb	1.5433306
7	0x3fca84c0	1.5821762
8	0x3ee32ff6	0.4437253
9	0x3f766a3f	0.9625587
10	0x3f64d099	0.89380795
11	0x3f42c6d2	0.76084626
12	0x3f55b299	0.83475643
13	0x3f46bece	0.77634895
14	0x3fb53128	1.4155626
15	0x3f9c2ef8	1.2201834
16	0x3ed726c9	0.42021778
17	0x3fd1f44e	1.6402681
18	0x3fd4cfc3	1.6625904
19	0x3ff0bc5e	1.8807485
20	0x3fd92bf8	1.6966543
21	0x3fee5c48	1.8621912
22	0x3fe2ecae	1.7728479
23	0x3fc09f4e	1.5048616
24	0x3f9ad490	1.2096119
25	0x4016d447	2.3567064
26	0x3fc40c00	1.5316162
27	0x3ff100bb	1.8828348
28	0x400a9e91	2.1659281
29	0x3f88eeaf	1.069784
30	0x400a5166	2.1612182
31	0x3f63cfd1	0.8898898
32	0x40026ded	2.0379593
33	0x3f1957d3	0.59899634
34	0x4008b1a6	2.1358428
35	0x3f6c687d	0.92346936
36	0x3f549913	0.8304607
37	0x40021bb5	2.032941
38	0x40072eb2	2.112225
39	0x3f6df6dc	0.929548
40	0xbdaf4e8a	-0.08559902
41	0x3feae717	1.8351773
42	0x3fb4ddeb	1.4130224
43	0x3fd95a42	1.698067
44	0x40012854	2.0180864
45	0x3fa2fa5f	1.2732657
46	0x3ff10d0d	1.8832108
47	0x3fd73376	1.681258
48	0x3f537d18	0.8261275
49	0x3f5e4a55	0.8683217
50	0x3fad5750	1.3542271
51	0x3f99d183	1.2017063
52	0x3ebf85e8	0.3740685
53	0x3faa4312	1.3301718
54	0x3fabd322	1.3423808
55	0x3fb0981c	1.379642
56	0x3f8fd734	1.123755
57	0x3d786bab	0.060649555
58	0xbdf4f5a8	-0.11960918
59	0x3f8b8de1	1.0902673
60	0x3ea71f7d	0.3264121
61	0x3e89e701	0.26934054
62	0xbedf1989	-0.4357417
63	0xbee617f1	-0.4494014
64	0x3f976f65	1.183087
65	0x3f2234aa	0.6336161
66	0x3f6aef8c	0.9177177
67	0x3faa94ac	1.3326621
68	0x3fa801dc	1.3125567
69	0x3fd44dc0	1.6586227
70	0x3e67ebc8	0.22648537
71	0x3fc5dc5e	1.5457876
72	0x3fb16fec	1.3862281
73	0x3e94156b	0.2892259
74	0x3e8466c5	0.25859657
75	0x400aad69	2.166834
76	0x400c8862	2.1958241
77	0x400cef1e	2.2020946
78	0x400ac846	2.1684737
79	0x3ffe2bb4	1.9857087
80	0x3f133a28	0.57510614
81	0x3fca161d	1.5787998
82	0x3f965e72	1.1747572
83	0x3f2284a8	0.6348367
84	0x3fe486f7	1.7853688
85	0x3fd89870	1.692152
86	0x3fdc000e	1.7187517
87	0x3fa603cd	1.296991
88	0x3f9b3658	1.2125959
89	0x3fe512f1	1.7896405
90	0x3ff80caa	1.9378865
91	0x3f7f3fca	0.9970671
92	0x400984f0	2.1487389
93	0x3ff9aecb	1.9506468
94	0x3fbe5a8b	1.4871382
95	0x40119e83	2.2752998
96	0x4005fc6f	2.0935323
97	0x3f8aa353	1.0831093
98	0x40047ac1	2.0699923
99	0x3f31c6c3	0.6944391
100	0x3fe2c3e6	1.7716033
101	0x3fdb4641	1.7130815
102	0x3fb32bbb	1.399772
103	0x3fc229a5	1.5168959
104	0x3ce1612f	0.027512161
105	0x3fb06650	1.3781223
106	0x3fb1487d	1.3850247
107	0x3fa3141a	1.274051
108	0x3ff24a1d	1.8928868
109	0x3fd0e891	1.6320974
110	0x3d9e5bfe	0.0773239
111	0x3b817695	0.0039509037
112	0x3e39afad	0.18133421
113	0xbe27ee97	-0.16399609
114	0x3fabfafe	1.3435972
115	0x3ffcf3f0	1.9761944
116	0x3fd14405	1.6348883
117	0x3fc6bf3c	1.552711
118	0x3f887bb8	1.0662756
119	0x3f9ff1eb	1.2495703
120	0x3f893ea6	1.0722244
121	0x3fe85a28	1.8152514
122	0x3fb669f3	1.4251083
123	0x3f4b0986	0.79311407
124	0x3f9f8ab4	1.2464204
125	0x3fd356e1	1.6510888
126	0x3fe5391a	1.7908051
127	0x3fd8df74	1.6943192
128	0x3ff6d0ab	1.928243
129	0x3ed5aed2	0.4173494
130	0x3ef7e2cb	0.48415217
131	0x3fa5358a	1.2906964
132	0x3eaf66a0	0.34257984
133	0x3e89f437	0.26944134
134	0x3ef321fb	0.47486863
135	0x3f30f54a	0.6912428
136	0x3f33359b	0.7000367
137	0x3ef0ed51	0.47056058
138	0x3f2154d2	0.6302005
139	0x3fb09ff3	1.3798813
140	0x3fa23576	1.2672565
141	0x3f170290	0.58988285
142	0x3ff5b22b	1.9194998
143	0x3f917948	1.1365137
144	0x3fc44e16	1.533633
145	0x3fa96104	1.3232732
146	0x3fca14f0	1.578764
147	0x3f8c4925	1.0959822
148	0x3f4d5a55	0.8021596
149	0x3f0ddded	0.55416757
150	0x401268e7	2.2876527
151	0x3f89fbe1	1.0779992
152	0x3fdbaf0f	1.7162799
153	0x40050a4b	2.0787532
154	0x3f742fa5	0.953852
155	0x3fe2a64b	1.7706999
156	0x3fc8406b	1.5644659
157	0x3fc68657	1.5509747
158	0xbd9e782c	-0.07737765
159	0x3f572a37	0.8404879
160	0x3f57b404	0.8425906
161	0x3f8d3473	1.1031631
162	0x3ecc8987	0.39948675
163	0x3f41e9a6	0.75747144
164	0x3f81223f	1.0088576
165	0x4006f6ce	2.1088138
166	0x3f8e3346	1.1109397
167	0x3f898be9	1.0745822
168	0x3f6d9437	0.9280428
169	0x3fdb44bf	1.7130355
170	0x3ff89059	1.9419051
171	0x4002733a	2.0382829
172	0x3fec9eef	1.8486003
173	0x3fbe229d	1.4854313
174	0x3ff140fd	1.8847958
175	0x3fc7447e	1.5567777
176	0x3fb679e6	1.425595
177	0x3e80aed6	0.2513339
178	0x3fb9738b	1.4488386
179	0x3f90cf3c	1.1313243
180	0x3fb07a78	1.3787374
181	0x3f8c7d34	1.0975709
182	0x3e8eb8bf	0.27875325
183	0xbdf70860	-0.12062144
184	0x3f97a2d1	1.1846563
185	0x3f22b138	0.63551664
186	0x3fa8074d	1.3127228
187	0x3f510473	0.81647414
188	0x3f495278	0.7864146
189	0x3f8b0ac6	1.0862663
190	0x3f7adfe7	0.979979
191	0x3dbfe319	0.09369487
192	0x3faa93db	1.3326372
193	0x3fab595a	1.3386643
194	0x3f7f39e1	0.9969769
195	0x3f99d9cf	1.2019595
196	0x3fa897fc	1.3171382
197	0x3f48d6bd	0.78452665
198	0x3f6e9d32	0.9320861
199	0x3ebe5b8d	0.37179223
200	0x3fa6474d	1.2990509
201	0x3faf06a5	1.3673903
202	0x3f696f39	0.9118534
203	0x3faa0f68	1.3285952
204	0xbe270b24	-0.16312844
205	0x3fe106ce	1.7580202
206	0x3f895a0a	1.0730603
207	0x3e58aaa9	0.21158852
208	0xbeae4c5e	-0.3404264
209	0x3f8b2651	1.0871068
210	0x3d98e619	0.07465763
211	0x3ea8a878	0.3294103
212	0xbd42d24d	-0.04756384
213	0x3ed4e884	0.41583645
214	0x3f82b1ba	1.0210488
215	0x3fbc1032	1.4692442
216	0x3f83e423	1.0303997
217	0x3fc59d86	1.5438697
218	0x3e89cd44	0.26914418
219	0x3fb71b90	1.4305286
220	0x3fc9295b	1.5715746
221	0x3fc9d852	1.5769141
222	0x3fc4de69	1.5380374
223	0x3f8acc8c	1.0843673
224	0x3ff16584	1.8859105
225	0x4015f1b5	2.3428776
226	0x4010da1f	2.263313
227	0x400caa14	2.1978807
228	0x40006860	2.0063705
229	0x3f838cfc	1.02774
230	0x3fc6c46d	1.5528694
231	0x3fa707ab	1.3049215
232	0x3f3f7c0c	0.74798656
233	0x3fdb9ab5	1.7156588
234	0x3f48dc4c	0.78461146
235	0x3f4e67dc	0.80627227
236	0x3f6a8c94	0.91620755
237	0x3fdb3e5b	1.7128404
238	0x3f5efa89	0.87101036
239	0x3f97e145	1.1865622
240	0x400f0d41	2.235184
241	0x3f58ba54	0.84659314
242	0x400173fd	2.0227044
243	0x3fab09dd	1.3362385
244	0x3f9818aa	1.1882527
245	0x3ff34adf	1.9007224
246	0x40107021	2.2568438
247	0x3f888f4c	1.0668731
248	0x3fa92315	1.3213831
249	0x3f994802	1.19751
250	0x3fd6dcda	1.6786149
251	0x3fca5767	1.5807923
252	0x3f36740a	0.7127081
253	0x3feac82d	1.8342339
254	0x3f244d2f	0.6418027
255	0x3fbfeaf2	1.4993575

decoder.2.bias f4 [35]
0	0xbff667f3	-1.9250473
1	0xc01f4b9c	-2.4889898
2	0xbfaf25ee	-1.368345
3	0xbfe8f114	-1.8198571
4	0xbfe362fd	-1.7764584
5	0xbfc2614f	-1.5185946
6	0xc015dc0f	-2.3415563
7	0xbf9987ec	-1.1994605
8	0xbfdb4409	-1.7130138
9	0xc0011f68	-2.017542
10	0xbfe653b4	-1.7994294
11	0xbf90375b	-1.1266893
12	0xbfa989f8	-1.324523
13	0xc0083182	-2.1280217
14	0xbfe61474	-1.7974992
15	0xbf884147	-1.0644921
16	0xc0089f2a	-2.1347146
17	0xbfc39fd9	-1.5283157
18	0xc00cd36d	-2.2004044
19	0xbf9bab4f	-1.2161654
20	0xbf9bc822	-1.2170451
21	0xbf22df38	-0.63621855
22	0xbfc9c1b2	-1.5762236
23	0xbf94fa00	-1.1638794
24	0xc021b034	-2.5263796
25	0x3e1040b6	0.14087185
26	0xc008e968	-2.139246
27	0xbfae84bd	-1.3634259
28	0xc00cd0ac	-2.2002363
29	0xbf193f5c	-0.59862304
30	0xbfb964fd	-1.4483944
31	0xbf962df9	-1.173278
32	0xc0226d50	-2.537922
33	0xbf081b85	-0.5316699
34	0xbfff850c	-1.9962478

decoder.4.weight f4 [50, 35]
0	0x3fd1cf87	1.6391457
1	0x3d474923	0.048653733
2	0xbfce5f3c	-1.6122813
3	0x3eb43501	0.3519669
4	0xbef5db00	-0.48018646
5	0xbf19d1b5	-0.6008561
6	0x3f515fad	0.81786615
7	0x3fa29e07	1.2704476
8	0x3fbb0b83	1.4612888
9	0x3f536784	0.8257983
10	0xbfb430b7	-1.4077367
11	0x3e4d4d9d	0.20049138
12	0xbed38653	-0.4131342
13	0xbbec7dac	-0.0072171297
14	0xbd39f4a4	-0.045399323
15	0x3e855964	0.26044762
16	0x3f1e43d7	0.61822265
17	0xbf1fe9df	-0.62466234
18	0xbf06d692	-0.5267116
19	0x3ebb72f1	0.3661113
20	0x3f30b619	0.6902786
21	0x3c941fac	0.018081509
22	0xbeb7acbf	-0.35873982
23	0xbd08cb39	-0.033396933
24	0x3f97a3bf	1.1846846
25	0x3ee27598	0.44230342
26	0x3daa77f4	0.083236605
27	0x3e9fb23d	0.31190673
28	0xbf483ccb	-0.7821776
29	0x3ca13f12	0.019683395
30	0x3f2c318b	0.67263097
31	0x3e31c426	0.17359981
32	0xbff47756	-1.9098918
33	0xbf9985d9	-1.1993972
34	0x3ee0db1d	0.4391717
35	0x3feae247	1.8350304
36	0x3e5ee9e1	0.21768905
37	0xbe11aa31	-0.14225079
38	0xbea82c74	-0.32846415
39	0xbf498c7c	-0.7872999
40	0xbfb1540e	-1.3853776
41	0xbd46f1e8	-0.048570544
42	0x3fbf5440	1.4947586
43	0x3fcd3684	1.6032262
44	0xbf3c4bae	-0.7355298
45	0x3dcfd353	0.10147729
46	0x3e170a98	0.14750135
47	0x3b88eaf5	0.0041783997
48	0xbef0590c	-0.46942937
49	0xbf6e35c7	-0.9305081
50	0x3f20a2a3	0.62748164
51	0xbf75dea0	-0.96042824
52	0xbecd9bea	-0.40158015
53	0xbdccdc25	-0.10002927
54	0xbdd62ad3	-0.10457387
55	0xbedb3436	-0.4281327
56	0xbe921074	-0.28528178
57	0xbec31b74	-0.38106883
58	0xbd928701	-0.07154656
59	0x3ea600da	0.32422525
60	0xbf0dcf73	-0.5539467
61	0x3e630635	0.22170337
62	0x3f11f66b	0.5701663
63	0xbd7e2f50	-0.06205684
64	0x3f978f80	1.1840668
65	0xbe50c26d	-0.20386668
66	0xbf577bfe	-0.8417357
67	0xbfc5f5bc	-1.5465617
68	0x3f09dab0	0.53849316
69	0x3e0778ed	0.13229723
70	0xbfcf5d1a	-1.6200287
71	0x3f2826cb	0.65684193
72	0x3f9a07e5	1.2033659
73	0x3e362686	0.17788133
74	0x3eed8169	0.46387795
75	0x3e9f29e5	0.3108665
76	0xbe26ea4a	-0.16300312
77	0xbfd228a8	-1.6418657
78	0xbfa3d1d2	-1.2798407
79	0xbf1d294e	-0.6139115
80	0xbf3c2196	-0.7348875
81	0x3e3b226b	0.18274848
82	0x3eaaec9f	0.33383653
83	0x3d94a662	0.072582975
84	0x3f0f3fe5	0.5595687
85	0xbf90002a	-1.125005
86	0xbb77ecb4	-0.0037830295
87	0xbe2fc122	-0.17163518
88	0xbfc36634	-1.5265565
89	0xbdd1dd53	-0.10247292
90	0xbeb581a1	-0.35450462
91	0x3fed491b	1.8537935
92	0x3ed62d19	0.41831282
93	0xbe6f7870	-0.23385787
94	0x3f548068	0.8300843
95	0xbf69385b	-0.91101617
96	0x3f26fb51	0.6522723
97	0xbfa1be1a	-1.2636139
98	0xbd888253	-0.06665482
99	0x3eb77173	0.35828742
100	0x3eb0937f	0.3448753
101	0x3e6b52ee	0.22980854
102	0x3fd3b2fc	1.6538997
103	0xbf41119a	-0.7541748
104	0xbe859001	-0.2608643
105	0x3fe60443	1.797005
106	0x3eb8997d	0.36054602
107	0xbe0212a3	-0.12702422
108	0xbefd5648	-0.4947989
109	0x3efe8d5b	0.4971722
110	0xbef1361f	-0.47111604
111	0x3e46c8fe	0.1941261
112	0x3fbbde4b	1.4677213
113	0x3f966b1c	1.1751437
114	0xbeb6f8e6	-0.3573677
115	0xbfa7e5c9	-1.3117
116	0x3c4de916	0.012567779
117	0x3e20775f	0.15670536
118	0xbf60926b	-0.87723416
119	0x3f0cf937	0.5506777
120	0xbe38338d	-0.17988415
121	0xbf4a2198	-0.7895751
122	0x3f6534ec	0.8953388
123	0xbf484a42	-0.7823831
124	0xbe25ba9a	-0.16184464
125	0x3f393f73	0.7236244
126	0x3e03c170	0.1286676
127	0x3ea0bf6f	0.31396052
128	0xbedcf9eb	-0.43159422
129	0x3f63d7c2	0.89001095
130	0xbeda130d	-0.4259266
131	0xbe605f82	-0.21911433
132	0xbfbe4571	-1.4864942
133	0x3eb0a8ad	0.3450369
134	0xbd2dbae1	-0.04241455
135	0xbe50d164	-0.20392376
136	0x3e47e28c	0.19520015
137	0xbff0f9b6	-1.8826206
138	0xbf7ff0b0	-0.99976635
139	0x3ed521b7	0.41627285
140	0x3fcb9894	1.5905938
141	0x3d289ece	0.041167073
142	0xbf64b993	-0.89345664
143	0x3ea2f019	0.31823805
144	0xbea1292b	-0.3147672
145	0xbff1b976	-1.8884723
146	0xbdefb9ae	-0.117053375
147	0x3f573fc6	0.84081686
148	0x3fd1a8d6	1.637965
149	0xbf8731ad	-1.0562035
150	0xbf884bcc	-1.0648131
151	0xbe40694a	-0.18790165
152	0xbe20b800	-0.1569519
153	0xbf47b9c2	-0.7801782
154	0xbe58038b	-0.21095102
155	0x3f847314	1.0347619
156	0xbec43b97	-0.38326713
157	0xbbee254f	-0.007267631
158	0x3daffb62	0.08592869
159	0x3e2201d7	0.15821014
160	0xbf45b201	-0.7722474
161	0xbf84d3ab	-1.0377096
162	0xbeac34b7	-0.33633968
163	0x3e8ae903	0.271309
164	0x3f9948f2	1.1975386
165	0xbeebcd7c	-0.4605521
166	0x3e83bb59	0.25728872
167	0xbf374f76	-0.7160562
168	0x3ed1f23c	0.41005123
169	0x3ebcee0e	0.3690037
170	0x3df5939c	0.11991045
171	0x3f78098a	0.96889555
172	0xbf86e361	-1.053814
173	0x3f06163b	0.5237767
174	0x3f125d60	0.5717373
175	0x3fadfc4c	1.359262
176	0xbdfb4436	-0.122688696
177	0xbf32071e	-0.6954211
178	0x3edcec21	0.43148902
179	0x3cc50b18	0.024053141
180	0xbee3a229	-0.44459656
181	0xbe226056	-0.15857062
182	0xbfc8b4ce	-1.5680177
183	0x3f9a4acb	1.2054075
184	0xbdebf8e1	-0.11522079
185	0xbf87ed76	-1.0619342
186	0x3e261840	0.16220188
187	0x3f1dd64b	0.6165511
188	0xbf10f2c6	-0.5662044
189	0x3e514937	0.20438085
190	0x3f31896b	0.6935031
191	0xbdde6c52	-0.10860504
192	0x3eb5734b	0.35439524
193	0x3f7fa3e2	0.9985944
194	0x3ef4ee27	0.47837946
195	0xbef27d3f	-0.4736118
196	0xbf2d865a	-0.6778313
197	0xbda9c876	-0.08290188
198	0xbf014f40	-0.5051155
199	0x3f1c5a2f	0.6107511
200	0x3f354323	0.7080557
201	0xbebe7bd5	-0.3720385
202	0xbf139455	-0.5764821
203	0x3f2e8dcc	0.68185115
204	0xbf7d7312	-0.9900371
205	0x3f4cb868	0.7996888
206	0x3fc4fd94	1.5389886
207	0xbf9a5236	-1.2056339
208	0x3d1dd291	0.03853089
209	0x3f8f0b8c	1.1175399
210	0x3f5f472e	0.87217987
211	0xbefd8827	-0.49517938
212	0xbe98aae2	-0.29817873
213	0x3e3097f8	0.17245471
214	0x3eb97199	0.3621948
215	0x3e99b9f1	0.30024675
216	0x3ece436d	0.40285817
217	0xbfd014c2	-1.6256335
218	0x3fb7625e	1.4326894
219	0x3dc1e3be	0.094672665
220	0xbfa23d22	-1.2674906
221	0xbe615823	-0.22006278
222	0xbbaa7d27	-0.0052029076
223	0x3e6caccf	0.23112796
224	0x3f10b68f	0.5652856
225	0xbf215d88	-0.6303334
226	0xbe34ecc3	-0.17668442
227	0xbef274e3	-0.47354802
228	0x3ebaccd3	0.36484393
229	0xbe9bf625	-0.3046123
230	0xbf2ba9e0	-0.67056084
231	0x3e4a916c	0.19782037
232	0x3ef4adf7	0.47788975
233	0xbee8c0a8	-0.45459485
234	0x3f8c1f16	1.0946987
235	0x3ed0368f	0.40666625
236	0x3ee5bd39	0.44870928
237	0x3f6a6afe	0.9156951
238	0xbedbe247	-0.42946073
239	0xbf4c702f	-0.7985868
240	0xbe12fe03	-0.1435471
241	0xbf10fdbe	-0.5663718
242	0x3fc43e60	1.5331535
243	0x3f3460ff	0.70460504
244	0xbefa0203	-0.4882966
245	0x3ff118e9	1.8835727
246	0xbf472817	-0.7779555
247	0x3da72dd2	0.081630364
248	0x3c11ce1f	0.008899241
249	0xbf15a7e3	-0.584593
250	0xbfd9f9a8	-1.7029314
251	0x3f1ed211	0.62039286
252	0x3fd8c986	1.69365
253	0x40038381	2.0549014
254	0x3fafc720	1.3732643
255	0xbf8854b9	-1.0650855

decoder.4.bias f4 [50]
0	0xbf43121b	-0.761995
1	0xbf3cd128	-0.7375665
2	0xbf482c05	-0.7819217
3	0xbf582d36	-0.84443986
4	0xbf2c3bda	-0.67278826
5	0xbf6e41ee	-0.9306935
6	0xbeeffc19	-0.46872023
7	0xbf11911d	-0.5686205
8	0xbebab719	-0.36467817
9	0xbe9dc0bc	-0.30811107
10	0xbf3b3238	-0.731235
11	0xbf062471	-0.52399355
12	0xbf173ad6	-0.5907415
13	0xbf51c050	-0.8193407
14	0xbf1f12f0	-0.6213827
15	0xbee53032	-0.44763333
16	0xbf0e4f22	-0.555895
17	0xbf2e32c5	-0.6804622
18	0x3d050717	0.032477465
19	0xbf4fe3ee	-0.8120717
20	0xbf31916f	-0.6936254
21	0xbf38b115	-0.72145206
22	0xbf383242	-0.7195169
23	0xbf6c64c4	-0.92341256
24	0xbeb3b7e6	-0.3510124
25	0xbf80c8b4	-1.006125
26	0xbf33debd	-0.70261747
27	0xbf4626ec	-0.7740314
28	0xbf39f031	-0.7263213
29	0xbf383fb2	-0.7197219
30	0xbf90792e	-1.1286981
31	0xbf0a213e	-0.53956974
32	0xbf0ec3d1	-0.5576754
33	0xbf28e450	-0.6597338
34	0xbee2577f	-0.4420738
35	0xbf1efa1f	-0.62100405
36	0xbf435b92	-0.763116
37	0xbf6e5966	-0.9310516
38	0xbf4eef86	-0.80834234
39	0xbf656a1f	-0.8961505
40	0xbf211505	-0.629227
41	0xbf5ad76f	-0.85484976
42	0xbf48aba2	-0.7838689
43	0xbf48f453	-0.7849781
44	0xbf05d0f8	-0.52271986
45	0xbf48a305	-0.7837375
46	0xbeef941f	-0.46792695
47	0xbf01861a	-0.5059525
48	0xbf55c117	-0.83497757
49	0xbf5dc75a	-0.8663231
