autoencoder_model/autoencoder_best_sum_1.pt (torch, 35407 bytes, 12 tensors)

encoder.0.weight f4 [40, 50]
00000000: bdb8 c840 ca18 cc40 a7cf ca40 19c7 cb40
00000010: adfc c840 fbcc ce40 ffa3 c6c0 4bdf c2c0
00000020: cc8e ce40 9775 cb40 708d cf40 358e cd40
00000030: 42bb c740 c21f cd40 adfc ca40 d045 c0c0
00000040: 0ee0 c3c0 3c67 ce40 8a7b c340 9798 c8c0
00000050: a889 ea3c 5895 cec0 bc44 cfc0 c4e0 cbc0
00000060: 454b b8c0 3e58 bac0 1af4 bcc0 75bc bcc0
00000070: 918e cf40 edd6 c940 3b7d ce40 387c cb40
00000080: 609a cf40 d55e cb40 6035 cd40 4b83 ce40
00000090: 3e18 d040 cf51 cc40 fa1c d140 f327 c940
000000a0: 0ef4 4dc0 3f5d 55c0 0f5c cd40 d944 ce40
000000b0: 1f27 cb40 3ddd ce40 4940 cc40 5f0d c940
000000c0: 8175 d040 60c6 cf40 33b1 cac0 d75e c9c0
000000d0: f350 cbc0 fb92 cac0 9139 c9c0 66e4 cdc0
000000e0: fd84 5e3f 47f3 683f a195 cdc0 487a cdc0
000000f0: d302 cdc0 0a63 cac0 fb66 aec0 dc2c cfc0
00000100: 0157 cec0 2c98 3c40 783b 4440 459f cec0
00000110: e4f6 b4c0 e366 cb40 f258 13bd 1cb7 cb40
00000120: 678d c840 3a03 d140 9a70 ed3f 6e3d db3f
00000130: dd82 d83f 756f e43f dc66 cac0 653a d0c0
00000140: 88b0 cec0 6116 cbc0 41e6 cfc0 fa7b cdc0
00000150: a264 d0c0 65c8 c8c0 778a cac0 d929 d1c0
00000160: a07a cfc0 4960 cbc0 27bf c2c0 a1cb c1c0
00000170: c2ae d0c0 4e67 cfc0 4bed cac0 5e6e d0c0
00000180: fced cdc0 7efd cac0 aaa1 cac0 efb2 ccc0
00000190: cc99 cd40 504d ce40 98c2 cb40 630d cb40
000001a0: aebe cf40 52b3 d040 2f2d cd40 181a c940
000001b0: 2e5a c840 6ed2 c740 f551 cc40 6d8d ca40
000001c0: e004 cb40 36c1 ca40 9991 d040 8d45 cf40
000001d0: 118f ca40 0dee ca40 0a5d ce40 4510 ccc0
000001e0: 1bcb 09be f4c1 cac0 cbf4 c7c0 4be0 cfc0
000001f0: de10 ca40 5506 cc40 aa5b c740 2e2b c740
00000200: d7aa cf40 b4af ca40 c2ed ce40 83b1 cc40
00000210: 9d64 cd40 cf45 c940 8152 cb40 2e46 cf40
00000220: 545d ce40 f9fa ca40 77d8 cc40 f3c0 cf40
00000230: 4650 c740 972f ce40 c0ed ca40 405e cb40
00000240: 4071 ce40 7787 c840 eb9a cb40 149d d040
00000250: eaea cd40 8c9d ca40 4a48 cb40 42d6 cf40
00000260: 54fa cd40 f455 cf40 9f5a c940 a392 cd40
00000270: a8ec cb40 82e7 cb40 5d78 d040 f3c5 ce40
00000280: 3163 cf40 5341 ce40 d607 ce40 859a ca40
00000290: 2b46 c840 fc30 c740 1332 c840 9356 c940
000002a0: 7844 ce40 374c cac0 b62b 25bd 0aac cfc0
000002b0: fbd0 c7c0 f0de c8c0 b73a cd40 808e cf40
000002c0: e7aa c840 f47f c840 859e c940 8c0c cc40
000002d0: fd45 c840 c1d9 cf40 7062 cc40 9085 ce40
000002e0: 6cc8 c940 49cd cb40 03dd cc40 8d07 cb40
000002f0: 258a d040 5a33 ca40 6fb2 cc40 9f38 c840
00000300: 83bb cb40 4a11 cb40 7b38 ce40 e66d cf40
00000310: 655e cd40 74db cb40 fb1b cb40 efd0 cf40
00000320: 45ba cdc0 2464 c9c0 feab cec0 aeed c8c0
00000330: 9b26 c8c0 598e c9c0 9d2e c9c0 e117 cac0
00000340: 2de2 cec0 b19a ccc0 9719 cbc0 3fd7 cdc0
00000350: fd64 cc40 b236 c9c0 f5d9 d0c0 76dc cfc0
00000360: 2e73 cec0 311b ccc0 08b9 ca40 bf28 cd40
00000370: d2bf 09bd 158a c940 5642 cd40 31b9 cf40
00000380: c77b cec0 94cc c7c0 01a7 cac0 c44d c7c0
00000390: 6fce d0c0 7ffd d0c0 761f cbc0 52e1 d0c0
000003a0: f35d d0c0 6a5b cac0 1f76 cac0 37c8 d0c0
000003b0: da66 c9c0 cb89 cdc0 634c c9c0 6950 cfc0
000003c0: f820 d0c0 5cd3 cec0 205c cdc0 982d d1c0
000003d0: 74f7 ccc0 bbea cec0 2cb6 cdc0 afa8 ccc0
000003e0: 7e67 ccc0 cb15 d1c0 1366 cc40 114c c740
000003f0: 31d4 cc40 c037 ce40 c68f c840 2c94 ca40
6.272551 6.378026 6.337848 6.368054 6.280844 6.462522 -6.207519 -6.0897574
6.4549313 6.358104 6.4860153 6.4236093 6.2416086 6.4101267 6.343344 -6.008522
-6.1211004 6.450102 6.1088305 -6.2686267 0.028630093 -6.4557304 -6.4771404 -6.371187
-5.759188 -5.8232718 -5.9047976 -5.898005 6.486153 6.307486 6.452787 6.3589134
6.4875946 6.355326 6.4127655 6.453527 6.5029593 6.3849864 6.534787 6.2861266
-3.218021 -3.3338163 6.4174876 6.4459043 6.3485255 6.4645066 6.3828473 6.282882
6.5143437 6.4929657 -6.334131 -6.292827 -6.3536315 -6.330442 -6.288277 -6.4341307
0.86921674 0.9099621 -6.4245152 -6.421177 -6.4065948 -6.3245897 -5.450071 -6.474226
-6.4481206 2.9467878 3.0661297 -6.456942 -5.655138 6.3563094 -0.035973497 6.366102
6.267261 6.531644 1.8549988 1.7128122 1.6914936 1.7846514 -6.325056 -6.5071282
-6.459049 -6.346482 -6.496857 -6.421384 -6.5122843 -6.274462 -6.3294024 -6.5363584
-6.483719 -6.3555036 -6.085834 -6.056107 -6.5213327 -6.4813604 -6.3414664 -6.5134726
-6.435301 -6.343444 -6.3322344 -6.3968425 6.425024 6.4469376 6.367504 6.345384
6.4920263 6.5218897 6.4117656 6.2844353 6.2610083 6.244437 6.3850045 6.329764
6.344345 6.3360853 6.517773 6.47724 6.329964 6.341559 6.4488573 -6.376986
-0.13456385 -6.336176 -6.248632 -6.4961295 6.314559 6.375773 6.2299395 6.224021
6.4896045 6.333948 6.466523 6.396669 6.418532 6.2897716 6.3538213 6.477317
6.4488926 6.3431363 6.401424 6.4923034 6.228549 6.4433093 6.341522 6.355255
6.4513245 6.266536 6.362661 6.5191746 6.434926 6.331732 6.3525743 6.4949045
6.4368076 6.4792423 6.292312 6.42415 6.3726387 6.37201 6.514693 6.4616637
6.4808583 6.445474 6.4384565 6.3313622 6.2585654 6.2247295 6.2561126 6.291818
6.445858 -6.3218036 -0.04032489 -6.489751 -6.2442603 -6.277214 6.4134173 6.486145
6.270862 6.2656193 6.3006005 6.3765316 6.2585435 6.4953313 6.3870163 6.453804
6.3057156 6.368809 6.401979 6.3446717 6.5168633 6.3187685 6.3967814 6.2569118
6.3666396 6.3458605 6.4443946 6.4821653 6.417773 6.3705387 6.3471656 6.4942546
-6.428988 -6.293474 -6.458495 -6.2790136 -6.2547126 -6.2986264 -6.28694 -6.315415
-6.4651093 -6.393883 -6.3468738 -6.432525 6.3873277 -6.2879267 -6.526606 -6.4956617
-6.45156 -6.3783193 6.335087 6.411224 -0.0336302 6.2981057 6.4143476 6.4913564
-6.4526095 -6.243723 -6.332886 -6.228243 -6.5251994 -6.5309443 -6.3475904 -6.527505
-6.5114684 -6.323659 -6.326919 -6.5244403 -6.293805 -6.4230704 -6.2905746 -6.4785657
-6.5040245 -6.4633007 -6.4174957 -6.5368156 -6.4052067 -6.4661536 -6.428488 -6.3955913
-6.3876333 -6.5339103 6.38746 6.2280354 6.4009023 6.4443054 6.2675505 6.3305874

encoder.0.bias f4 [40]
00000000: 8653 cbc0 3134 cb40 adaa cec0 4369 cac0
00000010: bb83 d040 05a7 c7c0 4c2e cfc0 03ce c9c0
00000020: 23b1 c8c0 1210 a940 d388 c940 1af8 c840
00000030: 2cb3 cc40 2d00 7040 c75e c8c0 540b cc40
00000040: c4ac cc40 45de c9c0 98fc c9c0 9fa2 cac0
00000050: b0bd ca40 d7b6 c8c0 cd70 b9c0 83ea c4c0
00000060: c204 ce40 3210 c340 35b5 ab40 8ba1 c340
00000070: 41e2 bbc0 1a4a c7c0 fcce c8c0 88c6 c640
00000080: 1beb e43f 731d ccc0 76e5 cf40 6166 c9c0
00000090: b9a0 a0c0 4e78 c8c0 6384 b640 0505 cb40
-6.3539457 6.350121 -6.4583344 -6.3253493 6.5160804 -6.239138 -6.4744015 -6.306398
-6.271623 5.2832117 6.297952 6.280286 6.3968716 3.7500107 -6.2615695 6.376383
6.3960896 -6.3083825 -6.312084 -6.332351 6.335655 -6.2723193 -5.7950196 -6.153627
6.438081 6.095727 5.36587 6.1134696 -5.871369 -6.2277956 -6.2752666 6.211735
1.7884248 -6.378595 6.4967604 -6.2937474 -5.0196195 -6.2646856 5.7036605 6.3443627

encoder.2.weight f4 [30, 40]
00000000: dc39 cac0 a400 cb40 1bcf c3c0 b060 c1c0
00000010: 0fe8 c440 61ed c5c0 20fb c0c0 e1c1 c5c0
00000020: d232 c5c0 cbf5 c940 7017 c840 58aa c640
00000030: c489 c740 d4c4 c640 a726 c5c0 c9d2 c340
00000040: ce85 c040 4db5 c2c0 c5e3 c4c0 a031 c7c0
00000050: fb8f c040 0f36 c2c0 dfa3 c3c0 bb62 c6c0
00000060: 9925 ca40 2ef8 c140 bdba c440 e54c c640
00000070: a87c c6c0 e7f1 b740 f6d8 c7c0 a50b ca40
00000080: 2f24 c640 09d8 c3c0 c57a c940 842e c8c0
00000090: 4258 c5c0 e705 cac0 f310 c340 6f14 c140
000000a0: 7bfd cb40 45a2 cac0 0f77 ce40 2c0b cf40
000000b0: 9441 cfc0 a3b3 6a3f d20b cd40 6f92 cb40
000000c0: 949b c9c0 5823 c7c0 2f87 c8c0 b07b cfc0
000000d0: 7464 c640 0f0f 62bf a9f2 c840 ebfb cfc0
000000e0: 4385 c8c0 d255 c840 94a9 c7c0 3d4e c940
000000f0: f957 cfc0 fdf0 cb40 c1fd cc40 8918 c7c0
00000100: 1198 cfc0 351a cfc0 3e8a cec0 ae01 d43f
00000110: 6e5f d040 ae36 61c0 c48a 5540 b62e cdc0
00000120: efdd c540 4422 cd40 898e d0c0 10d3 cf40
00000130: 6566 c940 a73f cb40 f1de cbc0 35c7 c640
00000140: 7859 c140 6453 c5c0 8ab6 ca40 40ba c640
00000150: d587 cac0 66ee c440 054e cd40 a38b b940
00000160: 5bf5 33c0 cf70 c7c0 79f1 c5c0 0fd3 c5c0
00000170: fa80 bec0 7d26 c6c0 1a05 4b40 0d00 c7c0
00000180: ad7c cac0 5fb5 ce40 f355 02c0 15dc ae40
00000190: 97d9 c8c0 a145 c540 df59 c740 8757 bfc0
000001a0: 0b61 aec0 43b0 c5c0 37ae cac0 4284 c3c0
000001b0: 21de cc40 4ba5 c8c0 e1ee c640 71ba c0c0
000001c0: 17fb c1c0 fab8 c540 6f80 c9c0 8798 cd40
000001d0: 7582 cd40 95a7 c440 736b cbc0 2703 a4c0
000001e0: 1690 7740 a897 55c0 81e7 4f40 0fb6 4b40
000001f0: 97b1 4bc0 1d0d a140 a401 4540 6494 183f
00000200: bbca 9540 c2f6 67c0 0140 81c0 f1b7 b640
00000210: dbbc 14c0 c87f 56c0 1a89 8040 32a8 44c0
00000220: 683d 43c0 1338 4140 8dcd bdc0 a37e 2b40
00000230: 814b 70c0 0511 8b40 b52b 8e40 a377 c4c0
00000240: 5f98 8ac0 926a 71c0 cbeb 3ec0 d2e2 bb40
00000250: 0910 9e40 924a aebf f45e 8f40 5a7f 92c0
00000260: d8ab b140 3e84 5a40 1676 4cc0 1fa2 6940
00000270: d094 4640 3a1f 1940 15cf 4bc0 bb7d b940
00000280: 15e2 c6c0 227c cb40 5b00 cfc0 d114 cbc0
00000290: a674 c840 b0eb c8c0 d169 cec0 7e7a f5bf
000002a0: 5388 cac0 8070 cc40 e6e8 c940 dfe4 c340
000002b0: 6459 c8c0 b458 cd40 ef17 c6c0 0775 cf40
000002c0: 7c89 cc40 c889 c8c0 2bc0 ca40 9ec3 7fbf
000002d0: 80e7 ca40 40be 59c0 87a1 cac0 c6f4 cd40
000002e0: 650b cc40 52c3 c840 03ca c940 27ee bf40
000002f0: 1fea c6c0 c49b cc40 cd11 cbc0 9748 6240
00000300: f680 c9c0 10b5 c8c0 821f c740 ee6d cec0
00000310: 9aac c8c0 0e34 c7c0 a84a cf40 8eff c6c0
00000320: 31ca c9c0 81d6 cd40 45bd c9c0 91d7 cbc0
00000330: 78c0 cd40 5c6e cac0 c7ea cdc0 76b0 c5c0
00000340: e32f cbc0 f0c9 c840 1465 cc40 1a50 c640
00000350: f5c1 cb40 436d cc40 3ab9 c6c0 682a c940
00000360: 553a c840 77f1 c5c0 3d87 c040 8d91 cac0
00000370: 2719 c540 9f34 ccc0 cdc4 c8c0 b069 c640
00000380: d508 ca40 cdbb c640 f7aa c540 7c2c 5fc0
00000390: 508e c7c0 3105 c540 fc97 c6c0 efa2 c640
000003a0: c68b 8a40 e233 c5c0 50e6 c640 bda6 ccc0
000003b0: 324a c7c0 912b cdc0 96eb c640 9429 b2c0
000003c0: f226 c540 80d6 ccc0 f37b cb40 c81e c940
000003d0: 62e5 c6c0 69a7 ca40 2307 c940 afb8 c640
000003e0: c74e c940 f5f5 cec0 208f c7c0 6f89 cac0
000003f0: 3901 a1c0 86cd c2c0 ecb6 cb40 1649 c8c0
-6.319563 6.343828 -6.1190314 -6.0430527 6.1533275 -6.185227 -6.030655 -6.179917
-6.1624537 6.311254 6.252861 6.208294 6.235567 6.211527 -6.1609683 6.1194806
6.0163336 -6.0846314 -6.152804 -6.2248077 6.0175757 -6.069099 -6.113754 -6.199552
6.3170896 6.0615454 6.147795 6.1968865 -6.202717 5.748279 -6.2452345 6.3139215
6.191917 -6.1201215 6.2962365 -6.255678 -6.1670237 -6.3132205 6.095819 6.0337443
6.3746924 -6.3323083 6.4520335 6.4701138 -6.476755 0.91680354 6.407693 6.361625
-6.3002415 -6.2230644 -6.266502 -6.4838486 6.1997623 -0.8830423 6.2796216 -6.4995017
-6.2662673 6.260476 -6.2394505 6.2908006 -6.479489 6.3731675 6.405976 -6.221745
-6.487313 -6.471949 -6.4543753 1.6563013 6.511649 -3.5189624 3.3365946 -6.411952
6.1833415 6.410433 -6.5173993 6.4945145 6.2937493 6.35152 -6.3709645 6.2118173
6.0421715 -6.1664295 6.3347826 6.2102356 -6.329081 6.1541014 6.415774 5.7982955
-2.8118503 -6.2325206 -6.1857266 -6.182014 -5.953244 -6.1921983 3.1721864 -6.218756
-6.327719 6.45964 -2.036496 5.4643655 -6.2765613 6.1647496 6.2297206 -5.9794345
-5.449346 -6.1777663 -6.3337665 -6.1098948 6.4021153 -6.2701774 6.21666 -6.022759
-6.0619006 6.17883 -6.296928 6.424869 6.422175 6.145457 -6.3568664 -5.125385
3.8681693 -3.3373814 3.2485049 3.182987 -3.1827142 5.0328507 3.0782251 0.59601426
4.6809974 -3.624436 -4.039063 5.709954 -2.3240268 -3.3515491 4.016736 -3.0727658
-3.050623 3.0190475 -5.9313416 2.6796043 -3.7546084 4.3458276 4.4428353 -6.139604
-4.3311 -3.7721295 -2.9831417 5.871438 4.9394574 -1.3616507 4.480341 -4.578046
5.552227 3.4143214 -3.1947074 3.65052 3.1028328 2.392531 -3.1845143 5.796598
-6.215098 6.358903 -6.4687934 -6.346291 6.2642393 -6.2787704 -6.450417 -1.9178007
-6.329141 6.388733 6.30968 6.1216884 -6.260912 6.417078 -6.1904216 6.4830356
6.3917828 -6.266819 6.335958 -0.99907863 6.3407593 -3.402237 -6.3322177 6.4361296
6.376391 6.273843 6.3059096 5.9978213 -6.216079 6.3940144 -6.345923 3.5356805
-6.2969923 -6.2721024 6.222596 -6.450919 -6.2710695 -6.2251043 6.4778633 -6.2186956
-6.3059316 6.4324346 -6.304354 -6.3700643 6.4297447 -6.3259716 -6.4349093 -6.1777906
-6.3495955 6.2746506 6.3873386 6.197278 6.3674264 6.3883376 -6.2101107 6.2864265
6.2571206 -6.1857257 6.0165086 -6.3302674 6.1593204 -6.3814235 -6.2740235 6.2004013
6.313578 6.210425 6.1771197 -3.48709 -6.236122 6.1568837 -6.206053 6.2073894
4.329562 -6.1625834 6.2156143 -6.395354 -6.227807 -6.411568 6.216258 -5.5675755
6.161004 -6.401184 6.3588805 6.2850075 -6.215501 6.332936 6.282121 6.2100444
6.2908664 -6.467524 -6.2362213 -6.3292766 -5.0313993 -6.0875883 6.3660793 -6.2589216

encoder.2.bias f4 [30]
00000000: 33af c240 565f cbc0 2d1c cdc0 2c88 4cc0
00000010: 5dd7 ce40 e9a5 cc40 3639 c7c0 776f ca40
00000020: e77d bb40 3aa8 9a40 af0b cf40 8421 cac0
00000030: 8370 cec0 e795 c740 1b98 cb40 41e4 cdc0
00000040: 7b51 b4c0 58c3 cf40 b5cb c940 9d4d c640
00000050: 6efb b440 ebd2 cec0 57f5 c340 6ee4 cfc0
00000060: 18cd c6c0 349f 2cc0 c810 c940 1e74 d0c0
00000070: a01c ce40 9d97 d0c0
6.0838866 -6.3553877 -6.4096894 -3.1958113 6.4637895 6.3952527 -6.2257338 6.3261065
5.859119 4.8330355 6.470176 -6.3165913 -6.4512343 6.2370486 6.3623176 -6.434113
-5.6349463 6.4925957 6.3061166 6.1969743 5.655692 -6.463247 6.1236987 -6.4966345
-6.212536 -2.697217 6.2832985 -6.5141745 6.4409943 -6.5185075

encoder.4.weight f4 [20, 30]
00000000: aaa5 b8c0 af9d b240 499b b140 7aad bc40
00000010: c603 b4c0 d992 acc0 f2c3 ac40 881f b6c0
00000020: aa03 b9c0 f0ef bac0 9251 b5c0 f636 b540
00000030: 5794 b440 a3d9 bbc0 47ee b7c0 9dfd ba40
00000040: 65b0 b640 dfe4 b9c0 8f52 b3c0 97da b1c0
00000050: aca5 b8c0 6fb1 b440 7a6b bac0 6a22 b840
00000060: 7a67 b640 33e4 ad40 2f1c aac0 feaa b640
00000070: d0fc b7c0 ad9a b340 f2ea b140 11ee c6c0
00000080: 71e6 c4c0 cfa9 b6c0 d2aa bf40 7a36 c340
00000090: b805 c1c0 ace0 c140 aa09 c140 1f29 bc40
000000a0: e421 c740 32f8 c1c0 5675 bec0 7b7b bc40
000000b0: 4f8c be40 0407 c6c0 3447 c6c0 9e66 c640
000000c0: d12e c040 d4c5 b340 d167 ba40 c4c7 bfc0
000000d0: 126d b940 14b0 c7c0 55bb c1c0 15f3 c2c0
000000e0: 3240 bd40 038f bec0 e66f bf40 9e99 c3c0
000000f0: f666 a7c0 8af7 b640 2bd6 b240 f7c7 a840
00000100: d5ed b3c0 43b9 b7c0 8147 b140 5e74 b3c0
00000110: ece8 afc0 e68b b3c0 94de b8c0 e523 b640
00000120: 36e3 ae40 290e b4c0 21aa afc0 7348 b740
00000130: 55e3 b740 7529 b5c0 932e aec0 1550 a7c0
00000140: f7e3 b1c0 1be1 b540 f3ba acc0 d0c5 b140
00000150: efd0 ae40 bdca b540 1b9f afc0 b819 b140
00000160: ab38 b5c0 e4db b540 b395 b0c0 7353 b940
00000170: 3062 b440 9d00 b540 b8c1 b8c0 ad23 aec0
00000180: 6449 b240 c57f bbc0 a90f b6c0 5644 afc0
00000190: a1ce b9c0 3276 b140 2d19 b440 ae96 b3c0
000001a0: 1ec9 b2c0 214b b140 8dce b240 eff1 b1c0
000001b0: 2d02 bac0 f5ae b7c0 8d98 b2c0 181b b740
000001c0: 9dec a8c0 493b bb40 4218 b140 c2a8 bc40
000001d0: 3f01 aec0 931b bc40 6d35 b7c0 9461 b440
000001e0: a1d4 b5c0 c353 ab40 6128 ae40 bdeb b340
000001f0: 619c aec0 c823 b1c0 ecbc b240 14f7 abc0
00000200: 8cff aac0 0b51 b4c0 aef8 b1c0 f16b aa40
00000210: 45d2 b040 0cdc b5c0 14df abc0 8d5e b140
00000220: 9a80 ab40 526b b2c0 75ad acc0 1f2c b3c0
00000230: bf11 b7c0 94c8 ad40 3976 bbc0 0470 b240
00000240: c021 ad40 01d4 a940 9727 afc0 dc58 af40
00000250: 0567 b2c0 2f85 af40 9fb7 c1c0 8a48 aa40
00000260: a450 aa40 a3f1 c040 5a7d b0c0 1216 b5c0
00000270: 6277 ab40 5537 b2c0 e005 7ac0 d962 bfc0
00000280: 6fae abc0 e5bc af40 32bc a840 74ec c4c0
00000290: 1fb5 afc0 696e b140 61bc af40 ff40 b1c0
000002a0: 17bc adc0 8b56 b8c0 316a bdc0 acb4 a940
000002b0: cd3a bdc0 35dd af40 b813 bb40 fd10 9340
000002c0: bb37 a9c0 8da1 ae40 83ca b0c0 0934 af40
000002d0: b65b bac0 b73f bb40 24fc c540 4c51 b640
000002e0: db5e c2c0 8b47 bfc0 e546 bd40 d9eb bec0
000002f0: 4de7 c6c0 ae7a b7c0 2d29 bec0 6e1d bd40
00000300: a02b c640 c7cf b9c0 8607 bac0 8e1c bc40
00000310: 5b01 c240 fe32 c6c0 cc6a c2c0 c840 b4c0
00000320: 1d0d b2c0 dc62 bd40 586e bac0 d695 be40
00000330: c1a9 ba40 4bda c140 ba27 c1c0 0fe8 c540
00000340: ae01 c0c0 dd91 be40 5570 adc0 f6c5 ac40
00000350: 8d1d ab40 f7d1 b040 f6f2 a7c0 f139 b0c0
00000360: b093 ad40 fb32 b0c0 7532 afc0 fe44 b3c0
00000370: ae2f b0c0 01f9 a840 452a b140 ca5a b0c0
00000380: 410e b1c0 cd81 ac40 94d3 ae40 8900 acc0
00000390: c09e adc0 fe0e b4c0 448e b6c0 cccd a840
000003a0: b3b5 aec0 c75c a940 d305 b540 9023 b140
000003b0: e64b b3c0 b391 b140 44b8 afc0 bb86 ac40
000003c0: a15a ac40 afe9 b4c0 1ae3 a9c0 ff01 b6c0
000003d0: 7783 b140 90be b140 606e b5c0 de0e b340
000003e0: 53b7 a440 8b88 b440 635e b440 9620 aec0
000003f0: 021c b3c0 2cf8 ae40 b6af af40 e7c3 b1c0
-5.7702227 5.5817485 5.5502057 5.8961763 -5.6254606 -5.3929257 5.398919 -5.691349
-5.7816973 -5.8417892 -5.6662073 5.662959 5.643108 -5.870317 -5.7478366 5.8434587
5.7090325 -5.8091884 -5.603828 -5.5579333 -5.7702236 5.6466594 -5.8256197 5.754201
5.7001314 5.4341063 -5.3159404 5.708373 -5.749611 5.6126313 5.55993 -6.216561
-6.15313 -5.7082286 5.989602 6.1004 -6.031948 6.058676 6.0324297 5.8800197
6.222887 -6.0615473 -5.951823 5.8900733 5.9546275 -6.1883564 -6.196192 6.2000265
6.005715 5.617899 5.825173 -5.9931355 5.7945642 -6.240244 -6.0541177 -6.092173
5.9140863 -5.9549575 5.9824095 -6.112502 -5.2313185 5.717717 5.5886436 5.27441
-5.622782 -5.741365 5.5399785 -5.607955 -5.497183 -5.6108274 -5.77717 5.6918817
5.4652357 -5.6267285 -5.4895177 5.727594 5.7465005 -5.6613107 -5.4431853 -5.2285256
-5.5590777 5.6837287 -5.397821 5.555397 5.4630046 5.6809983 -5.488172 5.5343895
-5.6631675 5.683092 -5.518274 5.7914367 5.636986 5.656325 -5.7736473 -5.441855
5.571459 -5.859347 -5.6894116 -5.477092 -5.8064733 5.545678 5.628073 -5.6121435
-5.5870504 5.540421 5.5877137 -5.560783 -5.8127656 -5.740107 -5.581122 5.7220573
-5.2788835 5.850987 5.534211 5.8956003 -5.437652 5.878366 -5.7252717 5.6369114
-5.6822057 5.353975 5.442429 5.6225266 -5.456589 -5.535618 5.5855618 -5.373911
-5.3436947 -5.634893 -5.5616064 5.3256764 5.5256677 -5.683111 -5.370981 5.542792
5.3594484 -5.5756006 -5.396174 -5.599136 -5.7209163 5.4307346 -5.8581815 5.576174
5.41037 5.3071294 -5.4735827 5.479597 -5.5750756 5.485008 -6.0536647 5.321355
5.322344 6.0294967 -5.5153017 -5.658944 5.358323 -5.5692544 -3.9066086 -5.9808164
-5.365043 5.4918084 5.272973 -6.153864 -5.4908595 5.544728 5.4917455 -5.539184
-5.42921 -5.7605643 -5.919213 5.3033047 -5.913428 5.495753 5.846157 4.595824
-5.288053 5.4572206 -5.5247207 5.475102 -5.823695 5.8515277 6.187029 5.697424
-6.074079 -5.9774833 5.914904 -5.96629 -6.215735 -5.7337255 -5.9425263 5.9098425
6.1928253 -5.8066134 -5.8134184 5.8784857 6.0626655 -6.1937246 -6.0755367 -5.632908
-5.5641007 5.918318 -5.8259697 5.9557905 5.833222 6.057897 -6.0360994 6.1845775
-6.000205 5.9553056 -5.4199624 5.399165 5.3473573 5.5256305 -5.2484083 -5.507073
5.4242783 -5.506223 -5.4749093 -5.602172 -5.5058203 5.280396 5.53641 -5.5110826
-5.53299 5.390845 5.4633274 -5.3750653 -5.4256287 -5.62683 -5.7048664 5.2751217
-5.45968 5.2925754 5.656961 5.535591 -5.603015 5.5490355 -5.4912434 5.3914466
5.386063 -5.653526 -5.3089724 -5.6877437 5.547298 5.554512 -5.6697235 5.595565
5.1473784 5.641668 5.636522 -5.441478 -5.597169 5.4677944 5.490199 -5.555164

encoder.4.bias f4 [20]
00000000: adb9 bcc0 2a46 c240 894a b8c0 782d b3c0
00000010: 1cf4 adc0 6f4f b3c0 54a9 c5c0 5aab adc0
00000020: bf9f ae40 eff6 133f 8877 9540 dee0 b6c0
00000030: a223 bbc0 53fe bd40 de9d c4c0 ccdf c0c0
00000040: b9b4 c6c0 6c33 bd40 c7f0 bbc0 55f2 bec0
-5.8976655 6.071065 -5.7590985 -5.5993004 -5.4360485 -5.6034465 -6.17692 -5.427167
5.4570003 0.57798666 4.670841 -5.7149496 -5.8480997 5.9372954 -6.144271 -6.027319
-6.209561 5.912527 -5.873142 -5.9670815

decoder.0.weight f4 [30, 20]
00000000: 541b c9c0 bec2 c240 d563 b9c0 be78 c5c0
00000010: c2a9 c1c0 642a c2c0 4f7e cbc0 e62c cbc0
00000020: 9fe4 bf40 b0a0 c4c0 7c7a c340 2335 1940
00000030: 60dc c9c0 3645 c240 e989 c2c0 ebde bcc0
00000040: f922 cac0 ad36 c940 516d c3c0 0c97 bec0
00000050: c59e bcc0 34d6 c340 85eb be40 070c bd40
00000060: ad26 bb40 a7dc bd40 2996 bfc0 7e4b b940
00000070: 4157 b1c0 8968 bb40 9a8b b5c0 0d5e b7c0
00000080: 1e4b 5e40 a1e3 b2c0 c700 c6c0 ef6d bcc0
00000090: f718 bbc0 ee90 be40 940c c2c0 c570 c3c0
000000a0: 729c b940 4ee7 c6c0 0c4e bd40 bae4 4440
000000b0: bd80 c8c0 734f c1c0 a4cb bd40 9e22 bdc0
000000c0: db90 c540 1fcb bdc0 5fba c1c0 5a9f ba40
000000d0: 63d9 c340 37da bf40 c266 be40 df63 bd40
000000e0: 4160 c740 f596 bec0 0d31 c740 c54c bd40
000000f0: aa50 bec0 fa5e c240 4b38 c5c0 6f10 cf3f
00000100: 69c8 c140 4201 c040 f967 bec0 c186 c840
00000110: cbd1 c3c0 0a17 bd40 d182 b640 040e c1c0
00000120: 8112 bdc0 19db c6c0 9fd0 c2c0 87d2 c2c0
00000130: c777 b9c0 248a bd40 1c2e bdc0 bf0f c9c0
00000140: da49 a340 817a c940 4e5a b240 3d07 aa40
00000150: 7d40 ab40 7a6f b040 71b6 cbc0 b78a a840
00000160: c84f b0c0 a6e0 ac40 2451 a6c0 c4c4 b340
00000170: 2f95 a840 55a5 c740 103f c0c0 2b45 cbc0
00000180: fe73 c9c0 9794 c940 85fb c1c0 ee07 aa40
00000190: fe07 d040 e9e3 c9c0 3234 ccc0 653d cf40
000001a0: 2b37 4540 0e2c ce40 ebe3 c840 f919 cc40
000001b0: 3b80 cec0 1d9c 43be 02d9 c8c0 eecf cb40
000001c0: 6a27 c840 8738 d2c0 2506 d140 b07b d040
000001d0: 7f28 ca40 1da7 cec0 3d3e d140 622a c5c0
000001e0: 6188 bdc0 a961 c740 a1d4 c3c0 351c 09c0
000001f0: 2210 be40 71d3 c340 2678 bec0 077c c640
00000200: ba9a 36c0 2a91 c840 579f ba40 9a72 bcc0
00000210: 6390 bac0 37a6 c1c0 46a0 c1c0 be88 c7c0
00000220: d031 c0c0 2238 c440 3689 9ac0 4f26 c0c0
00000230: b23a 243f 9d15 c640 1be9 a940 f3fd aa40
00000240: 4066 ae40 36d1 b140 8b45 c0c0 2c9a ad40
00000250: 0224 afc0 8889 ac40 82cf a8c0 f32d c240
00000260: e177 0940 4d99 c340 cf63 c5c0 12b0 c9c0
00000270: cedb c0c0 e93a c140 81f8 c0c0 95ea a540
00000280: 0d9c c2c0 bca1 bf40 54ea bfc0 112b c2c0
00000290: d4c2 c340 c8c9 c640 56ac c1c0 d46f c540
000002a0: 1f03 a0bf b915 c540 92c3 bc40 d91b c4c0
000002b0: ec9c bec0 d2c6 c1c0 3f57 c2c0 10ce bac0
000002c0: a309 c5c0 caf0 bf40 6a5f bac0 d258 bcc0
000002d0: ab3b a6c0 f53d c2c0 c2da b3c0 5df6 adc0
000002e0: 57e5 a2c0 fdb2 adc0 7b3f c240 e4c0 a9c0
000002f0: dec7 a640 e49b aec0 f122 a740 a919 c9c0
00000300: 4337 a9c0 a1c2 c8c0 c1a2 cf40 b94f c940
00000310: 5c22 cd40 5759 c8c0 7a55 c440 5270 c5c0
00000320: 0b84 cb40 ca95 a540 adeb b640 892e cc40
00000330: 02f8 cb40 edcb c840 a345 a7c0 28bb cd40
00000340: 4c58 cbc0 bbfb be40 7502 c6c0 17e1 4440
00000350: e1ac c740 944f 9d40 ef1f abc0 33b1 a7c0
00000360: 64a1 a7c0 aefe a840 0798 a5c0 9101 ac40
00000370: d8e7 d040 b1a4 c5c0 4eca cbc0 9755 c940
00000380: 0940 ca40 0ab4 ce40 0fa9 c940 be39 cc40
00000390: 75a5 d1c0 9529 aa40 b7da d0c0 6418 8fc0
000003a0: e03d d140 e89d cdc0 142d d240 70c1 c440
000003b0: 3ae1 ce40 30b6 c5c0 535d d040 7318 cac0
000003c0: 4b10 c540 0881 cac0 e891 bb40 1fb7 c040
000003d0: 2a84 bdc0 2161 bdc0 6e4f c240 d20b bbc0
000003e0: 0dd6 aa40 d738 c2c0 205e bec0 9698 b940
000003f0: 7844 c240 1d68 b640 ee9e c440 7a6c c040
-6.284586 6.0862722 -5.7934365 -6.170989 -6.0519724 -6.0676746 -6.3591685 -6.349231
5.996658 -6.144615 6.1087017 2.3938682 -6.3081512 6.0709486 -6.0793347 -5.9022117
-6.316769 6.2879243 -6.1070943 -5.9559383 -5.894381 6.119898 5.96625 5.907718
5.848471 5.933185 -5.98708 5.7904654 -5.541901 5.8565106 -5.673291 -5.730231
3.4733348 -5.5902867 -6.187595 -5.8884196 -5.8467975 5.9551916 -6.0640354 -6.107516
5.8003473 -6.2157354 5.915777 3.0764604 -6.265715 -6.0409484 5.9311085 -5.9104757
6.1739326 -5.931045 -6.0540004 5.831952 6.1202865 5.9953876 5.9500437 5.9184413
6.2304997 -5.9559274 6.2247376 5.9156213 -5.9473467 6.074094 -6.1631217 1.617689
6.055714 6.0001535 -5.950192 6.2664495 -6.1193595 5.9090624 5.703469 -6.032961
-5.908509 -6.2142453 -6.0879664 -6.088199 -5.7958713 5.923113 -5.9118786 -6.283172
5.102765 6.296204 5.5735235 5.3133836 5.351622 5.513608 -6.3660207 5.266933
-5.509739 5.402423 -5.197405 5.6177692 5.268211 6.238932 -6.007698 -6.3521934
-6.295409 6.2993884 -6.061953 5.313468 6.5009756 -6.309071 -6.3813715 6.4762444
3.0814922 6.442878 6.277822 6.3781705 -6.453153 -0.19102521 -6.27649 6.369132
6.2548113 -6.5694003 6.532 6.5150986 6.3174434 -6.4578996 6.5388474 -6.1614237
-5.922898 6.2306714 -6.1197057 -2.1423466 5.9394693 6.1195607 -5.9521666 6.20264
-2.8531938 6.26772 5.8319507 -5.8889894 -5.8301253 -6.05154 -6.0508146 -6.235442
-6.0060806 6.131852 -4.8292494 -6.0046763 0.6415206 6.1901383 5.3097053 5.3434997
5.4499817 5.5567884 -6.008489 5.42507 -5.4731455 5.3917885 -5.2753305 6.068109
2.1479418 6.1124635 -6.1684337 -6.302743 -6.0268316 6.038441 -6.030335 5.1848855
-6.081549 5.988493 -5.9973545 -6.067757 6.1175327 6.2121315 -6.052287 6.169901
-1.2500952 6.1589017 5.8988733 -6.1283994 -5.9566555 -6.05552 -6.07315 -5.837654
-6.1574264 5.998143 -5.824147 -5.8858423 -5.1947837 -6.070063 -5.620454 -5.4363236
-5.0904956 -5.428099 6.070249 -5.304796 5.211898 -5.4565296 5.2230153 -6.2843823
-5.287996 -6.2737584 6.4886174 6.290982 6.4104443 -6.2609057 6.135434 -6.169961
6.3598685 5.174535 5.716269 6.3806806 6.3740244 6.2748933 -5.2272506 6.429096
-6.3545284 5.968229 -6.1878 3.0762384 6.2398534 4.915964 -5.347648 -5.240381
-5.238451 5.281089 -5.174808 5.375191 6.5283012 -6.176354 -6.3684454 6.291698
6.320317 6.4594774 6.301887 6.3820486 -6.5514474 5.317576 -6.5266986 -4.4717274
6.538803 -6.4255257 6.5680027 6.148613 6.4649935 -6.1784897 6.511392 -6.3154845
6.158239 -6.328251 5.861561 6.0223536 -5.9223833 -5.9181066 6.072196 -5.845193
5.3386292 -6.0694385 -5.94899 5.799876 6.070858 5.700209 6.1444006 6.013242

decoder.0.bias f4 [30]
00000000: 2bae be40 9324 c540 fb35 c6c0 136d b840
00000010: 5398 c740 0efb d0c0 5d43 c540 9ee5 c340
00000020: 4792 be40 3efb c9c0 dee3 9d40 6fee c6c0
00000030: 8b9a cbc0 a8d5 c840 582e cd40 15a7 cac0
00000040: 155b c340 d395 cfc0 3177 c440 8312 c840
00000050: 06ab d0c0 36bc a140 6be2 ca40 55b4 b040
00000060: 42fc c840 a00c cd40 d9b0 d140 6279 bfc0
00000070: 3aba cbc0 717d cac0
5.9587607 6.1607146 -6.1940894 5.7633147 6.2373443 -6.5306463 6.164473 6.1217794
5.955356 -6.311919 4.934066 -6.2166057 -6.362615 6.276081 6.411907 -6.3328958
6.1048684 -6.487039 6.1395497 6.2522597 -6.520877 5.054225 6.340139 5.522013
6.280793 6.407791 6.552838 -5.983567 -6.3664827 -6.3278127

decoder.2.weight f4 [40, 30]
00000000: d908 edbf 0a54 a4c0 e7a6 1ac0 1b63 c640
00000010: 1692 aec0 e1a7 9d40 def9 8fc0 9773 0dc0
00000020: 7e33 d6bf 48f8 aa40 b385 9d40 b58d a440
00000030: f240 95c0 e65f a3c0 61c8 87c0 109d b340
00000040: 3274 aac0 985e ad40 a3bc acc0 c9f0 a5c0
00000050: 5f4e 9f40 dfe7 bbc0 6cec 4cc0 acec a240
00000060: bbf5 b6c0 2fac a1c0 a9c2 a8c0 fb93 c440
00000070: 9519 a840 6352 b640 fbc3 bf40 f634 be40
00000080: 26ca b9c0 b037 c240 0a6f b940 42e6 c2c0
00000090: 7aee bd40 7f75 c040 c311 b740 5881 b8c0
000000a0: 57cc c1c0 1673 bbc0 b6b6 b9c0 35c0 bb40
000000b0: 715c c340 5d16 bac0 c6ae b940 bc99 bac0
000000c0: ade0 bd40 6b92 b740 714d b8c0 93bb ba40
000000d0: 2e57 ba40 94a6 89c0 17e2 b340 1011 bd40
000000e0: b877 c040 6b3f bb40 9d03 bcc0 a2f0 bac0
000000f0: 6924 c140 08b7 bd40 550a bc40 6660 adc0
00000100: 1696 c040 19a2 c7c0 b6ae bfc0 61e5 c340
00000110: 1f82 bac0 adb6 bbc0 18b0 c5c0 ff60 c0c0
00000120: 7bac b340 c43c c540 64f2 ad40 16db 8dc0
00000130: e737 bf40 75d7 c4c0 cf06 ba40 31ff bc40
00000140: 5e85 c8c0 544a bdc0 99b0 bd40 1f44 bdc0
00000150: e6d8 f73f b8f4 c140 22c1 c240 f6e3 c4c0
00000160: c8a8 bec0 0f49 c3c0 960e b9c0 1804 b2c0
00000170: 5d90 b840 3773 c1c0 4aa4 b6c0 6747 bb40
00000180: cb6a bac0 2fd8 bcc0 9dbb bbc0 4a17 be40
00000190: 9526 c440 baaa ba40 34b6 c040 2776 bcc0
000001a0: d017 c0c0 b136 b540 0e10 b4c0 dafc bc40
000001b0: d17e bec0 93b5 b8c0 f49e bc40 28be bec0
000001c0: 22ef c0c0 f509 ae40 2b74 b5c0 e3dd b9c0
000001d0: a7d9 c1c0 8dad b8c0 7d9d b640 e28a bd40
000001e0: 0bb5 c540 ae55 c040 8d57 bd40 c57b bfc0
000001f0: d2a8 c240 8660 cac0 4459 c3c0 30bd c340
00000200: eb1c bac0 ac57 c0c0 2373 c7c0 d2d4 c7c0
00000210: 25a7 be40 7d53 c840 13cd ba40 28ff cbc0
00000220: ab1f c440 e314 c7c0 80d9 c940 59d9 c340
00000230: 2585 cdc0 31df c4c0 216a c240 d22d c4c0
00000240: bd76 cc40 5feb c340 bcf0 cc40 c515 c3c0
00000250: feb7 c3c0 daf4 c5c0 d510 87c0 a1c4 a7c0
00000260: 539e c0c0 abb3 be40 79cd 9ec0 b49b 9c40
00000270: 9be3 f5bf b5f4 71c0 34b0 3540 ddc7 a040
00000280: 26f3 a140 e8aa a540 fac3 bdc0 6478 a7c0
00000290: b567 a0c0 e230 b540 c401 9fc0 528c 9d40
000002a0: 595f aec0 f3ba 9cc0 2901 9f40 4136 b0c0
000002b0: f3f5 7bc0 30a6 9d40 9d73 b3c0 b3b8 a5c0
000002c0: 1bdb 9bc0 ce55 be40 fe86 9840 aa06 a840
000002d0: 6c45 b940 2b47 bd40 e7d5 c1c0 dbd7 bd40
000002e0: 8969 b940 feef c0c0 e3b6 b540 3d9b bf40
000002f0: d7b6 bb40 c25f b5c0 1214 c1c0 0ae0 bdc0
00000300: 1b36 bec0 d2b2 bd40 8b8a b940 1964 bbc0
00000310: 87ec bd40 39cd b8c0 fd5d b540 a025 bd40
00000320: 2f89 bac0 e4f0 be40 8773 c040 2dd3 b7c0
00000330: 8f56 bd40 ac7f bb40 2a78 b940 1310 ba40
00000340: 8391 bac0 c766 bac0 e65d 41bf f3d7 dc3f
00000350: 93a4 32c0 ad27 bdc0 0920 c940 ffe4 c2c0
00000360: 59af c340 b8ac adbf db05 c040 0531 c1c0
00000370: 9151 bdc0 f2de c8c0 f839 77c0 1fbf c540
00000380: 6429 753f f960 c1c0 df43 c340 ad29 c6c0
00000390: 03a3 c340 4eca c140 f8c4 c4c0 6fa1 bf40
000003a0: 46f0 bcbf 7dfc c2c0 af41 bf40 1ae4 bb40
000003b0: a59f c540 31d5 c4c0 78ef bdc0 a1be bec0
000003c0: 4b9d adc0 c713 94c0 5f69 b140 d9f5 b5c0
000003d0: 6f2f b5c0 e08f a940 63b5 aac0 8f4b bec0
000003e0: eaec b0c0 661a b440 b82d bd40 0264 a840
000003f0: 11eb b440 ed2d a3c0 75f3 a6c0 6322 9540
-1.8518325 -5.1352587 -2.416437 6.199598 -5.4553328 4.926743 -4.4992514 -2.21018
-1.6734464 5.342808 4.9225707 5.142298 -4.664178 -5.1054564 -4.2432103 5.6129227
-5.326684 5.417797 -5.398027 -5.1856427 4.978317 -5.8720546 -3.20193 5.0913906
-5.7174964 -5.0522685 -5.273762 6.143064 5.253123 5.697557 5.9926734 5.943965
-5.8059263 6.069298 5.7948046 -6.0906076 5.935361 6.014343 5.720918 -5.765789
-6.056194 -5.8577986 -5.8035536 5.867213 6.1050344 -5.81523 5.8025846 -5.8312664
5.9336762 5.7366233 -5.7594533 5.8353972 5.823142 -4.3015842 5.621349 5.908333
6.014614 5.8514915 -5.875441 -5.841874 6.0356946 5.9285927 5.876261 -5.4180174
6.018321 -6.2385373 -5.990077 6.1217504 -5.828384 -5.8660493 -6.177746 -6.0118403
5.6148047 6.1636677 5.4358387 -4.432994 5.975574 -6.151301 5.813331 5.9061513
-6.26628 -5.9153233 5.9278073 -5.9145656 1.9363067 6.061123 6.086076 -6.1528273
-5.958103 -6.1026683 -5.7830305 -5.5629997 5.7676225 -6.0453143 -5.707555 5.852466
-5.8255363 -5.9013896 -5.866652 5.940343 6.1297097 5.8333406 6.0222416 -5.889423
-6.002907 5.662926 -5.62696 5.9058657 -5.9529805 -5.772165 5.8944035 -5.9607124
-6.029191 5.4387155 -5.6704307 -5.808336 -6.057819 -5.7711854 5.7067246 5.9232035
6.17835 6.010459 5.9169374 -5.9838586 6.083108 -6.3242826 -6.1046467 6.116844
-5.81603 -6.010702 -6.232805 -6.244729 5.9579034 6.2601914 5.8375335 -6.374897
6.1288657 -6.2212996 6.3078003 6.1202817 -6.422503 -6.152245 6.075455 -6.1305933
6.3894944 6.122482 6.4043865 -6.0964074 -6.11621 -6.186139 -4.2208047 -5.2427526
-6.0193267 5.959432 -4.962582 4.8940067 -1.9210085 -3.7805607 2.8388796 5.0243974
5.060931 5.1771126 -5.930173 -5.233446 -5.0126595 5.662217 -4.9689655 4.923379
-5.449139 -4.897821 4.9688916 -5.506623 -3.9368865 4.9265366 -5.607863 -5.1787963
-4.8704963 5.947974 4.7664785 5.2508135 5.7897243 5.9149375 -6.057361 5.9325995
5.7941327 -6.029296 5.678575 5.9877 5.8660693 -5.667939 -6.0337 -5.9335985
-5.9441047 5.9280787 5.798162 -5.855969 5.935123 -5.7750516 5.667723 5.910843
-5.829246 5.9669056 6.0141025 -5.7445283 5.916816 5.859335 5.7959185 5.814462
-5.8302627 -5.825046 -0.755339 1.7253402 -2.7912948 -5.911093 6.2851605 -6.0904536
6.1151547 -1.3568335 6.000715 -6.037234 -5.916207 -6.277215 -3.8629131 6.17958
0.9576628 -6.0430875 6.102035 -6.1925874 6.113649 6.0559454 -6.149044 5.9884562
-1.4760826 -6.0933213 5.976768 5.8715944 6.175738 -6.1510243 -5.935482 -5.96077
-5.425451 -4.627414 5.5441127 -5.6862607 -5.66204 5.298813 -5.334642 -5.9467235
-5.52892 5.6282225 5.911831 5.262208 5.6536946 -5.099356 -5.217219 4.6604476

decoder.2.bias f4 [40]
00000000: a1fe 97c0 adc8 bf40 b3b2 c140 cffc bfc0
00000010: 7d1b cf40 593d a1c0 c471 ba40 61b8 bc40
00000020: bf12 afc0 e607 bc40 bacc c140 317d d040
00000030: 0f03 b540 04e1 23c0 6bd4 b0bf 35f7 bc40
00000040: 5b85 c640 920b c9c0 dae5 bf40 1597 b840
00000050: e275 d0c0 9611 cdc0 7170 bd40 adc0 c940
00000060: 2384 cd40 9d6c b8c0 8ff2 cc40 511f c6c0
00000070: 1155 82c0 ee01 bf40 29d4 cf40 5d46 b040
00000080: 5047 bdc0 e6c2 d140 cd95 c840 4e73 cc40
00000090: 562c abc0 18ed b840 da1c d43f 97a5 bdc0
-4.7498326 5.9932466 6.053064 -5.9996104 6.4721055 -5.0387387 5.8263874 5.897507
-5.4710383 5.875964 6.056241 6.515282 5.6566234 -2.5606089 -1.3814825 5.9051766
6.2037787 -6.2826624 5.996808 5.7684426 -6.51439 -6.4083967 5.9199758 6.30477
6.42238 -5.7632585 6.404609 -6.191323 -4.072884 5.9689856 6.4946485 5.5085893
-5.914955 6.5550413 6.268286 6.3890753 -5.349162 5.778942 1.6571305 -5.9264636

decoder.4.weight f4 [50, 40]
00000000: fa35 503d 2b6d c43d a6ed e9bd 07a0 19be
00000010: ba37 fe3d 36d6 193e 19f1 953c 3526 80be
00000020: 361f 80be b48b 46be 4c7c 133e 0a81 2dbe
00000030: c736 8b3e 66d1 adbe 66c8 ec3f eb6e ccbd
00000040: a4cd 81be a0e9 96be a965 8d3e 0242 25bd
00000050: d6c9 06be 154d 91be 0aeb fb3e c201 263e
00000060: 17f5 a5bd 4ea5 0dbe 5e4d 42bc 86e0 2fbe
00000070: ba61 2d3e de9a 9abe 6c5e 08be fb1e 213e
00000080: 57d6 8a3e a459 1ebe 8868 1fbe ae18 393e
00000090: 099a 16be 25de 66be c40c 37be 2ccb a7be
000000a0: aa4e 80be 464d af3d 5b96 933c 3f95 0cbe
000000b0: ed71 15be 713a 363d 31d2 a83e dcdf 9dbc
000000c0: 5f56 e1bc 45d7 8abb fb33 163c 4644 b7be
000000d0: 6123 10be 80d2 c63c 44e2 90bf 96d9 203e
000000e0: 2e5d ef3e 1368 993e bd57 3c3d 3d15 7b3e
000000f0: b520 ac3e 893c d83e 6377 823e 2af6 9ebe
00000100: e5aa acbe e892 c3bd e0be 0bbf ad9f 923e
00000110: 455b 4cbe 0447 8e3d c2a1 10bf a5d1 3f3e
00000120: fd12 b3be 4801 a4be 283e 08bf 737e f2be
00000130: 83af b6be 664d ab3d 44ec a03d ca28 00bf
00000140: 022b 683e 4694 d13d 5ba5 f33d 6430 c4be
00000150: 32a4 39be 61d2 ad3d 362d b23e 88e5 abbd
00000160: 50fd fabe 31e7 3b3d c5e7 023f 883a d1be
00000170: 3125 9a3e 6dde 08be d955 d93f 42e2 193e
00000180: c2ec 1a3d fc54 8a3d a146 913e 28e7 683e
00000190: f664 823e 0ffa 963d 8bbb d63d aa9a c1be
000001a0: 9855 03be 3a84 d0bd dcb1 9dbe d158 2c3c
000001b0: d82f c5bd aaf0 d9bd 0e22 1cbe ca16 ed3d
000001c0: aa1f 0c3e 28d8 b0be 92fc 29be 7b8d 47be
000001d0: f176 37be ee5c 743e 9dc2 b4bc 5a36 b3be
000001e0: 6899 083e 347e ab3e 4e01 1cbe 7994 003e
000001f0: 992a 23be 594b 2a3a 3b14 043e 8894 08be
00000200: 2ec0 89be 51bb 393e 577e b93e 5ba9 54be
00000210: be35 a73e ef18 18bf b362 fa3f 671c 1a3e
00000220: e1ba e9be 902d 7f3d b337 643e a468 9dbd
00000230: 9b48 1d3e dadc ec3d b7dc fd3c 0371 9bbe
00000240: 5db5 30be 4043 f63c fe87 adbd d5db 783e
00000250: ca28 ee3d a884 0abe a179 85be 23e5 d3bb
00000260: c962 af3e 480b 94be 7e89 bdbe 6f1e 1abe
00000270: 885a 013c 003b ba3e 26ac efbe 5286 95bc
00000280: 7e4d 9c3d b81a 213e f5ce 2bbc 6011 5dbe
00000290: 2ee1 a6be aea7 213e 20ad 8d3e 6226 223d
000002a0: 19ac a9be 6358 00be 12db 1a3e b579 cabe
000002b0: a4cb 373e d137 a83c fa1c fcbe 2329 dbbc
000002c0: 3060 873e cc39 423e b688 fc3c 04de cb3d
000002d0: 06b5 6f3e 647e 553e 8cfd fd3d 5634 6fbe
000002e0: f1aa fdbe 6606 a73d ef8e e9be aaf4 813e
000002f0: be33 13be a474 1e3d 4e8a cdbe c6c4 1e3e
00000300: 0c1e fdbd 094d 8abe 31e4 d5be d9b2 16be
00000310: 3d0a acbe e1af a73e 44a1 203d 98df 8cbe
00000320: f37f 433e a2a5 02bd 2bfb 11be 2211 79be
00000330: 9f54 a53e a834 5e3e 6ed5 2ebe 313c 13bc
00000340: 3cfc bf3d ad85 1fbe 32c4 d5bd 9b4d aebc
00000350: b8d6 d13d 8f2f 06bf 205d 813f a4fb ee3d
00000360: a92f 51be 1c4b bcbd 1734 e33e 8af6 5d3d
00000370: 5b9e 6bbc 88b6 e7bd d4f9 913e cd89 bf3c
00000380: 9acf 1ebd 0aaa 61be e0a6 593e f1bc 2bbe
00000390: c317 643e 6bfe 7cbe a4c3 863d 7ac7 c43d
000003a0: 79cf 4d3e a82e 1fbc 24cb 83bd 5e57 253e
000003b0: ce0c aebc b2c7 d1be 0a9e 48be 091d aabe
000003c0: 095d f6bd ebdf 80bc b23e c0bd bfd6 52be
000003d0: e858 d9bd e0c5 cc3d 8acb 2f3e 72a7 da3d
000003e0: 4fd2 d3be f596 91be 9462 a63e aa18 6ebe
000003f0: d0c1 0fbd 152d 063e e015 d73f c174 f93d
0.050832726 0.09591135 -0.11422281 -0.15002452 0.12412973 0.15023121 0.01830344 -0.2502915
-0.25023812 -0.1938923 0.14402884 -0.16943756 0.2719023 -0.3394882 1.8498657 -0.099820934
-0.25352204 -0.29475117 0.27616623 -0.040346153 -0.13162932 -0.2837912 0.49202758 0.16211608
-0.08103388 -0.1383259 -0.011859266 -0.17175493 0.16931811 -0.3019628 -0.13317269 0.15734474
0.27116653 -0.15463883 -0.1556722 0.18075821 -0.14707197 -0.22545679 -0.17875963 -0.32772195
-0.25060016 0.085596606 0.018016031 -0.13728808 -0.1459424 0.044489328 0.32972863 -0.019271784
-0.027507005 -0.004237088 0.009167667 -0.35794276 -0.14075996 0.024270296 -1.1319051 0.15708002
0.46750778 0.29962215 0.04598211 0.2451982 0.33618703 0.42233685 0.2548171 -0.31047183
-0.33724132 -0.095495045 -0.5458813 0.28637448 -0.19956692 0.06947139 -0.5649682 0.18732317
-0.34975424 -0.32032228 -0.5321984 -0.47362098 -0.3568078 0.08364372 0.07857564 -0.5006224
0.22672656 0.10233359 0.118967734 -0.3831817 -0.18129042 0.08487392 0.34800118 -0.08393389
-0.49021387 0.04587478 0.511349 -0.40864968 0.301065 -0.13366099 1.6979324 0.15027717
0.037823446 0.06754491 0.28374198 0.22744429 0.25467652 0.07371914 0.1048499 -0.37813312
-0.1282562 -0.1018147 -0.30799758 0.010519222 -0.09628266 -0.10641606 -0.15247366 0.11576612
0.13683954 -0.34539914 -0.16600254 -0.19487564 -0.17916466 0.23863575 -0.022065455 -0.35002404
0.1333977 0.33494723 -0.15234873 0.12556638 -0.15934218 0.0006496213 0.12898342 -0.1333791
-0.26904434 0.18137862 0.36229202 -0.20767729 0.3265819 -0.59413046 1.9561371 0.15049897
-0.4565039 0.06229931 0.22286873 -0.07685974 0.15359728 0.115655616 0.030989034 -0.3035966
-0.17256685 0.030061364 -0.08473204 0.2430261 0.11628874 -0.13527167 -0.26069358 -0.006466524
0.34255055 -0.28914857 -0.3701896 -0.15050672 0.0078951195 0.36373138 -0.46811026 -0.018252525
0.07631968 0.15732849 -0.010486354 -0.2158866 -0.32593673 0.15786621 0.27671146 0.039587386
-0.33139113 -0.12533717 0.15122631 -0.3954598 0.17948776 0.020534428 -0.49240857 -0.026753014
0.26440573 0.1896736 0.030826908 0.099544555 0.23408899 0.20848995 0.12401876 -0.23359808
-0.4954448 0.08155517 -0.45616862 0.25381976 -0.14375207 0.038685456 -0.4014458 0.1550475
-0.123592466 -0.27011898 -0.4177566 -0.14716662 -0.3360156 0.32751372 0.039216295 -0.27514338
0.19091778 -0.03189624 -0.14255969 -0.24322942 0.32291123 0.21699774 -0.17073604 -0.008986519
0.09374282 -0.15578337 -0.10437812 -0.02127724 0.102460325 -0.5241632 1.0106544 0.116690904
-0.20428337 -0.091940135 0.4437568 0.054190196 -0.014381017 -0.11314112 0.28510916 0.023381138
-0.038772203 -0.22037521 0.21255064 -0.16771294 0.2227469 -0.24706428 0.06580284 0.0960836
0.20098676 -0.009715714 -0.064352304 0.16146609 -0.02124634 -0.40972668 -0.19591537 -0.33225277
-0.12029464 -0.015731772 -0.09386958 -0.20589732 -0.10612661 0.09998679 0.17167488 0.10676469
-0.4137139 -0.28435484 0.32497084 -0.23251596 -0.035096943 0.13103135 1.6803551 0.12180472

decoder.4.bias f4 [50]
00000000: 3652 a7be 00a3 18bf ac00 9fbe 5b51 b2be
00000010: a73f d2be 6e49 84be e77a 2dbe 4543 7ebe
00000020: 190d 18be 2aad e5be 1009 cdbe 106d f9bd
00000030: e2e3 b2bd 0608 43be ce7d 2abe 9b57 88be
00000040: 1700 2f3d a736 76be 3041 aeba 89e5 143d
00000050: d817 fd3d e9de e3bc c398 38bd 9629 e6bd
00000060: ccc1 01bf b21a 2ebe da9e c1bd cfc3 83be
00000070: 60c6 9cbe 1dbb 09bf cd61 babe a573 cabe
00000080: 46a1 06bf 2421 c6bd 233c bcbe c614 72be
00000090: 4c4f 9bbe 382f 84be 99b6 71be b6a9 1ebf
000000a0: f45f 3bbe 162d 7fbe 99b7 19be e322 0bbf
000000b0: cfe6 6dbe 1fb6 e9be 0f32 bbbe cd68 95be
000000c0: f3dd 27be f760 d6be
-0.3267991 -0.5962372 -0.310552 -0.34827694 -0.41064188 -0.25837272 -0.16941415 -0.24830349
-0.14848746 -0.44858676 -0.40045977 -0.12179005 -0.087348714 -0.1904603 -0.16649553 -0.26629338
0.042724695 -0.24044286 -0.0013294574 0.036351714 0.123580635 -0.027816253 -0.04506756 -0.11238401
-0.50686336 -0.17002371 -0.09454127 -0.25735328 -0.30620098 -0.5380114 -0.3640274 -0.39541355
-0.52589834 -0.0967429 -0.3676463 -0.23640737 -0.30333936 -0.25817275 -0.23604812 -0.6197771
-0.18298322 -0.24919543 -0.15011443 -0.5435011 -0.23232578 -0.4564676 -0.3656163 -0.2918152
-0.1639326 -0.41870853
