autoencoder_model/autoencoder_model_1.pt (torch, 34751 bytes, 10 tensors)

enc_linear1.weight f4 [40, 50]
0.8817542 0.9872318 0.9470528 0.9772596 0.8900475 1.0717299 0.90153545 1.0192956
1.0641388 0.9673093 1.0952237 1.0328162 1.0699608 1.1177428 0.95254904 1.0795394
0.9669576 1.0593091 0.9221321 -0.95939547 0.028630093 -1.070253 -1.0798371 -0.97388166
1.1598259 1.0957446 1.0142206 1.0210122 1.0953612 0.9166902 1.0619944 0.9681185
1.0968027 0.9645311 1.0219721 1.0627344 1.112168 0.9941924 1.1439965 0.89533
1.0008554 0.8850597 1.0266945 1.0551116 0.9577308 1.0737145 0.99205333 0.8920855
1.1235528 1.1021743 1.0834894 1.124793 1.0639901 1.087178 1.1293428 0.9834914
0.90169 0.94243526 0.99310684 0.99644506 1.0110273 1.0930306 1.0451648 0.9074195
0.9695017 0.6133066 0.7326472 0.9606807 0.9415533 -1.0341861 -0.035973497 -1.0462067
-1.1502012 -0.8858246 1.0038846 0.8616986 0.8403797 0.93353724 1.0925641 0.9104954
0.95857334 1.0711396 0.9207665 0.9962381 0.9053397 1.1431574 1.0882176 0.8812658
0.93390465 1.062118 0.96747094 0.9971984 0.8962913 0.9362626 1.0761542 0.9041512
0.98232114 1.074177 1.0853857 1.0207797 0.040996775 0.062909916 -0.016521499 -0.038640723
0.10799745 0.13786049 0.06550658 -0.061820224 -0.12301452 -0.13958514 0.0009783357 -0.05426061
-0.035587825 -0.019887209 0.13374396 0.13404997 -0.013222337 -0.042466104 0.06867942 -0.011284992
-0.13456385 0.04609877 0.13539036 -0.11210088 -0.030543298 0.030669391 -0.11516072 -0.1210794
0.105575785 -0.050076663 0.08249496 0.012642741 0.03450501 -0.09425206 -0.030203834 0.09328875
0.064864755 -0.040888496 0.017397493 0.10827477 -0.12391302 0.090841755 -0.04250279 -0.028770164
0.06729676 -0.11748701 -0.021364473 0.13514541 0.050898626 -0.052293234 0.97820413 1.1205387
1.0624403 1.104876 0.91794026 1.0497825 1.0342901 1.0336617 1.1403272 1.087297
1.1064924 1.0711069 -0.94957185 0.98440945 0.88419247 0.8895458 0.92092776 0.9174464
-0.94243157 -0.96509707 -0.04032489 -0.73838013 -0.8697101 -0.90266323 1.0762676 1.148994
0.93371475 0.92847204 0.92622876 1.0021617 0.88417053 1.1209652 1.0126464 1.0794374
0.93134403 0.99443924 1.0276102 0.97030103 1.1424978 0.9443966 1.052921 0.9130529
0.99226964 0.9714898 1.0700275 1.1077989 1.0434049 0.9961684 0.9727951 1.1198888
-0.69849735 -0.5629866 -0.72800386 -0.54852617 -0.524226 -0.5681387 0.30033302 0.27185872
-0.73461753 -0.66339326 -0.6163852 -0.70203435 0.7736751 -0.053153295 -0.79611266 0.039447837
0.08354844 -0.64782983 0.7026166 0.06720165 -0.0336302 -0.55181307 0.96518534 1.0421917
0.03885003 0.24773097 0.1585701 0.26321033 -0.79470634 -0.8004513 -0.61710185 -0.79701185
-0.7809756 -0.59317064 -0.59643096 -0.79394734 -0.5633173 -0.69257987 -0.56008714 -0.74807376
-0.097115405 -0.05639237 -0.6870052 -0.8063221 -0.67471665 -0.7356621 -0.6979972 -0.6651011
-0.65714395 -0.80341697 0.07274379 -0.08667675 0.08618587 0.12958767 -0.04716278 0.015872285
00000000: a5ba 613f 39bb 7c3f 0d72 723f af2d 7a3f
00000010: 27da 633f 722e 893f 07cb 663f 4778 823f
00000020: b335 883f 95a1 773f 4a30 8c3f 5233 843f
00000030: 7af4 883f 3212 8f3f 41da 733f 592e 8a3f
00000040: 898a 773f 7197 873f d910 6c3f f19a 75bf
00000050: a889 ea3c 0dfe 88bf 1a38 8abf 4f50 79bf
00000060: 2d75 943f 5c41 8c3f fbd1 813f 87b0 823f
00000070: cc34 8c3f 35ac 6a3f 6fef 873f 9dd6 773f
00000080: 0864 8c3f 83eb 763f fbcf 823f ae07 883f
00000090: 855b 8e3f 6583 7e3f 7a6e 923f 5934 653f
000000a0: 081c 803f 4693 623f ba6a 833f e60d 873f
000000b0: d92d 753f 7a6f 893f 35f7 7d3f b75f 643f
000000c0: 94d0 8f3f 0c14 8d3f c8af 8a3f 38f9 8f3f
000000d0: d430 883f a628 8b3f 4e8e 903f 18c6 7b3f
000000e0: 28d5 663f 7043 713f 403c 7e3f 0617 7f3f
000000f0: 5869 813f 6de8 8b3f f6c7 853f a54c 683f
00000100: 4331 783f a901 1d3f c48e 3b3f 2cef 753f
00000110: a309 713f 3660 84bf f258 13bd 1aea 85bf
00000120: cb39 93bf 67c5 62bf 4a7f 803f 4898 5c3f
00000130: 2023 573f 4cfc 6e3f 24d9 8b3f 3a16 693f
00000140: 1065 753f 1a1b 893f 5ab7 6b3f 7609 7f3f
00000150: 58c4 673f fb52 923f b74a 8b3f a39a 613f
00000160: 6014 6f3f 7cf3 873f 2dac 773f 6548 7f3f
00000170: 5973 653f e8ae 6f3f 6cbf 893f 7476 673f
00000180: 6679 7b3f a27e 893f ebed 8a3f e9a8 823f
00000190: 3cec 273d ead6 803d 1858 87bc bc45 1ebd
000001a0: c42d dd3d 4d2b 0d3e 5028 863d 3437 7dbd
000001b0: 09ef fbbd 68ef 0ebe 803b 803a 6040 5ebd
000001c0: 8ac4 11bd 80ea a2bc 2df4 083e 6544 093e
000001d0: 80a2 58bc f0f0 2dbd cca7 8c3d b0e4 38bc
000001e0: 1bcb 09be 10d2 3c3d c5a3 0a3e 2595 e5bd
000001f0: f035 fabc 603e fb3c 62d9 ebbd 7af8 f7bd
00000200: 1e38 d83d 301d 4dbd 1ef3 a83d 8023 4f3c
00000210: 2055 0d3d 3907 c1bd 086e f7bc 2c0e bf3d
00000220: d0d7 843d b27a 27bd 3085 8e3c 2abf dd3d
00000230: 1cc6 fdbd 3e0b ba3d 6817 2ebd 68af ebbc
00000240: e2d2 893d 089d f0bd 8c04 afbc 8f63 0a3e
00000250: 147b 503d 6e31 56bd 966b 7a3f d06d 8f3f
00000260: 0bfe 873f 946c 8d3f 22fe 6a3f 465f 863f
00000270: 9e63 843f 074f 843f 3ef6 913f 8c2c 8b3f
00000280: 8ba1 8d3f 081a 893f 2417 73bf 4202 7c3f
00000290: 705a 623f 46b9 633f ecc1 6b3f c4dd 6a3f
000002a0: 3243 71bf 9a10 77bf b62b 25bd 7b06 3dbf
000002b0: 52a5 5ebf f014 67bf 23c3 893f 3c12 933f
000002c0: ee07 6f3f 58b0 6d3f 541d 6d3f d646 803f
000002d0: 0059 623f ca7b 8f3f 669e 813f 012b 8a3f
000002e0: 906c 6e3f 9293 7e3f bb88 833f a665 783f
000002f0: 5e3d 923f fac3 713f 1ec6 863f d6bd 693f
00000300: 6205 7e3f 8eb3 783f a9f6 883f 5bcc 8d3f
00000310: 4b8e 853f e404 7f3f 1a09 793f 8458 8f3f
00000320: b9d0 32bf e41f 10bf 765e 3abf 366c 0cbf
00000330: ad33 06bf 8a71 11bf 40c5 993e 1131 8b3e
00000340: e50f 3cbf 24d4 29bf 6ccb 1dbf 86b8 33bf
00000350: 920f 463f 45b7 59bd 0ace 4bbf 0e94 213d
00000360: 721b ab3d 2dd8 25bf aede 333f 05a1 893d
00000370: d2bf 09bd 9f43 0dbf 6316 773f 8a66 853f
00000380: 3621 1f3d 30ad 7d3e 3360 223e 81c3 863e
00000390: e071 4bbf 60ea 4cbf 63fa 1dbf f808 4cbf
000003a0: 04ee 47bf 08da 17bf b3af 18bf 2240 4bbf
000003b0: 9035 10bf ea4c 31bf df61 0fbf c381 3fbf
000003c0: 71e4 c6bd b0fb 66bd 93df 2fbf 206b 4ebf
000003d0: 3bba 2cbf 5a54 3cbf f2af 32bf 1144 2abf
000003e0: 963a 28bf bcac 4dbf b2fa 943d 9483 b1bd
000003f0: 3882 b03d a1b2 043e c22d 41bd 9806 823c

enc_linear1.bias f4 [40]
-0.9631509 -1.0675006 -0.07430664 -0.95097804 0.7855872 0.075574204 -0.06986274 1.0936118
-0.9467933 -0.692436 0.03089717 -0.9662069 -0.83855766 0.6330014 -0.9008843 -1.069438
-0.94602996 0.10246459 1.091092 -1.0451741 -0.9727134 1.2387031 -0.014103353 1.199582
-0.96618503 1.1728419 0.09454029 -1.1469256 0.13614787 0.92587525 0.04065752 -1.1437726
-0.9966591 0.007029116 -0.8643549 -0.9061773 -0.09527841 1.1653306 -0.86881435 1.0676935
00000000: 0f91 76bf dca3 88bf 142e 98bd 4c73 73bf
00000010: 3e1c 493f a6c6 9a3d 3214 8fbd 79fb 8b3f
00000020: 0c61 72bf 7c43 31bf 101c fd3c 5659 77bf
00000030: b7ab 56bf 610c 223f 5aa0 66bf 58e3 88bf
00000040: 052f 72bf f4d8 d13d e7a8 8b3f 44c8 85bf
00000050: bf03 79bf d38d 9e3f c011 67bc e78b 993f
00000060: e757 77bf af1f 963f 579e c13d 75ce 92bf
00000070: 596a 0b3e 2906 6d3f 8088 263d 2467 92bf
00000080: 0d25 7fbf 8054 e63b 5d46 5dbf 3cfb 67bf
00000090: 5421 c3bd 8e29 953f 9e6a 5ebf 2eaa 883f

enc_linear2.weight f4 [30, 40]
0.9040368 1.1635249 0.025342122 1.1084353 1.0486778 0.041121542 0.117511705 1.0425812
1.1202778 1.1129292 1.0978969 1.0929496 1.019598 1.0633415 1.0657895 1.0042464
0.9061496 0.057716787 1.0837474 1.0453022 0.5182274 1.1575054 0.048872024 0.96067965
1.1609646 0.91360605 1.0310495 1.0347744 -0.03365665 0.939414 -0.07522633 1.1019084
1.0070539 0.029006943 1.0959313 0.9176178 -0.021692395 0.909555 0.9925094 0.9308875
1.0607351 1.0158399 0.079578206 1.107013 0.9754991 0.120742366 0.03463915 1.1583775
1.1004587 1.2002095 1.2127931 0.86736315 0.92119616 1.1999817 0.9894823 0.9038947
1.1868465 -0.11459468 1.2100255 1.0511107 1.0196393 1.1408479 0.020753264 0.9647991
0.8824775 1.0018162 0.9931549 1.0057167 0.12880565 1.1575729 0.010229051 0.9243553
0.86049783 0.04037413 0.9629727 1.1448618 -0.07828918 1.1310427 1.035361 0.96473175
0.91391116 -0.9777854 0.026716337 -1.0861167 1.0827678 -0.12256463 0.083440065 1.001774
1.0818868 0.98057705 1.1775601 -0.89058053 1.1552254 1.1965146 1.1483123 1.1264532
1.0851383 0.12028457 1.0413188 1.0543771 1.1919215 1.1505277 -0.10094498 1.102007
-1.0636457 1.1722693 1.0563911 -1.0204561 0.090001896 1.1890961 -0.059923172 -0.91684765
-1.0016075 -0.10239935 1.1059238 1.1529496 0.1042961 1.2154487 0.989006 1.2196971
1.1509604 1.0933216 -0.017704293 0.9027238 0.98452955 0.019538254 -0.07565857 1.0630773
0.8744763 0.8449791 0.5864276 0.94363 1.0379171 0.98018444 1.0783497 1.0998232
1.118165 -0.14221662 0.9380106 1.1852016 -0.17456748 0.97106194 -0.15395433 1.0114844
1.0986477 0.80874807 1.1397053 1.1445096 -0.032589793 0.035135206 -0.0020867288 1.0224329
1.1494864 0.035255656 0.96293455 1.0827745 -0.027877256 1.1106107 0.9294692 0.8097326
1.0931844 1.1234674 -0.10956596 1.02599 0.97928756 0.07350975 -0.10858683 0.9537234
1.0055839 1.2289672 1.0397047 0.87333816 1.0285598 1.1326172 1.1042002 1.177431
1.1143372 0.09016448 1.0702363 1.0184704 1.1223993 1.2277049 0.035001755 1.1241449
1.031199 1.0059384 1.0563961 0.95531374 0.15191846 1.0882713 0.033637926 1.1470913
0.96207136 0.080951735 1.019514 0.9470303 0.07799071 1.0995039 1.1450682 1.1069403
1.030348 1.1246747 -0.015080124 0.91718024 1.2223165 -0.056167334 -0.13633879 1.2409443
0.8911556 1.0436784 1.2277441 0.9028842 1.2056484 1.2374291 1.1048263 1.0107872
1.0466895 0.11098267 0.9746661 1.055376 0.9601098 1.0379653 0.0110013485 1.044572
1.074855 1.0412595 0.967713 1.1366217 0.0452116 1.0708535 0.0044026077 0.8970302
0.99224883 0.12539707 1.0193733 0.89450175 0.06711453 1.001688 0.94411886 1.253593
0.8794417 -1.0500655 0.08685587 -0.9975895 1.1149415 0.1368439 0.012323692 0.950741
1.0005876 0.9136161 1.1006933 1.0062946 0.94044966 1.15834 1.0651394 1.049908
00000000: f56e 673f 62ee 943f 489a cf3c 35e1 8d3f
00000010: 133b 863f 106f 283d faa9 f03d 4d73 853f
00000020: 4365 8f3f 7774 8e3f e387 8c3f c6e5 8b3f
00000030: 3082 823f 931b 883f ca6b 883f 258b 803f
00000040: 6cf9 673f 7068 6c3d 3cb8 8a3f 76cc 853f
00000050: 8daa 043f 2329 943f 082e 483d 1aef 753f
00000060: 7d9a 943f 16e2 693f 6ef9 833f 7d73 843f
00000070: 8edb 09bd 707d 703f 4310 9abd 560b 8d3f
00000080: 24e7 803f f89f ed3c 7a47 8c3f 00e9 6a3f
00000090: 40b4 b1bc 99d8 683f 1915 7e3f a54e 6e3f
000000a0: 2bc6 873f 0b07 823f e6f9 a23d 9ab2 8d3f
000000b0: 4fba 793f c647 f73d c8e1 0d3d b745 943f
000000c0: d5db 8c3f 77a0 993f ce3c 9b3f 830b 5e3f
000000d0: 83d3 6b3f 0099 993f b64e 7d3f a565 673f
000000e0: 96ea 973f 9eb0 eabd 1ee2 9a3f cc8a 863f
000000f0: 8a83 823f 4e07 923f c002 aa3c 13fd 763f
00000100: 0cea 613f 833b 803f 663f 7e3f 53bb 803f
00000110: a1e5 033e 592b 943f c097 273c 8da2 6c3f
00000120: 9649 5c3f 585f 253d 6185 763f d58a 923f
00000130: 1456 a0bd 02c6 903f b686 843f a9f8 763f
00000140: 15f6 693f 2550 7abf 38dc da3c df05 8bbf
00000150: 2398 8a3f 2a03 fbbd a0e2 aa3d 213a 803f
00000160: 447b 8a3f 1907 7b3f 4aba 963f 16fd 63bf
00000170: 6dde 933f 6427 993f e6fb 923f 9e2f 903f
00000180: d0e5 8a3f c257 f63d ef49 853f d4f5 863f
00000190: e290 983f 7e44 933f 3ebc cebd 910e 8d3f
000001a0: 8b25 88bf ec0c 963f d337 873f 4e9e 82bf
000001b0: ea52 b83d 4d34 983f 0072 75bd 87b6 6abf
000001c0: ad34 80bf c0b6 d1bd e98e 8d3f da93 933f
000001d0: 3299 d53d d393 9b3f 7f2f 7d3f 091f 9c3f
000001e0: ac52 933f f6f1 8b3f 9808 91bc e818 673f
000001f0: 210a 7c3f b00e a03c e1f2 9abd eb12 883f
00000200: aedd 5f3f 8d50 583f 1f20 163f bc91 713f
00000210: 78da 843f 5eed 7a3f 5d07 8a3f 02c7 8c3f
00000220: 0820 8f3f 3ca1 11be 7621 703f b0b4 973f
00000230: d1c1 32be 8497 783f 34a6 1dbe 5278 813f
00000240: 7da0 8c3f 1d0a 4f3f dde1 913f 4a7f 923f
00000250: e07c 05bd efe9 0f3d 80c1 08bb 15df 823f
00000260: 5f22 933f 3c68 103d e182 763f 5b98 8a3f
00000270: d85e e4bc 7e28 8e3f b2f1 6d3f a34a 4f3f
00000280: 77ed 8b3f c8cd 8f3f 1e64 e0bd a453 833f
00000290: 97b2 7a3f 488c 963d c662 debd 3727 743f
000002a0: f9b6 803f cc4e 9d3f 0b15 853f 1793 5f3f
000002b0: d9a7 833f 9af9 903f 6f56 8d3f 0fb6 963f
000002c0: 9aa2 8e3f 28a8 b83d 81fd 883f 3d5d 823f
000002d0: c8aa 8f3f 6f25 9d3f 005e 0f3d fbe3 8f3f
000002e0: 54fe 833f 97c2 803f fd37 873f 718f 743f
000002f0: 8390 1b3e 794c 8b3f ecc7 093d e3d3 923f
00000300: 4f4a 763f 06ca a53d 6f7f 823f 9470 723f
00000310: 98b9 9f3d 8bbc 8c3f 9891 923f 38b0 8d3f
00000320: 71e2 833f 57f5 8f3f a012 77bc 53cc 6a3f
00000330: de74 9c3f b80f 66bd 659c 0bbe 43d7 9e3f
00000340: c622 643f 4197 853f b826 9d3f 6b23 673f
00000350: b052 9a3f 1464 9e3f f36a 8d3f 7a61 813f
00000360: ecf9 853f e24a e33d b883 793f 9016 873f
00000370: c1c9 753f 0cdc 843f 003f 343c 89b4 853f
00000380: d994 893f fe47 853f 0abc 773f d27c 913f
00000390: cc2f 393d ba11 893f c043 903b c5a3 653f
000003a0: 0504 7e3f 1768 003e d37a 823f 11fe 643f
000003b0: 5873 893d 5037 803f c6b1 713f bc75 a03f
000003c0: 1723 613f 8c68 86bf 7ee1 b13d 0762 7fbf
000003d0: 67b6 8e3f cf20 0c3e 50e9 493c c363 733f
000003e0: 4113 803f bfe2 693f 85e3 8c3f 43ce 803f
000003f0: 4fc1 703f 7c44 943f 7d56 883f 6363 863f

enc_linear2.bias f4 [30]
0.9934898 1.0778005 0.9845181 1.0076357 1.1566412 1.1739398 1.094354 -1.1164997
0.9310869 -0.30604813 -0.9053696 1.0493623 -1.1322579 -0.90600187 1.0179462 1.0157382
-0.9835172 1.1504353 -1.1429993 -0.9897718 1.0724132 -1.1493222 -1.1686857 -1.1779242
-1.0060314 -0.9419595 -1.1585902 0.83080274 1.075777 0.8903809
00000000: 5955 7e3f 5ef5 893f 6109 7c3f 35fa 803f
00000010: d20c 943f a943 963f cb13 8c3f 76e9 8ebf
00000020: b65b 6e3f 57b2 9cbe 4dc6 67bf 8151 863f
00000030: d4ed 90bf bdef 67bf 104c 823f b603 823f
00000040: c9c7 7bbf 7741 933f cd4d 92bf af61 7dbf
00000050: d644 893f fd1c 93bf 7e97 95bf 38c6 96bf
00000060: a3c5 80bf 4224 71bf af4c 94bf 7daf 543f
00000070: 10b3 893f 01f0 633f

enc_linear3.weight f4 [30, 40]
1.0649157 0.98158497 -0.002369687 1.0955977 -1.0974321 0.04222028 -0.15294763 -0.9993038
0.88752806 -0.98014414 -1.0860423 1.1311094 -0.9380164 -0.96783763 0.8673594 1.1486092
-0.85907525 -0.08273145 -1.0082718 -0.846607 0.33160025 -0.960524 -0.026829615 -0.889744
0.99027365 -1.0907066 -0.96016383 1.045136 -0.031326815 -1.0702564 -0.11259609 0.88469666
0.8900131 -0.013877243 -1.037174 1.0178021 0.07266097 -1.0365005 1.1317346 -0.9807957
-0.90394497 0.9029839 0.05434671 1.0181521 0.5383297 -0.09874235 -0.15477917 0.9692961
0.93796134 0.8546015 -1.04085 1.0783262 1.0538383 0.67488384 -0.24045646 -1.0136907
0.5426004 0.111475185 0.81918365 -1.0428892 0.99048287 -0.98395026 -0.011851743 -0.9707016
0.96781594 -1.2082599 0.9119946 1.0339243 0.070515975 -1.2020559 -0.14457577 -0.8283545
0.9028209 -0.13327876 1.128722 -0.7210383 0.14206488 0.6279841 -0.8738055 -0.91403216
0.9207071 1.0492531 0.0048862845 -1.0795548 -1.0224988 -0.11384319 0.041792244 -1.133391
0.5238281 -0.9800801 -1.0432472 1.108794 -1.0138077 -0.97643435 -0.8008225 -1.0031776
-1.0848875 -0.124221906 -1.1790833 -0.904534 0.8209609 -0.9301204 0.009953663 -1.041727
-0.929893 -1.1697197 -1.0544485 -0.86925495 -0.13518417 -1.028853 0.1383626 -0.9590075
-0.86704034 0.15512516 0.7609622 -0.20300068 -0.01927866 -0.88675755 -1.0039338 -1.0994678
-0.9006273 -1.1016365 -0.0022497773 0.89160025 -1.0701135 -0.050844215 0.14238147 -0.9761623
-0.93766135 -0.95513695 -1.164483 -1.1658002 -0.9529127 -0.95812494 -0.8962684 -0.95404524
-1.0896392 -0.11118229 -1.0024086 -0.93141717 -0.8767133 -1.0878326 -0.11668885 -0.9425923
-1.1548643 -1.1760911 -1.1006693 -1.0174104 -0.09091227 -1.0351583 -0.012344673 0.9372196
-1.0644127 0.050579906 -1.1506019 -1.0208858 -0.08761967 -1.1886079 -1.0981638 -0.9611038
1.0899954 -1.0482526 -0.09841134 0.94801766 -0.983314 0.11941792 0.10640673 -1.0918732
-1.0472474 -0.871082 -0.8596733 -1.1196256 -0.91176444 -0.91204005 0.39670774 -0.971436
-0.8662414 0.0073381215 -1.0791419 -0.96699184 -0.9628228 -1.1387933 0.12391861 -1.1042686
0.9568842 -1.1110749 -1.0192732 -0.94826335 -0.08220938 -1.0193535 0.029225364 0.9331336
-0.8808585 0.03275323 -0.9073952 0.8000975 0.011061296 -1.1187427 0.42372575 -1.029288
0.8402277 0.9431913 0.11219494 0.95759857 -1.0254735 0.12621225 -0.12865554 -0.867407
1.046362 -1.0907942 -0.9763283 -1.021509 -1.039709 -0.9494781 1.1182752 -0.88717425
-1.0379598 -0.10062754 -1.1274422 -0.6698321 -1.0392611 -1.1311088 0.13426988 -0.9378678
-0.82223594 -1.0392996 -0.9262477 -0.99196947 -0.06664061 -1.0323378 0.06219609 0.8577163
-1.0682142 -0.10658795 -0.97524947 1.1674471 -0.08351519 -0.92808676 -1.0981178 -1.033151
-1.183161 -1.1445006 0.10905768 -1.0589834 -0.9331916 0.11888085 -0.15641236 -0.96914375
-0.9132192 -0.9430278 -0.9234363 0.94068974 -1.157082 -1.156975 -1.0405763 -1.0608448
00000000: 284f 883f 2749 7b3f c04c 1bbb 8c3c 8c3f
00000010: a878 8cbf 2cef 2c3d 4e9e 1cbe 60d2 7fbf
00000020: 0a35 633f baea 7abf 6f03 8bbf 31c8 903f
00000030: d821 70bf 35c4 77bf 440b 5e3f a005 933f
00000040: 5bec 5bbf 1b6f a9bd 0d0f 81bf 3dbb 58bf
00000050: 82c7 a93e e7e4 75bf c8c9 dbbc 43c6 63bf
00000060: 9382 7d3f 469c 8bbf 4ccd 75bf 04c7 853f
00000070: 8c50 00bd 29fe 88bf c798 e6bd 7b7b 623f
00000080: e6d7 633f 605d 63bc 1ec2 84bf 5747 823f
00000090: 46cf 943d 0cac 84bf aedc 903f 6d15 7bbf
000000a0: f068 67bf f429 673f a89a 5e3d cf52 823f
000000b0: facf 093f 6e39 cabd 6e7e 1ebe ca23 783f
000000c0: 3c1e 703f 2ac7 5a3f 933a 85bf 9806 8a3f
000000d0: 2ce4 863f 30c5 2c3f 383a 76be 9ec0 81bf
000000e0: dce7 0a3f 1a4d e43d 05b6 513f 657d 85bf
000000f0: 4990 7d3f 2ae4 7bbf d02d 42bc e67f 78bf
00000100: c9c2 773f 43a8 9abf 7a78 693f a257 843f
00000110: ae6a 903d f8dc 99bf ac0b 14be 0a0f 54bf
00000120: 451f 673f 3a7a 08be f679 903f f795 38bf
00000130: 7579 113e 91c3 203f b8b1 5fbf 03fe 69bf
00000140: 76b3 6b3f ed4d 863f 201d a03b da2e 8abf
00000150: 3ee1 82bf 9e26 e9bd 582e 2b3d f512 91bf
00000160: 9919 063f 88e6 7abf 2089 85bf f6ec 8d3f
00000170: 73c4 81bf 9af7 79bf b402 4dbf 2068 80bf
00000180: 98dd 8abf 0e68 febd 34ec 96bf 8a8f 67bf
00000190: 7e2a 523f 5f1c 6ebf b014 233c 4f57 85bf
000001a0: 780d 6ebf 60b9 95bf 2bf8 86bf 7e87 5ebf
000001b0: b86d 0abe 75b1 83bf edae 0d3e 8481 75bf
000001c0: 5bf6 5dbf 21d9 1e3e 6bce 423f 69df 4fbe
000001d0: 48ee 9dbc 8b02 63bf e780 80bf 5cbb 8cbf
000001e0: 838f 66bf 6d02 8dbf 0071 13bb ea3f 643f
000001f0: 7bf9 88bf 0642 50bd 73cc 113e c6e5 79bf
00000200: 930a 70bf db83 74bf c70d 95bf f138 95bf
00000210: 16f2 73bf ad47 75bf d971 65bf 4f3c 74bf
00000220: 4c79 8bbf 8ab3 e3bd ed4e 80bf 5b71 6ebf
00000230: 4870 60bf 193e 8bbf 90fa eebd bb4d 71bf
00000240: 98d2 93bf 278a 96bf bbe2 8cbf 813a 82bf
00000250: 3630 babd 1180 84bf 5041 4abc a0ed 6f3f
00000260: ad3e 88bf e02c 4f3d ec46 93bf 63ac 82bf
00000270: f171 b3bd 4e24 98bf a290 8cbf e60a 76bf
00000280: f884 8b3f 242d 86bf e28b c9bd 49b1 723f
00000290: 77ba 7bbf 6291 f43d c6eb d93d 80c2 8bbf
000002a0: 340c 86bf 3bff 5ebf 8d13 5cbf e44f 8fbf
000002b0: 6569 69bf 757b 69bf 471d cb3e 08b0 78bf
000002c0: ffc1 5dbf a074 f03b 5221 8abf c78c 77bf
000002d0: 8e7b 76bf fbc3 91bf 0ac9 fd3d ac58 8dbf
000002e0: 5df6 743f b437 8ebf 8b77 82bf 63c1 72bf
000002f0: 645d a8bd 2d7a 82bf 086a ef3c d8e1 6e3f
00000300: f17f 61bf 4028 063d 0d4b 68bf 31d3 4c3f
00000310: 703a 353c f632 8fbf 95f2 d83e b6bf 83bf
00000320: 2a19 573f fc74 713f 76c6 e53d 2e25 753f
00000330: b742 83bf c93d 013e 47be 03be 630e 5ebf
00000340: 31ef 853f 259f 8bbf a7f0 79bf cfc0 82bf
00000350: 2f15 85bf ff10 73bf a423 8f3f da1d 63bf
00000360: dedb 84bf d015 cebd 0750 90bf 1e7a 2bbf
00000370: 8206 85bf 2cc8 90bf 0b7e 093e 1b18 70bf
00000380: 0e7e 52bf c507 85bf 921e 6dbf b6f1 7dbf
00000390: df7a 88bd a523 84bf 54c1 7e3d 4c93 5b3f
000003a0: 3ebb 88bf c84a dabd f3a9 79bf e86e 953f
000003b0: 030a abbd 1897 6dbf 208f 8cbf 4b3e 84bf
000003c0: d271 97bf ff7e 92bf a259 df3d c58c 87bf
000003d0: a5e5 6ebf ce77 f33d 902a 20be ce19 78bf
000003e0: bcc8 69bf 456a 71bf 5266 6cbf 0bd1 703f
000003f0: 431b 94bf c217 94bf 9b31 85bf c3c9 87bf

enc_linear3.bias f4 [30]
-0.8966007 -0.76619565 -0.9983247 -1.1295704 -0.8922961 -1.1450111 -1.043364 -1.0514481
-0.8996516 -1.1133318 -1.0673808 -0.9851644 -1.1567209 -0.94981027 -0.93089086 -1.0436903
-0.96827656 -0.9545519 -1.0214647 -0.9000157 -1.1353432 -0.9177431 -1.0856539 -1.0588843
-1.0527188 -1.1207966 -0.93472093 -0.99821156 -0.9874471 -1.0236578
00000000: a087 65bf 6625 44bf 3592 7fbf c395 90bf
00000010: 846d 64bf b98f 92bf f48c 85bf da95 86bf
00000020: 914f 66bf a881 8ebf ef9f 88bf bc33 7cbf
00000030: 6e0f 94bf c426 73bf dd4e 6ebf a597 85bf
00000040: f9e0 77bf 835d 74bf 5bbf 82bf 6e67 66bf
00000050: ed52 91bf 36f1 6abf b5f6 8abf 8589 87bf
00000060: 7dbf 86bf 4376 8fbf df49 6fbf cb8a 7fbf
00000070: 55c9 7cbf 3807 83bf

decoder.0.weight f4 [40, 30]
-0.77571 -0.91384846 -1.1697446 -1.1313436 -0.8916874 -1.0829318 -1.0757412 0.8511471
-1.1508375 0.9792626 0.9277829 -1.0662047 1.213496 0.82309836 0.95255893 -0.96924686
-0.86742 -1.0707128 0.84831953 0.8725796 -1.1827612 1.1066949 1.1608343 1.136994
0.97098035 -1.0380175 1.0836107 0.96801716 -1.0234696 1.0716021 0.86491555 -0.98483723
-1.0617216 -1.1089945 -1.136928 -1.1257571 0.7584199 0.15322345 -1.0465064 1.0397624
0.90178114 -1.1756468 1.1065102 -1.1555917 -0.8931964 -0.9330748 -1.0552888 -0.92223173
0.8296996 1.1546777 -1.0077939 1.0849497 1.0794966 1.1584215 1.0618082 -1.1132094
1.193671 1.0452207 -1.0935223 -0.8779305 0.90345764 1.0736258 1.0638479 0.97642076
1.1940957 0.9590003 1.0148307 -0.9448483 1.1131265 -1.0879047 -0.8905856 1.0625014
-1.1997569 1.0838923 0.920595 1.0389686 -0.9124654 1.0051866 -0.9718816 -1.0060457
1.206099 -1.1326748 -1.0189635 -1.1304746 -0.9963536 0.92233664 -1.0899031 -0.9079449
1.1762645 -0.89976895 0.92939186 1.0532871 0.86819005 1.1223594 1.1649718 0.964046
1.0334969 -1.004855 0.8960249 0.9323817 -1.1666304 1.1046026 -1.1468669 -1.0121425
0.9580919 0.90438914 1.0179675 1.0326049 -0.8148094 -1.188017 1.1802754 -0.8321407
-1.0998828 -1.173172 -0.96108097 0.9502403 -1.0781655 -0.7477077 0.9411284 1.2077177
-0.8483181 0.97439045 1.2170838 1.0782282 0.9636231 0.9421305 1.2266852 0.96791905
0.9110402 -1.0170994 -1.0914525 0.91158986 -1.1184528 1.0169774 1.0200869 1.1512936
0.926358 1.1380249 0.84547067 -0.9958329 1.1824809 -1.0626308 -1.1313971 -1.0704902
-0.9724707 0.993105 -1.1577181 -0.95511293 1.2274525 -0.8549741 -0.57976747 -1.0383434
-1.0760258 -1.0410786 -1.2295923 -1.1143175 -0.93621457 1.0311321 -0.98149455 1.1473323
0.8972665 -1.2113969 1.0645062 -0.7397104 -0.83791435 -1.1778647 -0.8946351 -0.8771404
-1.0303798 1.1026188 -1.2029731 1.0495783 0.9632929 1.1373287 1.1042413 -1.2032044
1.105936 0.9681754 -1.2191805 0.85539174 -0.93428516 1.0641049 1.0772983 0.9537863
0.929502 1.1884805 0.9293453 0.86865014 0.89477694 -0.9943769 -1.1352812 1.2017853
-1.1475642 0.8719541 -0.9594273 0.906512 1.1707338 1.016974 0.8103743 -1.0253388
1.0252984 -0.8938508 -1.2110906 -0.9105013 -1.0703846 0.9119836 -1.2092955 -1.0058157
1.112154 -0.897973 0.8171806 -1.1389498 -1.0003067 -0.97078913 -1.0983107 -1.0798545
-0.9328921 -0.9335975 -1.1947293 1.0642986 1.102166 -0.92717975 1.0785259 -1.0374442
1.1169747 -1.1214658 -1.1131903 -1.1378127 -0.80812 1.1224462 -1.1361911 1.1878384
1.1060658 0.9895524 1.1764402 -1.079362 1.0152574 1.0906404 -1.091284 0.4722911
-0.8135108 -1.1918981 -1.1516216 -0.9551302 -1.0231526 -0.95506936 -1.0115594 0.8995552
-1.0637548 1.0184933 0.956479 -1.1027296 0.9764911 0.7283428 0.15677097 -1.1934114
00000000: ee94 46bf f9f1 69bf 31ba 95bf decf 90bf
00000010: a045 64bf 829d 8abf e3b1 89bf c7e4 593f
00000020: a54e 93bf f4b0 7a3f 2e83 6d3f 6579 88bf
00000030: d653 9b3f 93b6 523f e7da 733f 9020 78bf
00000040: 3d0f 5ebf 1e0d 89bf 782b 593f 6061 5f3f
00000050: b864 97bf 2ea8 8d3f 3896 943f 0589 913f
00000060: 2b92 783f c2dd 84bf c1b3 8a3f f9cf 773f
00000070: 0d01 83bf 422a 893f 1b6b 5d3f 4b1e 7cbf
00000080: 7ee6 87bf 88f3 8dbf db86 91bf cf18 90bf
00000090: ce27 423f 9ce6 1c3e ecf3 85bf ef16 853f
000000a0: 21db 663f 987b 96bf 20a2 8d3f 6eea 93bf
000000b0: 85a8 64bf fddd 6ebf b413 87bf 6117 6cbf
000000c0: 3167 543f 7bcc 933f 64ff 80bf a2df 8a3f
000000d0: f22c 8a3f 2847 943f 55e9 873f a57d 8ebf
000000e0: 36ca 983f cbc9 853f 8af8 8bbf 0ec0 60bf
000000f0: 0049 673f 926c 893f 2b2c 883f b6f6 793f
00000100: 21d8 983f 0b81 753f f9e5 813f 94e1 71bf
00000110: ee7a 8e3f 7640 8bbf 6bfd 63bf 0c00 883f
00000120: a291 99bf fcbc 8a3f 1dac 6b3f ecfc 843f
00000130: 5597 69bf f4a9 803f 3ccd 78bf 1bc6 80bf
00000140: 7461 9a3f 7dfb 90bf 656d 82bf 64b3 90bf
00000150: 0811 7fbf 411e 6c3f f281 8bbf 146f 68bf
00000160: d68f 963f 4257 66bf a0ec 6d3f 1dd2 863f
00000170: b441 5e3f 79a9 8f3f cc1d 953f b8cb 763f
00000180: a049 843f 179f 80bf e361 653f 91b0 6e3f
00000190: 2554 95bf 9e63 8d3f 89cc 92bf e38d 81bf
000001a0: 8345 753f 0c86 673f c24c 823f 662c 843f
000001b0: 5997 50bf f110 98bf 4413 973f 2c07 55bf
000001c0: f6c8 8cbf 802a 96bf 6709 76bf f342 733f
000001d0: 5401 8abf c669 3fbf caed 703f 7e96 9a3f
000001e0: 602b 59bf a771 793f 67c9 9b3f 6203 8a3f
000001f0: 01b0 763f 772f 713f 0504 9d3f 8bc9 773f
00000200: ee39 693f 5030 82bf b7b4 8bbf f45d 693f
00000210: 7629 8fbf 512c 823f 3592 823f 975d 933f
00000220: cc25 6d3f cdaa 913f c470 583f e8ee 7ebf
00000230: 895b 973f 4904 88bf 9fd1 90bf d305 89bf
00000240: d7f3 78bf 213c 7e3f 1b30 94bf 4882 74bf
00000250: 2a1d 9d3f 95df 5abf a46b 14bf 70e8 84bf
00000260: 37bb 89bf 1042 85bf 4863 9dbf f5a1 8ebf
00000270: c2ab 6fbf 23fc 833f 3a43 7bbf c9db 923f
00000280: 42b3 653f 0e0f 9bbf bd41 883f a95d 3dbf
00000290: 8e81 56bf 45c4 96bf ce06 65bf 468c 60bf
000002a0: 7ce3 83bf 9d22 8d3f 06fb 99bf 9558 863f
000002b0: 5d9a 763f fd93 913f c757 8d3f 9a02 9abf
000002c0: 508f 8d3f 58da 773f 1b0e 9cbf f4fa 5a3f
000002d0: 502d 6fbf 9734 883f e9e4 893f 572b 743f
000002e0: d8f3 6d3f 2120 983f 93e9 6d3f db5f 5e3f
000002f0: 1a10 653f 7c8f 7ebf e550 91bf 1ad4 993f
00000300: 62e3 92bf 6238 5f3f 079d 75bf 2c11 683f
00000310: 9bda 953f 342c 823f b174 4f3f 4d3e 83bf
00000320: fa3c 833f 68d3 64bf 0405 9bbf 9d16 69bf
00000330: 5d02 89bf c277 693f 32ca 9abf 92be 80bf
00000340: 105b 8e3f 8fe1 65bf bf32 513f 1bc9 91bf
00000350: 0d0a 80bf a385 78bf 7295 8cbf ac38 8abf
00000360: 04d2 6ebf 3f00 6fbf e4ec 98bf f03a 883f
00000370: c713 8d3f a75b 6dbf 230d 8a3f f9ca 84bf
00000380: 07f9 8e3f 318c 8fbf 057d 8ebf d9a3 91bf
00000390: f4e0 4ebf 51ac 8f3f b66e 91bf 170b 983f
000003a0: 9093 8d3f 4e53 7d3f 9895 963f 8928 8abf
000003b0: f4f3 813f 1b9a 8b3f 32af 8bbf 24d0 f13e
000003c0: 3e42 50bf 1e90 98bf 5668 93bf 6a83 74bf
000003d0: aaf6 82bf 6d7f 74bf c77a 81bf 4049 663f
000003e0: 1e29 88bf fd5d 823f cfdb 743f 3e26 8dbf
000003f0: 52fb 793f ac74 3a3f 9288 203e b4c1 98bf

decoder.0.bias f4 [40]
-1.0342138 -0.88609767 1.2121425 1.0715455 1.195447 -0.9087084 1.1025923 -0.9393242
-1.0147395 -1.1607505 -1.1949219 -0.85651886 1.0621485 1.1670135 -1.1131598 1.173395
1.2218211 0.49265945 1.0568324 -1.1664553 1.1669356 -0.9423779 -0.5204346 -1.014492
1.2384465 -1.1472088 0.91100365 -1.0889565 0.8975106 -1.1130067 1.1989367 1.1746768
0.98120105 -0.9346226 -1.1902641 0.9499519 -0.9700874 -1.0186837 0.9353052 -1.2325708
00000000: 1e61 84bf 4cd7 62bf 7c27 9b3f 6728 893f
00000010: 6804 993f 1da1 68bf bf21 8d3f 8d77 70bf
00000020: fce2 81bf 7993 94bf 33f3 98bf d244 5bbf
00000030: 7bf4 873f b360 953f 057c 8ebf cf31 963f
00000040: a264 9c3f dc3d fc3e 4946 873f 684e 95bf
00000050: 255e 953f ae3f 71bf 343b 05bf e0da 81bf
00000060: 6a85 9e3f bdd7 92bf 8937 693f ed62 8bbf
00000070: 41c3 653f 0177 8ebf c276 993f cf5b 963f
00000080: fe2f 7b3f 6d43 6fbf 935a 98bf 0c30 733f
00000090: a657 78bf 3a64 82bf 2970 6f3f e1c4 9dbf

decoder.2.weight f4 [50, 40]
0.99182326 0.9633067 -1.2127277 -1.0188243 -1.0751007 1.0793539 -1.0357282 1.1978205
1.0405198 1.1030092 1.2663884 -1.0644848 -0.9602604 -0.9405385 1.1781337 -1.0042553
-0.98160535 -1.0810829 -1.1318729 1.2241329 -1.187258 1.1224048 0.92754704 1.1804616
-1.15193 -0.17145832 -1.0200913 1.0620075 -1.0601695 -1.0002484 -1.0998504 -1.2260387
-0.98545957 1.1087127 1.2047673 -1.1893388 1.0316523 0.98379314 -1.2375575 1.1022233
1.0619794 0.94147766 -0.94357353 -0.9359082 -1.2128705 1.179573 -1.144824 1.0853958
1.1616755 0.9351567 0.99030554 -0.96562606 -1.0488855 -1.2360554 1.0414096 -1.0590255
-1.0376686 -1.165598 -1.0077276 1.1154948 -1.1954782 1.1196958 0.9151893 1.1681906
-0.9658117 -0.7597221 -1.0518637 1.0729568 -1.000973 -0.8443173 -1.0447286 -0.9832156
-1.1949642 1.2073836 1.2407199 -1.1983535 1.1542697 1.1392913 -1.1622778 1.0125365
1.0359025 1.2216641 -1.1831152 -0.9820539 -1.0127355 1.0174571 -1.2283157 1.063296
1.1036674 0.9845975 1.0029098 -1.1520383 -1.2077078 -0.96612763 1.0572824 -1.2403541
-1.0331794 -1.2542323 -1.1147017 1.034879 -0.96329427 0.9705016 1.0064006 1.0657059
-1.1626306 -1.0170726 -1.1147883 1.1967674 -1.0018703 -0.93005484 -1.0182484 -1.2203083
-1.0182563 1.1833225 1.1976941 -1.0398054 1.0145055 1.0587078 -1.0233016 1.2562205
1.1680024 1.0478095 -1.2110734 -1.2405273 -0.9996479 0.9773298 -1.1834773 0.9848501
1.0352663 1.0042789 1.2246679 -1.0731306 -0.98546106 -1.1851964 1.2421169 -1.1823041
-1.0332856 -1.0995954 -0.9843435 1.0127687 -1.1602418 1.2413083 1.0282998 1.1851736
-1.1266842 -0.9195234 -1.1583982 1.0917362 -0.9916454 -1.0048491 -1.03698 -1.1098994
-1.0351222 1.0109024 1.159913 -1.0199227 0.94615453 0.9873961 -0.9836676 1.2295824
1.120837 1.0356673 -0.9829161 -1.2102946 -1.1175201 1.2068248 -1.0315592 1.2357134
1.1190163 1.0199716 1.0302725 -1.1608994 -1.0555719 -1.2004914 0.973231 -1.1387231
-0.95175976 -1.1170707 -1.2615926 1.0770001 -0.9348936 1.0794654 0.87926555 1.1486264
-1.1798441 -0.8774541 -1.2052763 1.2008147 -1.0346817 -0.9734714 -1.1913058 -1.1138464
-0.97248083 1.0752082 0.9909301 -1.2562264 1.0646096 1.0320742 -1.0246648 0.9976485
1.0219952 1.0585244 -1.1289666 -0.9904141 -1.2677242 1.0640849 -1.2330942 1.112878
1.0932145 1.0528084 1.081709 -1.0391552 -1.0658276 -1.0049933 1.083296 -0.9746575
-1.1902839 -1.0537174 -1.149875 1.0782932 -0.9935841 1.1879036 0.90984005 0.96990985
-0.96010965 -0.37192547 -0.9805314 1.2615896 -1.1482372 -1.0449901 -1.0038226 -1.1774434
-1.1208532 0.9765702 1.0698692 -0.95877993 1.1136267 1.1785833 -1.1400744 1.1902461
1.2421974 1.1049075 -1.1175767 -1.1132863 -1.2480623 1.1562676 -0.9841952 1.102134
1.1990951 0.9788593 1.0897136 -1.0132251 -1.1073153 -1.1605343 1.0390786 -1.0882766
00000000: 21e8 7d3f 459b 763f a93a 9bbf d668 82bf
00000010: e69c 89bf 4528 8a3f be92 84bf 2f52 993f
00000020: c12f 853f 682f 8d3f 0419 a23f 0a41 88bf
00000030: a0d3 75bf 22c7 70bf 16cd 963f 708b 80bf
00000040: 7d4a 7bbf ed60 8abf 36e1 90bf 63b0 9c3f
00000050: 12f8 97bf f6aa 8f3f b973 6d3f 5e19 973f
00000060: 7172 93bf c592 2fbe 5a92 82bf ddef 873f
00000070: a2b3 87bf 2408 80bf e6c7 8cbf d6ee 9cbf
00000080: 1447 7cbf 4cea 8d3f d135 9a3f 413c 98bf
00000090: 2f0d 843f ded9 7b3f 4968 9ebf a715 8d3f
000000a0: f1ee 873f ae04 713f 098e 71bf ae97 6fbf
000000b0: 573f 9bbf 40fc 963f 9889 92bf 40ee 8a3f
000000c0: c8b1 943f 6e66 6f3f aa84 7d3f 4533 77bf
000000d0: e141 86bf 1037 9ebf e94c 853f 268e 87bf
000000e0: 53d2 84bf 5132 95bf 38fd 80bf 89c8 8e3f
000000f0: 6e05 99bf 3152 8f3f d949 6a3f 4587 953f
00000100: 703f 77bf 267d 42bf 78a3 86bf a656 893f
00000110: e21f 80bf 2e25 58bf abb9 85bf 04b4 7bbf
00000120: 96f4 98bf 8c8b 9a3f e9cf 9e3f a663 99bf
00000130: 1cbf 933f 4cd4 913f 85c5 94bf cc9a 813f
00000140: 7498 843f 7d5f 9c3f 5270 97bf e267 7bbf
00000150: 51a1 81bf 093c 823f 7339 9dbf 151a 883f
00000160: f944 8d3f 950e 7c3f 595f 803f fe75 93bf
00000170: 2b96 9abf 2454 77bf 0855 873f ecc3 9ebf
00000180: 393f 84bf af8a a0bf 8cae 8ebf ea76 843f
00000190: 749a 76bf cb72 783f bcd1 803f 0d69 883f
000001a0: 14d1 94bf 6f2f 82bf 62b1 8ebf ad2f 993f
000001b0: 493d 80bf 1318 6ebf f755 82bf 1033 9cbf
000001c0: 3956 82bf 1d77 973f 0a4e 993f 5818 85bf
000001d0: 51db 813f bd83 873f 8cfb 82bf d5cb a03f
000001e0: 1a81 953f 9f1e 863f 7404 9bbf 99c9 9ebf
000001f0: ede8 7fbf 4932 7a3f 2f7c 97bf 231f 7c3f
00000200: 9b83 843f 368c 803f ebc1 9c3f 585c 89bf
00000210: 2d47 7cbf 84b4 97bf b0fd 9e3f be55 97bf
00000220: b442 84bf 8bbf 8cbf f0fd 7bbf 68a2 813f
00000230: ce82 94bf 31e3 9e3f 549f 833f c5b3 973f
00000240: 3037 90bf e365 6bbf 6446 94bf 03be 8b3f
00000250: 79dc 7dbf e59e 80bf c3bb 84bf 2f11 8ebf
00000260: e27e 84bf 4065 813f 0778 943f d48c 82bf
00000270: 2f37 723f fec5 7c3f a4d1 7bbf f562 9d3f
00000280: 9677 8f3f bf90 843f 64a0 7bbf efea 9abf
00000290: e60a 8fbf 3c79 9a3f 220a 84bf db2b 9e3f
000002a0: ed3b 8f3f 6e8e 823f f8df 833f 5a98 94bf
000002b0: fb1c 87bf b4a9 99bf ab25 793f aec1 91bf
000002c0: 87a6 73bf 2cfc 8ebf de7b a1bf 24db 893f
000002d0: 3055 6fbf ec2b 8a3f 8c17 613f 3106 933f
000002e0: 2205 97bf d5a0 60bf 7e46 9abf 4cb4 993f
000002f0: 7370 84bf 6c35 79bf b57c 98bf 8592 8ebf
00000300: 81f4 78bf 6ca0 893f 98ad 7d3f 07cc a0bf
00000310: 2145 883f 021b 843f 3728 83bf e465 7f3f
00000320: bdd0 823f ba7d 873f fa81 90bf c78b 7dbf
00000330: c944 a2bf ef33 883f 08d6 9dbf c972 8e3f
00000340: 74ee 8b3f 6dc2 863f 7175 8a3f 0a03 85bf
00000350: 0a6d 88bf 9fa3 80bf 71a9 8a3f 2783 79bf
00000360: 395b 98bf 36e0 86bf 1b2f 93bf 8305 8a3f
00000370: 875b 7ebf 3a0d 983f 47eb 683f 034c 783f
00000380: bfc9 75bf 046d bebe 1b04 7bbf c57b a13f
00000390: 70f9 92bf 3cc2 85bf 427d 80bf 77b6 96bf
000003a0: 1e78 8fbf 8100 7a3f 79f1 883f 9a72 75bf
000003b0: 528b 8e3f d1db 963f f5ed 91bf fc59 983f
000003c0: 5300 9f3f 9c6d 8d3f c10c 8fbf 2a80 8ebf
000003d0: 81c0 9fbf 9400 943f 37f4 7bbf ba12 8d3f
000003e0: f37b 993f 8696 7a3f bc7b 8b3f 5cb1 81bf
000003f0: 82bc 8dbf 638c 94bf 8700 853f a64c 8bbf

decoder.2.bias f4 [50]
-1.0829688 -1.0943716 -1.0117869 -0.99647313 -1.0133973 -1.1481563 -1.1187531 -1.147388
-0.94594073 -1.0359117 -1.0021031 -0.93138814 -1.2321427 -1.0496975 -1.0701631 -1.0989107
-1.1602532 -1.0379035 -1.1700405 -0.96331406 -1.0714222 -1.0253775 -0.9503037 -1.0446274
-0.9997898 -1.1262156 -0.9836358 -1.0924865 -0.95368665 -1.2196388 -1.0725685 -0.998644
-1.0052841 -0.97768813 -1.0494684 -0.9730108 -0.9485263 -1.197385 -1.0397373 -1.1536838
-1.0021632 -1.1805525 -1.2084376 -1.0965604 -1.1012983 -1.1778723 -1.0405418 -1.0692078
-0.9558165 -1.1758249
00000000: b99e 8abf 5e14 8cbf 3c82 81bf dd18 7fbf
00000010: 01b7 81bf c9f6 92bf 4d33 8fbf 9cdd 92bf
00000020: 2c29 72bf c198 84bf ea44 80bf 746f 6ebf
00000030: dab6 9dbf 7d5c 86bf 1bfb 88bf 1ba9 8cbf
00000040: 2d83 94bf 06da 84bf e3c3 95bf c09b 76bf
00000050: 5d24 89bf 923f 83bf 1a47 73bf 5ab6 85bf
00000060: 39f2 7fbf d527 90bf 8ecf 7bbf 99d6 8bbf
00000070: cf24 74bf 201d 9cbf ed49 89bf 22a7 7fbf
00000080: 26ad 80bf c549 7abf fb54 86bf 3c17 79bf
00000090: 9fd2 72bf e943 99bf 1d16 85bf e9ab 93bf
000000a0: e246 80bf 581c 97bf 15ae 9abf 175c 8cbf
000000b0: 58f7 8cbf 85c4 96bf 7930 85bf cddb 88bf
000000c0: 64b0 74bf 6e81 96bf
