seq_to_seq/attributes_only/seq2seq_best_sum_1.pt (torch, 27135 bytes, 9 tensors)

encoder.gru.weight_ih_l0 f4 [90, 1]
000000 50 a6 95 3e c3 3f 7a bd be 48 7b be df 61 56 3e
       0.2922845 -0.061095964 -0.24539468 0.20935772
000010 a5 88 ce bd ba 97 00 bf ce ba 41 bd 7d 4c 6d 3e
       -0.100846566 -0.50231516 -0.04729729 0.23173709
000020 ca 50 cb 3e 76 5e 86 bd 0e a6 0d 3e 82 f6 4d 3e
       0.39710075 -0.06560986 0.13832876 0.20113567
000030 f8 ec a7 3d f0 ac e5 3e cc 6c 64 bf b2 6c 09 3d
       0.08199495 0.44858503 -0.8922851 0.033550926
000040 2a 1b dd bd f9 ee f0 3d b1 80 82 3b 3c ca 18 3f
       -0.10796197 0.117643304 0.0039826264 0.59683585
000050 e7 85 31 be e4 4a 1f bb 6e 9a 69 3e 01 d2 cb bd
       -0.17336236 -0.0024306113 0.22812817 -0.099521644
000060 d8 7d a4 3d fa 07 cf 3e 73 0b 90 3e a1 d3 e3 bd
       0.08031815 0.40435773 0.28133735 -0.111243494
000070 8c 59 6b 3d 80 cc 26 3d ee 07 1b be b3 35 cc bd
       0.057458445 0.04072237 -0.15139744 -0.0997118
000080 3b 8f 22 3e 00 a0 92 be 9a 0d 37 be 34 93 99 be
       0.1587495 -0.28637695 -0.17876282 -0.2999512
000090 be 81 72 be 2f b7 3a be fb 37 dd bd 9e 2b 75 be
       -0.23682305 -0.18233941 -0.10801693 -0.2394242
0000a0 5d ae 2e be 03 fc 8e be 3f a5 7e be ae 6f 21 be
       -0.17058702 -0.27926645 -0.24867724 -0.15765259
0000b0 78 0a 59 be 61 89 70 be f4 c9 83 be d2 fe a5 be
       -0.211954 -0.23489906 -0.25740016 -0.32420975
0000c0 7b 31 7a be a1 62 30 be 68 4a fb bd 36 4d 86 be
       -0.24432938 -0.17225124 -0.12270051 -0.26230782
0000d0 39 ab 17 be 6a 90 99 be 51 f1 a1 3d 3d ee 0b be
       -0.1481141 -0.29992992 0.079073556 -0.136651
0000e0 8f 33 09 be db 33 60 be 5a 44 75 be e2 5a 3f be
       -0.13398574 -0.21894781 -0.23951855 -0.18687013
0000f0 a8 01 b9 bd b1 4a e7 3d 18 23 1d be 99 a1 be be
       -0.09033519 0.11293543 -0.15345418 -0.37232664
000100 9c 27 0e be d2 b4 33 be be df 57 3d f3 28 32 be
       -0.13882297 -0.17549446 0.05270361 -0.17398433
000110 66 6f 11 be db 61 2b be 65 b5 02 be 8d e3 f8 3d
       -0.14202651 -0.16736548 -0.12764509 0.12152777
000120 06 4c 12 bf c7 88 22 3e 52 02 0f 3f a5 bc 79 be
       -0.5714725 0.15872489 0.55862916 -0.24388368
000130 56 f7 c6 be 59 ed 86 3e b7 0b df 3e e9 cf 08 be
       -0.38860577 0.26352957 0.43563625 -0.13360561
000140 85 e6 36 bf b0 4f 64 3e a6 bd 55 be 2f cf 4a be
       -0.71445495 0.22296023 -0.20873126 -0.19805597
000150 4e 2b 77 bf 48 f3 2b 3e 58 d3 20 3e 33 8a 51 be
       -0.9655045 0.16792023 0.15705621 -0.20462875
000160 ca 3a a3 be 07 f2 ab 3d
       -0.3188079 0.083957724

encoder.gru.weight_hh_l0 f4 [90, 30]
000000 cc f9 3b 3e 6f c0 be bd 74 4f 99 bd e5 9f a7 be
       0.18357009 -0.093140475 -0.074858576 -0.32739177
000010 da 34 5e 3e d9 8d 03 be c5 22 1e be e8 d3 80 3e
       0.21699849 -0.1284708 -0.15442951 0.25161672
000020 8e 74 7d 3e 98 ff 77 bc e4 b4 83 3d 0f 20 70 3e
       0.24751493 -0.015136622 0.064309865 0.2344973
000030 1c 52 2d bd 56 f9 d1 bd 35 cd 8e bd 0b fc a9 3e
       -0.042314634 -0.10252635 -0.06972734 0.33200106
000040 8c 6c 89 3d f9 e5 0c 3e e3 61 25 be 3b 26 41 bd
       0.06710157 0.13759603 -0.16150622 -0.0471556
000050 a5 19 97 be 05 69 2c bd c1 ff df 3c b4 45 87 be
       -0.29511753 -0.042092342 0.027343633 -0.26420367
000060 fd 78 4c 3e e3 77 bc 3d 82 a9 e3 bd 23 18 a7 3d
       0.19968028 0.09202554 -0.111163154 0.081589006
000070 e7 9f 18 3d c4 1e 1e be 28 27 ee bd 94 da 37 bc
       0.03726187 -0.15441424 -0.11628562 -0.011221547
000080 f4 62 ea 3e 23 a0 6c 3c f6 d8 66 3e 6f e3 19 3e
       0.4577862 0.014442476 0.22543702 0.15028165
000090 d1 32 a9 be 69 33 8e bd fd 05 e7 3d d4 88 31 3e
       -0.33046582 -0.069433995 0.11280439 0.17337352
0000a0 26 36 da 3e ef 9b 10 3e 7b 82 95 3e 26 6a b3 bd
       0.42619437 0.14121984 0.2920111 -0.087604806
0000b0 c1 d6 71 be dd a6 93 3e c8 ef 61 3e ff dc 8f bd
       -0.23617078 0.28838244 0.22064126 -0.070245735
0000c0 6b ab 5e be b9 23 09 3e d3 28 88 3d 66 da c1 bd
       -0.21745078 0.13392533 0.066484116 -0.09465484
0000d0 2a 9d 0b bd 68 4b 78 3d 8b 97 80 3e 54 27 22 be
       -0.03408543 0.060618788 0.25115618 -0.15835315
0000e0 6e e1 88 bd 8d f8 86 3e 11 3a 9c 3e bf 37 f1 bd
       -0.06683622 0.26361504 0.3051305 -0.11778211
0000f0 12 0b 0d be 3c c7 0c 3e 80 74 32 bd 8b bf ca be
       -0.13773754 0.13747877 -0.043568134 -0.3959926
000100 35 84 99 be 53 df 8f 3e ca a0 be bd 97 22 c5 3b
       -0.29983678 0.2810007 -0.09308012 0.0060160863
000110 b8 3a ad 3e d1 16 51 bc 83 be f5 3d 17 fb 3e 3e
       0.3383386 -0.0127617875 0.11999228 0.1865047
000120 28 c0 0e 3e 92 aa 89 3d ee d9 fc be 6e 30 3e be
       0.1394049 0.06721987 -0.49385017 -0.18573162
000130 a2 d0 87 be 23 ea 99 bd c4 9c e2 3d 9c 94 6e 3c
       -0.26526362 -0.07515361 0.11065057 0.014561798
000140 10 e7 58 be 6f 06 b5 3d 40 62 25 3e 3b 57 8e be
       -0.21181893 0.08839118 0.1615076 -0.27800927
000150 07 c8 0b 3f c6 78 78 3e 3c ec 06 bd b3 e0 31 bd
       0.5460209 0.24264821 -0.032940134 -0.04342718
000160 86 e9 b5 bd 3e 68 20 bf b7 43 87 be 30 21 40 3e
       -0.08882432 -0.6265906 -0.2641885 0.1876266
000170 ac 4b b2 3d fb 9b 1f 3e 29 3a 59 be 82 76 73 3d
       0.087058395 0.15586846 -0.21213593 0.05943919
000180 03 f1 b9 bc ee b4 ba bd 33 1f 88 3d 4d 09 ff bd
       -0.022697931 -0.09116541 0.06646576 -0.12452946
000190 58 c9 1f 3e 30 b5 b0 bd 74 97 95 be 12 e3 ef 3b
       0.1560415 -0.08628309 -0.29217112 0.00732077
0001a0 6e 69 ab 3d a2 c6 24 3e 30 f7 55 bd f6 0e 33 3c
       0.083697185 0.16091397 -0.05223769 0.01092886
0001b0 e9 ca 0a 3d 5c 85 9a 3d 80 fa bb be 2f cf 99 3e
       0.033884916 0.075449675 -0.36714554 0.3004088
0001c0 b4 d9 29 be ba aa 92 3e 8f d0 c6 be 79 da 4d 3e
       -0.16586953 0.2864588 -0.38830993 0.20102872
0001d0 72 df 2f 3e 56 b6 ad 3d d1 7d 96 be 88 8c 82 be
       0.17175081 0.084820434 -0.29392865 -0.25497842
0001e0 66 d6 4d 3e 6f e2 9f be e1 5c 18 be 1a 36 82 be
       0.20101318 -0.31227443 -0.1487918 -0.254319
0001f0 26 59 5d be 08 8e 43 bf 49 b8 f9 be dc ce 76 3e
       -0.21616039 -0.763886 -0.4877341 0.24102348
000200 bc 48 2a 3e 46 20 db bd 81 2d d1 bd bb ad 8c 3e
       0.16629308 -0.10699515 -0.10213757 0.27476296
000210 63 6a 5a be 0d 6f 14 be 2f a9 3b be 7e 09 9c 3e
       -0.21329646 -0.14495488 -0.18326257 0.30475992
000220 c6 fa 7a be e7 e9 0b 3f ea 0f 5a bd 3f 43 23 3d
       -0.24509725 0.5465378 -0.053237833 0.039859053
000230 6c 23 94 bb bf df cd 3d 52 59 ef 3d 31 ef bc be
       -0.004520824 0.10052442 0.116869584 -0.3690124
000240 c0 8d 3e 3e cb 89 cb be 4d a9 b2 bd b7 b1 f8 3d
       0.18608761 -0.39753565 -0.08723698 0.121432714
000250 1e 80 00 be d5 17 b1 be c2 c6 df bd a0 d8 c0 bc
       -0.12548873 -0.34588495 -0.10926582 -0.023540795
000260 09 aa b4 3e a0 6f 54 bd df 77 a0 3e d3 c1 5d 3e
       0.35285977 -0.051864266 0.31341454 0.2165597
000270 71 a2 be 3d cf 66 86 3d 4d a2 e3 3d 29 da 5b 3d
       0.09308327 0.06562578 0.11114941 0.05367485
000280 ab ef b9 3e bb 25 a6 be bb 3b b6 3e 4e b1 03 3e
       0.36315665 -0.3245066 0.35592446 0.12860605
000290 20 f1 9c be 2f 36 be 3d e8 be 7b 3e 93 67 c0 3b
       -0.30652714 0.092876785 0.24584544 0.005871722
0002a0 cf 0e ca be 87 2a 08 3d f2 b1 0b 3e 4b 5e 90 be
       -0.39464423 0.033243682 0.136421 -0.2819694
0002b0 c3 81 dd be 3c 88 7e 3d 8b 28 91 3e 6d de dc bc
       -0.43263063 0.062141642 0.28351244 -0.02696153
0002c0 72 b8 e2 3d e7 d1 0f 3d 84 bc 23 3e c5 09 fc 3e
       0.110703364 0.035112288 0.15989882 0.49226204
0002d0 59 90 fe 3d d5 43 70 be 27 cc b9 3d 7b b5 38 be
       0.12429876 -0.23463376 0.09072142 -0.1803798
0002e0 da 58 63 3e c5 bc b5 be f1 64 9e be cf 54 8e 3e
       0.22201863 -0.35495582 -0.30936387 0.2779908
0002f0 ee db 57 3e 72 a3 6e bb 38 4f 0b be 21 ea e2 3e
       0.2107999 -0.003641334 -0.13604438 0.4431925
000300 b2 6b 24 be 00 96 10 be d2 bf d4 be e5 d1 d1 3e
       -0.16056708 -0.1411972 -0.41552597 0.4098045
000310 45 01 aa be 3a ed b8 3e d5 32 b3 3d 1e e5 54 3e
       -0.33204094 0.3611849 0.0874993 0.20790526
000320 8d 40 2f be 26 8f 95 3e 4f 5b 81 3e fb 87 3c be
       -0.17114468 0.29210776 0.25264975 -0.18411247
000330 11 1f c6 3d cc dd 82 be bd 2a 9b be ce f9 a5 3e
       0.09673894 -0.25559843 -0.30306044 0.32417148
000340 56 8a 1c be 8b b6 05 be 49 40 77 bd 1a 9e be bd
       -0.15287146 -0.13057916 -0.06036404 -0.09307499
000350 9c 12 da 3d 5b d3 bd bd 57 15 7f 3e 7a 1c 18 3e
       0.10648081 -0.092688285 0.24910484 0.14854613
000360 be 5e 63 bd 31 50 63 bb 84 cf 74 3c 13 ed 09 3f
       -0.055510275 -0.003468525 0.014942054 0.5387737
000370 0d 07 b8 3e 7d 48 bf 3d 48 55 5e 3e ae 50 35 3d
       0.3594288 0.09339998 0.2171222 0.044266395
000380 43 48 ca be 76 c3 82 3e dc 38 ea bc 6a 67 81 3e
       -0.39508256 0.2553975 -0.028591566 0.2527421
000390 92 1c 3f be c8 5c 15 3e 6c bd 96 3d 79 71 8d 3e
       -0.18663242 0.14586174 0.07360348 0.27625635
0003a0 8a 24 0c 3e 17 45 a3 be 17 f0 3f 3e 50 7c d8 bd
       0.13685814 -0.3188865 0.18743931 -0.10570586
0003b0 5c 9a 16 3c d6 6f 07 3e 1a 87 8b bd 8a 49 30 3e
       0.009192076 0.13226256 -0.06812878 0.17215553
0003c0 32 66 97 be 1e d7 11 3e 33 7b 95 3d 77 be 9a 3c
       -0.29570156 0.14242217 0.07298889 0.018889649
0003d0 86 f6 1a 3e b3 20 57 3e 85 0e 13 3e cd e1 2e 3d
       0.15133104 0.21008568 0.14361008 0.04269581
0003e0 94 4b 97 be 83 55 68 3e e0 da 8f 3e 76 d4 3b bd
       -0.2954985 0.2268887 0.28096676 -0.045856915
0003f0 ff 5a c2 3e 54 af e0 3e 99 a1 92 be 4a b6 e9 bd
       0.3796005 0.43883765 -0.28638914 -0.11411722

encoder.gru.bias_ih_l0 f4 [90]
000000 e0 02 1a 3e 40 db a7 3e 9a 9d b4 b8 b5 cf 91 bc
       0.15040159 0.32784462 -8.6124244e-05 -0.017799238
000010 61 2e c6 3e f7 36 a9 bd 08 b6 8f 3e 19 60 4b 3b
       0.3870726 -0.08262437 0.28068566 0.003103262
000020 be 7f 53 3e 2a 27 9d be 76 e5 e9 be 33 b8 07 3f
       0.20654199 -0.30693942 -0.45682877 0.5301544
000030 96 fc e5 3d ed d1 34 bd 89 c7 fd bd b4 cb 23 bd
       0.112298176 -0.044145513 -0.12391574 -0.03998919
000040 36 c2 1a bc 34 ff e8 3c a2 6e 1b be 6e d5 19 bc
       -0.009445718 0.028442003 -0.15178922 -0.0093892645
000050 7c e9 67 3e 5e fc b0 3d f1 28 29 3f 45 02 53 3e
       0.22647661 0.08641885 0.66078097 0.20606335
000060 04 79 fa bd 1c d7 fb 3d 78 38 dd 3d 3d d1 a5 bb
       -0.12230113 0.12296888 0.10801786 -0.0050603435
000070 81 86 f0 bd 18 a7 66 3e 91 97 9a bd 70 e8 f8 bc
       -0.117444046 0.22524679 -0.0754844 -0.030384272
000080 ce 39 31 bd 71 6f 3c be 8d 36 b2 bd 1e 0b 26 be
       -0.043268017 -0.18401887 -0.08701811 -0.16215178
000090 97 d4 c2 be 83 a1 7e 3d 1e d2 a8 3c dd 2f fb bc
       -0.38052818 0.06216575 0.020608004 -0.030662471
0000a0 21 bf 87 3e 67 c3 85 be ac d4 1d be 97 ad f2 3c
       0.26513007 -0.26125643 -0.15413159 0.02962379
0000b0 81 1f a6 be 2e 5e 2a 3e 56 96 bc bd 7b 36 bd bd
       -0.3244591 0.16637489 -0.09208362 -0.09238907
0000c0 47 a6 82 be c6 93 74 be b0 b4 7f be 85 6c d7 be
       -0.25517485 -0.23884496 -0.2497127 -0.4207498
0000d0 08 70 45 bc e6 67 d8 3b a7 96 b3 bd 64 e8 1d 3e
       -0.012050636 0.0066041825 -0.08768969 0.15420681
0000e0 68 55 b4 3e 6c 91 a2 3d 99 6b 87 be 98 02 a8 be
       0.3522141 0.07937893 -0.26449278 -0.3281448
0000f0 9c 1c 31 3e 2e 0c bd be de d0 9d bd 25 85 d4 bd
       0.1729607 -0.36923355 -0.07705854 -0.10376958
000100 5a c0 42 3d 7c 7e 47 be 73 7b 38 be 43 36 6c 3d
       0.047546722 -0.19481844 -0.18015842 0.057668936
000110 cf 90 18 3d 5c f6 71 3c 00 48 39 b4 99 81 ab 3e
       0.037247475 0.014768209 -1.7255661e-07 0.33497313
000120 87 68 09 be ff ea c0 3c 57 dd 77 bd c6 c0 93 3d
       -0.1341878 0.023549555 -0.06051382 0.07214503
000130 8f e6 1e be 47 30 d0 3e 3b d7 e6 bd 32 df 9f 3e
       -0.15517639 0.40661833 -0.11271521 0.31224972
000140 f2 18 82 3d 7e d8 1a 3d e1 d1 8e 3e 59 68 79 be
       0.06352414 0.03780412 0.278945 -0.24356212
000150 f8 46 3a 3e ac b8 1a be ca e4 57 be 6d 0a 3c 3d
       0.18191135 -0.15109509 -0.2108337 0.04590838
000160 fb 2e 25 be 1e 3d 11 bd
       -0.16131203 -0.035458677

encoder.gru.bias_hh_l0 f4 [90]
000000 0d 18 31 3e 66 9f a2 3e 39 3e 81 bb d3 b7 b1 bc
       0.17294331 0.31762236 -0.003944185 -0.0216941
000010 e6 5c 48 3e 0e e8 4e 3c 3e 01 f6 3e 15 b6 dc 3d
       0.19566688 0.012628568 0.48047823 0.10776917
000020 8f cf 6f 3e 26 7b ac be 6e d6 0d bf e0 8e f6 3e
       0.23419021 -0.33687705 -0.5540532 0.4815588
000030 ad 6b 8b bd 60 30 f4 3c 1d c5 4a 3e 12 89 7f 3d
       -0.06807647 0.029808223 0.19801755 0.06238658
000040 37 dc 90 3e 64 fe 29 be 24 78 28 bd ad 5b be 3d
       0.2829301 -0.16600949 -0.0411302 0.092948295
000050 15 2c c7 3e 0c 53 15 3e 00 96 27 3f d4 cd 6f 3e
       0.3890082 0.14582461 0.65463257 0.23418361
000060 a2 c4 08 be 33 e9 8d 3d 76 71 4c 3e a5 bf 0f 3e
       -0.1335626 0.06929245 0.19965157 0.1403795
000070 3d d1 fc bd 82 18 70 3e fd c8 31 3c 90 46 51 3d
       -0.123445965 0.23446849 0.010851142 0.051092684
000080 a1 b2 b3 3c 1b 2d 37 3d 1a 29 53 be 8a 3b 14 bd
       0.021935763 0.04472075 -0.20621148 -0.036189593
000090 c0 fd f7 bd cc 0c c9 3d 20 a5 16 be 5d 27 35 bc
       -0.12108946 0.09816894 -0.14711428 -0.011056748
0000a0 57 1e 8e 3e 6d 8b 95 be 25 17 1b be 61 12 34 3e
       0.27757522 -0.29207936 -0.15145548 0.17585136
0000b0 ca 30 aa be 24 5c 20 3e 79 cd 12 bd 73 c1 b5 bd
       -0.33240348 0.15660149 -0.035840485 -0.08874788
0000c0 2e 59 cc be d5 9c db bd b1 51 21 3d 22 f4 94 bd
       -0.3991179 -0.10723273 0.039384548 -0.07273127
0000d0 e1 a0 3b be 88 2c 6a be f2 39 02 be fa d2 24 bb
       -0.18323089 -0.2286855 -0.12717417 -0.0025150166
0000e0 7a 55 5b 3e 31 20 91 bd 3d fc 97 bd 64 4d 2a be
       0.21419325 -0.07086218 -0.074211575 -0.16631085
0000f0 3b 2f df bc 1f b5 3d be 4a 05 c0 3d 3f 3d 9e be
       -0.0272442 -0.18526123 0.09376009 -0.30906102
000100 34 d8 3a 3e b4 47 e9 bd 0c 34 05 bf ce 0d 01 3e
       0.18246537 -0.113906294 -0.5203254 0.12602922
000110 70 09 a7 3e ca e4 70 bd 23 a8 f3 bd e4 fb 06 3f
       0.32624388 -0.05881194 -0.11897304 0.52728105
000120 a7 f8 1e be 1e e2 9f be 1e 39 9f be 24 aa 9a bc
       -0.15524541 -0.312272 -0.31098264 -0.018879957
000130 6a 27 6d be e8 25 9a bc f8 b2 d0 3c 42 31 33 3e
       -0.23159567 -0.018816903 0.025475964 0.17499259
000140 10 b6 47 3e e4 7e 3b 3e e4 70 9b 3e 74 8c 1e be
       0.19503045 0.18310124 0.30359566 -0.15483266
000150 d3 66 43 3d 3d 81 ef bb 58 1a 17 be 98 c7 49 3e
       0.047705483 -0.0073091076 -0.14756143 0.19705045
000160 28 70 47 3d c9 37 a7 be
       0.048690945 -0.32659748

decoder.gru.weight_ih_l0 f4 [90, 1]
000000 67 36 9f 3d 21 9b 52 3e 60 1a 1d 3e 85 64 bc 3e
       0.07774048 0.2056699 0.15342093 0.3679544
000010 b3 32 af be bb 26 a3 be 62 19 12 bf 21 50 0d bf
       -0.34218368 -0.31865487 -0.5706998 -0.5520039
000020 58 71 0f 3e 4c 0f 83 be 1b 83 fa be 37 36 09 3f
       0.14008081 -0.25597608 -0.4892815 0.5359835
000030 4c 1f 25 3e fe 1d ab 3d 22 a4 e1 be 60 ee b1 3e
       0.1612522 0.0835533 -0.44070536 0.34752178
000040 c5 a3 47 bf f0 67 40 3e 41 1f 3c 3e 41 49 98 3e
       -0.7798427 0.18789649 0.18371297 0.29743388
000050 2e a7 e2 3e 1f 99 a5 be b5 af 40 be 31 41 80 3f
       0.44268173 -0.32343385 -0.18817027 1.0019895
000060 36 b7 84 be 8d 7b 94 bd 3b b9 07 be 34 e5 95 3f
       -0.2592103 -0.07250128 -0.13254254 1.1710572
000070 dc 03 bf bd 5c 59 13 bd f7 1b b4 bc 39 a2 9b 3d
       -0.09326908 -0.03597389 -0.02198599 0.07599301
000080 e2 6d 69 3d 4a fd 8e 3d 67 6c 98 3d 10 85 5a 3c
       0.056989558 0.06981905 0.07442551 0.013337389
000090 a6 fd 6e 3e 4e 66 3c 3d b6 02 29 3e 09 35 27 3e
       0.23338947 0.045996003 0.1650494 0.16328825
0000a0 3c 5b 35 be cc ef fc be 5e 52 66 be 66 df db bd
       -0.17710584 -0.494017 -0.22492358 -0.10735969
0000b0 0b 2d c2 3d 23 87 d8 be 97 ff 28 be 7c f0 66 be
       0.094812475 -0.422906 -0.1650375 -0.22552675
0000c0 dc 0e d0 3d 2b 0f df be b7 2e 31 3f a2 82 78 be
       0.10159084 -0.4356626 0.69211906 -0.24268582
0000d0 b7 5c 39 be 26 79 fd be fe 84 99 3e ea 15 3b 3d
       -0.18101774 -0.4950649 0.29984277 0.045675196
0000e0 75 df 7a bd ed 0c e6 be 67 0a d1 bd 94 9d 37 3d
       -0.06124826 -0.44931737 -0.10207062 0.044828013
0000f0 08 e8 24 3e bf 9f b8 3c 3e b7 5e 3e 04 28 72 be
       0.16104138 0.02253711 0.21749589 -0.23648077
000100 86 14 ad bd 51 d7 1a bf 0f ea d5 3d 53 23 39 3b
       -0.0845118 -0.60484797 0.10445034 0.0028249815
000110 b3 e2 7a bd f4 8d fe bd 11 7c d8 be 6a 16 29 bd
       -0.061251353 -0.12429419 -0.42282155 -0.04128114
000120 46 b3 b1 3d 7a 22 ff bd 08 b0 96 3c 69 f8 4c 3e
       0.08676772 -0.12457748 0.018394485 0.20016636
000130 bc f5 88 3e a9 20 9b bd 21 60 64 3d 02 d2 0d be
       0.2674998 -0.07574589 0.05575574 -0.13849643
000140 04 72 b5 be cc de 6c be fb 1b bc be 59 7e 4e 3e
       -0.3543855 -0.23131865 -0.36740097 0.20165385
000150 ca b8 f8 3d f6 ac 02 bd af d7 cf bc d4 41 c8 3d
       0.12144621 -0.03190323 -0.0253714 0.09778181
000160 7a 14 50 bd 45 4a c7 3e
       -0.050800778 0.3892385

decoder.gru.weight_hh_l0 f4 [90, 30]
000000 dd f4 8f bd 45 a8 e0 3e 6d 55 af 3d 65 66 52 3e
       -0.07029126 0.4387838 0.085612155 0.20546873
000010 9b 40 f4 bc 93 7b 4e be a5 43 68 3e 7b 6a ba bd
       -0.029815963 -0.20164327 0.22682054 -0.09102341
000020 92 ef d4 be 0d 28 48 be 6e 7f e4 bd d2 70 28 bc
       -0.41589028 -0.19546528 -0.11157118 -0.010280805
000030 83 e1 43 3e 0e 58 b3 3c e5 45 a1 bd 92 55 64 be
       0.19128995 0.021892574 -0.078746594 -0.22298267
000040 05 08 4c 3e 4e c4 05 bd 8a fd e3 3c 16 a0 13 3e
       0.19924934 -0.032657914 0.027830858 0.14416537
000050 2a 0c 19 3e 22 0e 44 be 2a 93 bc be 8c 7a 82 3e
       0.14946046 -0.19146016 -0.36831027 0.2548412
000060 b0 88 44 3e 4f 8a de be ff 21 1a 3c 97 1e 86 be
       0.19192767 -0.43464896 0.009407519 -0.26195213
000070 05 de e6 3d 7f 1c 79 3e 0f 51 e8 bd 95 e6 7b be
       0.112728156 0.24327277 -0.11343586 -0.24599679
000080 f8 0f 42 3e 68 e2 06 3e 74 3e dd 3d b5 fb 83 be
       0.18951404 0.13172305 0.108029276 -0.25777975
000090 b4 39 87 3e bf ac b6 bd b2 44 e4 be 1b 9e d2 be
       0.26411211 -0.089196675 -0.4458366 -0.4113625
0000a0 44 cf cf be 6c 2d 43 bd 36 c6 f1 bd bf f5 89 3e
       -0.4058782 -0.04765074 -0.11805384 0.26945302
0000b0 a3 22 fa 3e c9 5c 64 bc 15 fc 40 be 75 a3 e4 3d
       0.4885455 -0.013938137 -0.18846162 0.111639895
0000c0 13 48 fc bd 76 27 3c bc 7b c3 63 3c 8a 8c d5 bd
       -0.123184346 -0.011484018 0.013901587 -0.10427196
0000d0 2c d8 3f be e5 7c 17 3f 65 d5 26 be 2a e6 19 be
       -0.18734807 0.5917495 -0.16292341 -0.15029207
0000e0 d8 5b fb 3e b6 8f 08 bd de 6d 2c bc 4c 96 40 bd
       0.4909351 -0.03334018 -0.010524241 -0.047018334
0000f0 71 df 46 be 79 d6 60 3e b5 ba f4 bc 97 fa 03 3e
       -0.19421174 0.21956815 -0.029874185 0.12888561
000100 2d f5 a3 be 9e 04 83 be d8 d6 f8 3e d4 44 a3 be
       -0.32022992 -0.2558946 0.48601413 -0.3188845
000110 2f 42 3d be b0 2e 08 bf e8 4a 17 bf a7 27 2b 3e
       -0.18482278 -0.5319624 -0.5909867 0.16714345
000120 1d 27 b0 be 21 2b 62 3e 9d a0 36 3f 7c a5 aa be
       -0.3440484 0.22086765 0.71338826 -0.3332938
000130 65 dd 9c be e4 67 3d 3e f1 9d 06 3f ea be 96 be
       -0.3063766 0.18496662 0.5258475 -0.2944253
000140 a6 c4 bc be 47 e3 8d 3e 29 e1 9f be d7 52 52 be
       -0.3686878 0.2771246 -0.3122647 -0.20539413
000150 b9 7e 05 3c 06 68 74 3e 97 cd 99 3e 74 4e ff be
       0.008147889 0.23867807 0.30039665 -0.49864542
000160 e3 8a 9a 3c e3 b7 7b bd 85 c4 65 bd 61 dd c4 3e
       0.018865054 -0.061454665 -0.05609562 0.3845015
000170 ad 17 30 be e8 b1 1b be 52 28 b1 be a4 9b 2c be
       -0.17196532 -0.15204585 -0.34601074 -0.16856247
000180 42 9d 04 3f 7e e4 91 3e 58 44 49 be f0 c0 e6 be
       0.51802456 0.28494638 -0.19654977 -0.45069075
000190 ae 8e c1 be a7 4b fd 3d ca 51 5e bf 99 3e ad bd
       -0.37804168 0.12367945 -0.8684355 -0.08459205
0001a0 5b 9d 8f 3e 28 22 8f 3d 13 e5 be be 4d 6d c0 3e
       0.2804974 0.06988937 -0.37284145 0.3758339
0001b0 72 1b ea 3e 91 b9 1b 3f 85 33 de bd f2 cd 91 3e
       0.45724064 0.60830027 -0.1084967 0.28477436
0001c0 f2 b0 26 bd ac e7 b0 be 02 57 7f bc 65 80 91 be
       -0.040696092 -0.34551752 -0.015584709 -0.2841827
0001d0 94 a5 ff be 1e c0 a8 bd 2e 8a d7 bd 48 43 ef 3d
       -0.49931014 -0.082397684 -0.105244026 0.11682755
0001e0 38 a9 e5 bd d4 75 a3 be 33 b0 09 bf e4 95 ff 3d
       -0.112139165 -0.31925833 -0.53784484 0.12479761
0001f0 ed 89 a0 bc 0b 2c 04 bd ce 41 34 be d9 bc 29 bf
       -0.019597018 -0.032268565 -0.17603227 -0.66303784
000200 d8 8a 05 3e 6a ac a5 3e a9 b2 1c be 2a 44 e0 3e
       0.13041246 0.32358104 -0.15302528 0.43802005
000210 91 4e bb be 8b 20 06 bd 09 28 85 3e c5 57 81 be
       -0.3658338 -0.03274588 0.26007107 -0.25262275
000220 d3 5e 1a 3c 20 7e 69 bb 05 ba 3c 3d e0 3f ab 3e
       0.009422022 -0.0035628155 0.04607584 0.3344717
000230 cf c3 78 bd 2f b3 d3 3e 92 59 0f be 5f 98 16 bf
       -0.060733613 0.41347644 -0.13999012 -0.5882625
000240 1b 20 0a be 32 a6 9e 3e 63 08 75 3e 75 8c c0 3c
       -0.1348881 0.30986172 0.2392898 0.023504475
000250 8d 5b c6 be d6 c8 a0 be d2 74 61 3e 79 4c 9d bc
       -0.38741723 -0.31403226 0.2201722 -0.019201504
000260 33 ef b9 3d 0b b9 47 be e6 0b 93 3d 8f 55 8b be
       0.09078827 -0.19504182 0.07180004 -0.27213714
000270 da 90 cb bd 87 a8 95 3c 8a aa f7 bd 53 b0 34 be
       -0.099397376 0.018268837 -0.120930746 -0.17645387
000280 2f 8a ef be 40 2e 49 3e bd df ed bd f0 56 c1 3e
       -0.46785113 0.19646549 -0.1161494 0.3776164
000290 ec e1 06 bf 2d bd 2a 3e 10 37 0a be b1 75 db 3e
       -0.5268848 0.16673727 -0.13497567 0.4286323
0002a0 75 a8 94 3c a4 8e 06 be f5 67 0b be 00 f7 1b be
       0.018146733 -0.1314035 -0.13613875 -0.15230942
0002b0 0c b8 3c 3e a8 bb 02 bd c9 18 cc bd 93 83 0e be
       0.18429583 -0.031917244 -0.09965665 -0.13917379
0002c0 bb 59 01 be d0 9b 14 3d 21 61 29 bd 81 78 a9 3e
       -0.12631886 0.036281407 -0.041352395 0.3309975
0002d0 e6 fb 60 be bf 2e e9 bd a5 2d 95 be 5b 06 2a be
       -0.21971092 -0.11385869 -0.29136387 -0.16603987
0002e0 19 55 65 3e 8e f2 58 3e 58 ee 13 bd a2 55 06 bf
       0.22395743 0.21186277 -0.036115974 -0.52474415
0002f0 59 42 cd bd f9 f2 57 3c 2d ec 3d 3e e5 11 88 be
       -0.100224204 0.013180488 0.18547125 -0.26576152
000300 3f 30 bd bd 95 ea c8 3e af 89 02 3e 31 0d 02 be
       -0.09237718 0.39241472 0.12747835 -0.12700345
000310 b3 ac 2a be 01 08 7d bd 30 77 d5 3d e8 f8 e7 3e
       -0.16667442 -0.06177521 0.10423124 0.45307088
000320 ae b8 ff bd 82 7d 86 3d f4 08 7f bd 7f 1a 88 3d
       -0.12486397 0.065669075 -0.062264398 0.06645679
000330 01 9c 26 be 3a 31 a6 bd d1 f7 c5 3d ec 62 6d bd
       -0.16270448 -0.08114858 0.09666408 -0.057955667
000340 f9 36 a8 3e d1 55 cc be 07 e0 20 3e 77 a1 2a be
       0.3285444 -0.39909223 0.1571046 -0.16663156
000350 e4 e7 1c be 6d 5f ef 3e 66 a5 2e be e1 af e9 3d
       -0.15322834 0.46752492 -0.17055282 0.11410499
000360 d6 f0 3d be 3a dc af bd 46 00 fe 3d bd 58 1c 3e
       -0.18548903 -0.08586927 0.12402396 0.15268226
000370 44 c0 9a bd cf ff 8f 3d 63 01 06 3e bd 0f 48 be
       -0.07556203 0.070312135 0.13086466 -0.19537254
000380 fb a6 08 be 00 52 9f 3d 80 6a e3 3e 9f 58 b1 3d
       -0.13344948 0.07779312 0.4441719 0.08659481
000390 ac 1d 0c 3e 5d 93 9d 3e c6 f5 24 bf c1 7b d4 3d
       0.13683194 0.30776492 -0.6443752 0.10375167
0003a0 09 9d ee bc 44 b2 dc 3d 19 19 bd bd a5 92 a5 be
       -0.029127615 0.10776189 -0.092333026 -0.32338443
0003b0 fb 69 e2 bd 1f 60 fa 3e 11 ed fd bd 6a 6a d5 be
       -0.110553704 0.4890146 -0.123987325 -0.4168275
0003c0 9f f0 2d be 68 8e 3a be 69 f2 76 bd 85 6c bd bd
       -0.16986321 -0.18218386 -0.060289774 -0.09249214
0003d0 4f 6a 53 be 16 ea 8f 3e ed 66 a1 3e a1 81 3a 3e
       -0.20646022 0.2810828 0.3152384 0.18213512
0003e0 62 6b 9c be e5 48 ac 3e 96 67 28 bd d2 36 03 3e
       -0.30550677 0.33649364 -0.041114412 0.12813881
0003f0 0f 3d d9 bd 80 51 8c 3e 16 d4 0b 3e 01 84 43 be
       -0.10607349 0.2740593 0.13655123 -0.19093324

decoder.gru.bias_ih_l0 f4 [90]
000000 6c 1c db 3d 9c 47 f7 3d ed 7d 5e bd 7a ca c3 3e
       0.106987804 0.12074205 -0.05431931 0.38240415
000010 f9 5b ba 3c 16 e9 bc 3e 33 36 8f 3e cf 05 53 3e
       0.022748934 0.3689658 0.27971038 0.20607685
000020 1f fd 58 bd d6 d4 42 be 8e 61 60 3c 85 64 ef 3e
       -0.05297577 -0.19026503 0.013695134 0.46756378
000030 2f 54 ae 3e d6 53 9f 3d 24 95 02 3e a2 45 04 3d
       0.34048602 0.07779662 0.12752205 0.03229297
000040 e9 f2 ba bd ff df 15 be 48 cd 51 be 58 7d 63 3e
       -0.09128363 -0.14636229 -0.20488465 0.22215784
000050 b9 bd e8 3c f8 98 1e bd 64 35 52 3e 63 4c 03 3f
       0.02841078 -0.0387201 0.2052818 0.5128843
000060 5e 4d 4a be a3 40 fc 3d b9 1a 3d be 7a 03 d3 3d
       -0.19756076 0.12317016 -0.18467225 0.103033975
000070 ae 09 81 3e 87 c6 5d 3e 6b 57 55 be 8b f0 95 3e
       0.25202698 0.21657763 -0.20834129 0.29285082
000080 75 5c 06 be 60 9c eb be bb df ba 3c 93 d4 a3 bd
       -0.13121207 -0.46017742 0.022811761 -0.0799953
000090 ab 2e 80 bd a4 4c c7 bd 14 55 1a 3e b8 46 b2 3d
       -0.06258901 -0.09731415 0.15071517 0.08704895
0000a0 3d f0 b1 be af b7 cb bc be 93 2e be 6f d7 8c 3e
       -0.347536 -0.02486786 -0.17048547 0.27508113
0000b0 d7 ef 17 3d 04 21 c4 bd ff d7 24 3e cb 1e c3 3d
       0.037093963 -0.0957661 0.16098021 0.09527358
0000c0 53 47 99 3e 16 bf 82 bd d4 3f 3b be 20 20 38 bd
       0.2993723 -0.06384103 -0.18286067 -0.04495251
0000d0 64 8b f1 3c 19 f4 3d 3e 52 c1 7b 3e 56 85 a4 3d
       0.029485412 0.18550147 0.24585465 0.08033244
0000e0 b2 5b 32 3e c8 28 3f 3d 00 1e 60 3d 08 6e 7a be
       0.17417791 0.04666975 0.05471611 -0.24456036
0000f0 cc 68 0d be a3 d3 61 3e bf 0d 2a be a5 fe 86 3e
       -0.13809508 0.22053389 -0.16606806 0.26366153
000100 7e 7c c9 3d 10 d1 ff bd 2a 2f 1f be 09 6a 1c 3d
       0.09838198 -0.124910474 -0.15545335 0.03818706
000110 32 98 7a bd 7e 1a 03 be c2 8f 14 be de ab bb bd
       -0.0611803 -0.12803075 -0.14507964 -0.091636404
000120 f5 72 25 bd a1 96 45 3e 4e e1 8c bd 16 44 8a bd
       -0.040392835 0.19295742 -0.06878911 -0.067512676
000130 f3 1a 12 3d 86 3c 04 be 3b fe 89 bd 55 9e 43 be
       0.035670232 -0.12913713 -0.06737944 -0.19103368
000140 ac 9f 90 3e d5 41 bc bd 75 eb c3 3d 7f 9d 83 bd
       0.2824682 -0.09192244 0.09566394 -0.06426524
000150 c6 ad 80 bd 9d 65 a2 bd cd c7 a3 3d e9 65 67 3d
       -0.06283145 -0.079295374 0.07997093 0.056493673
000160 9a c0 68 3d 13 f6 10 bc
       0.056824304 -0.008847731

decoder.gru.bias_hh_l0 f4 [90]
000000 c0 37 9a 3e ac cf 4b bd 67 a5 48 3e 6e c3 d0 3e
       0.3012066 -0.0497586 0.19594346 0.407741
000010 47 12 21 3e 62 73 e7 3e 19 ac 9a 3d b3 02 76 3e
       0.15729629 0.45205218 0.07552356 0.24024467
000020 73 c6 1e bd 92 d3 1d 3e ee a8 b9 3d f5 88 13 3f
       -0.038763475 0.15412739 0.09065424 0.57630855
000030 9a e8 7c 3d 1b 7e 17 be 7f 40 3a 3e 16 1e 8d 3b
       0.061745264 -0.14794199 0.18188666 0.004306565
000040 cf ec ba bd 2b d8 35 be d4 0a 11 be 78 d3 15 3e
       -0.09127199 -0.17758243 -0.14164287 0.1463145
000050 df 25 3b 3e db 97 28 3e 00 10 36 3e 75 b5 6f 3e
       0.18276165 0.16464178 0.17779541 0.23409064
000060 81 70 5e 3d 7d 57 a6 bd a9 43 8f bd c9 c3 fc 3d
       0.05430651 -0.08122156 -0.06995327 0.123420306
000070 66 0e ae 3e 2e 4a 93 3e f5 ea 03 be e3 19 98 3e
       0.3399536 0.28767532 -0.12882598 0.2970725
000080 79 bc 9b bd 40 58 29 be be b7 af 3d 12 90 68 be
       -0.07604308 -0.16537571 0.08579968 -0.22711208
000090 3a 5e 41 be dc 41 31 bd a2 06 2c 3e a6 14 0d 3d
       -0.18883601 -0.0432757 0.16799405 0.03444352
0000a0 2a 4e 23 be fa 56 87 bd 98 7a 84 bc e3 b2 d8 3d
       -0.15947786 -0.06608386 -0.016171739 0.10580995
0000b0 63 c6 a8 bd 2a 81 a5 bd 41 e3 a1 bd 3a 45 04 3d
       -0.08240964 -0.08081277 -0.07904673 0.032292582
0000c0 31 52 99 3e d3 d0 95 bd ce 19 5d be 2a a6 5f be
       0.2994552 -0.07315221 -0.21591875 -0.2184073
0000d0 fe c7 80 3e 51 a5 0f be b2 01 d2 3d c6 cf ad 3e
       0.25152582 -0.14027907 0.102542296 0.3394758
0000e0 e2 fe 44 3e 3c dc 01 3e 85 81 0c 3e 88 d4 51 be
       0.19237855 0.12681669 0.13721283 -0.2049123
0000f0 59 a9 16 be 1e 4a 45 bd e2 2f 84 3d 9e 34 32 3c
       -0.14713039 -0.048166387 0.064544454 0.010876803
000100 e1 f1 0d be fb 75 78 bd 69 a7 0c 3e fe ad 1d 3d
       -0.138618 -0.06065939 0.13735737 0.03849601
000110 dd 0d 37 be 51 95 51 bd 29 40 58 3e 3a 8b 15 bd
       -0.17876382 -0.05116779 0.21118225 -0.03650973
000120 d5 f3 f3 3c 6f 00 c1 3d d7 b9 c4 bd 94 bd 84 3d
       0.029779354 0.09423911 -0.09605759 0.06481472
000130 f8 eb 08 be 75 84 c9 3d a0 52 29 3c 42 f6 32 bd
       -0.13371265 0.09839717 0.010334641 -0.04369188
000140 bd a6 a5 be 1b f1 15 3d 29 bd c6 3d fe e2 40 bd
       -0.32353774 0.03660689 0.09704048 -0.047091477
000150 40 5d c9 be 0d 66 10 be de 45 bf bc e0 ea 90 be
       -0.39328957 -0.1410143 -0.023348745 -0.28304195
000160 77 7d 05 3d df 71 20 be
       0.032590356 -0.15668438

decoder.fc.weight f4 [1, 30]
000000 9b 6b 33 bf 12 16 06 3f 90 a4 0e bf 6a 58 1d 3f
       -0.7008607 0.52377427 -0.5571985 0.61463034
000010 f7 c1 67 bf 53 bf 5a bf e9 d4 48 bf 76 04 4a bf
       -0.9053034 -0.8544819 -0.78449875 -0.78913057
000020 28 18 f7 be 4b 49 23 bf 3b e0 57 bf bd 2a 13 3f
       -0.48260617 -0.6378371 -0.84326524 0.5748709
000030 d7 bc 1e bf 2a fd 31 3f bf c4 30 bf 0f be 3b 3f
       -0.62006897 0.6952692 -0.6905021 0.7333688
000040 e4 fa 4a bf b7 e8 22 3f ae ed db 3e ff 41 29 bf
       -0.7928908 0.63636345 0.42954773 -0.6611633
000050 3a b1 56 3f 08 e3 29 3f 23 dd 3b bf 2c 38 20 bf
       0.83864176 0.6636205 -0.733843 -0.6258571
000060 00 49 75 3f 74 04 5c 3f 86 a7 53 3f a6 55 6a 3f
       0.95814514 0.85944295 0.82677495 0.9153694
000070 5d 86 39 bf 67 dd 32 bf
       -0.7247065 -0.69869083
