autoencoder_model/edges_only/test_vae_model.pt (torch, 6463 bytes, 10 tensors)

encoder.0.weight f8 [8, 8]
0	0xbfdc456dbee5c9ed	-0.44173759119362793
1	0xbfd22a092ad31d99	-0.2838156622132942
2	0xbfb65eceb6604ae4	-0.08738414719145343
3	0x3f9bb9a4780b02f1	0.02707535727199945
4	0x3fcd731e3d153cb6	0.2300756262070302
5	0xbfadd1468cd8980c	-0.05823727101623896
6	0xbfc88127e85abce7	-0.19144152493888741
7	0xbfd682cfca2029b9	-0.35173411120254233
8	0xbfc362ca80dce05b	-0.15145236293915584
9	0x3fdc7295a585c5c1	0.4444936863356724
10	0x3fd38a947c3e60dd	0.3053332532231375
11	0xbfcb27ab03acd4b8	-0.21214807204674968
12	0x3fc85d6da96d44ec	0.19035120747370315
13	0x3fc57ab62e3fdbf0	0.16780736215852654
14	0xbfb96e129f85024b	-0.09933582682152424
15	0xbfc6b387be8eb606	-0.1773538284736988
16	0x3f80c3d104fbf531	0.0081859902998028
17	0xbfc48fc33431a645	-0.16063728378803624
18	0x3fde0c4632bc4fc3	0.46949915842673934
19	0x3fc37a2685569f53	0.1521652365747693
20	0xbfd3b51f523e7366	-0.30792983085284786
21	0xbfc81f3f7f396da9	-0.18845361435056177
22	0xbfd6e1603b7ffda7	-0.3575058537535036
23	0xbfa40f34be56cbe8	-0.03917851279711454
24	0xbfd1476000e8c9a5	-0.2699813851242204
25	0x3fb6a36c557e82f8	0.08843113982448958
26	0x3fc07925be30f9f6	0.12869712626157054
27	0xbfdbd7fc3ef168e3	-0.43505769869592664
28	0xbfd34f9c86fbe1a6	-0.3017340963556542
29	0xbfb28a85a397a7f1	-0.07242617839770539
30	0x3fd68e57e6360732	0.3524379490046271
31	0x3f900a93f115c4fa	0.015665351476347823
32	0x3fc6145e44453bd0	0.17249658902662057
33	0x3fd4ba5fb75c0453	0.3238753595943013
34	0xbfd27f7802fc3ee1	-0.28903007785355156
35	0x3fc5788927315c07	0.16774095929824304
36	0xbfbf1e522e6b94cd	-0.12155641206080077
37	0xbfd8a96b931ebba2	-0.3853405892104381
38	0xbfb39c2888bba599	-0.07660153711517238
39	0xbfd25248c96dcabd	-0.2862722365454536
40	0xbfb3e7e2656a6017	-0.07775702453579957
41	0xbfa67f3f340c1489	-0.043939566710869356
42	0x3fd2d8a2e57a71ab	0.2944724312781328
43	0x3fa93b6a439d5d2b	0.04928142619490424
44	0x3fd13787cb3cbea7	0.2690143093813994
45	0xbfda7ec032ea62cc	-0.41398625347350726
46	0x3fd766c456206164	0.36564739619054465
47	0x3f779f47c76c242a	0.005767135988898034
48	0x3fb1f0fff2b71253	0.07008361507093612
49	0xbfc3992febd8deef	-0.15311240211462215
50	0x3faaf0c98ee18e70	0.0526183115878468
51	0x3fc87e46e096c15f	0.1913536640763693
52	0xbfcbbb05f2c8bc2c	-0.2166449962109892
53	0x3fd3e03d4c0ea5c9	0.3105614893671285
54	0x3fd36913f0d0bb55	0.3032884456360326
55	0xbfdfb0aedff933ef	-0.49515888092429255
56	0xbfd852b526a269e8	-0.3800480725564328
57	0x3fca5bd6c74795e4	0.20592770319414833
58	0xbfb7eff84070eca1	-0.09350539754170707
59	0x3fe16b02fabf0b4d	0.5443129441631328
60	0xbfcd12c64b23c65a	-0.2271354548352516
61	0x3fb2d4f98c28e22e	0.07356223747127252
62	0xbfb66c5666cef4f2	-0.08759059915515247
63	0x3fc234500a48df18	0.14222145559482935

encoder.0.bias f8 [8]
0	0x3fe01ec8b3617e9d	0.5037578109294888
1	0xbfcb5fc929c87629	-0.21386065044582495
2	0x3fc76799c0cc431e	0.18284913934669417
3	0x3fb47a8a8a145b16	0.07999482985574632
4	0x3fd05694bdf2748f	0.2552844862892209
5	0xbfccdb756d241c25	-0.22544734791901636
6	0xbf9ef84f462ef517	-0.03024410119882245
7	0xbfb244ab6d6fd00a	-0.07136031553073977

decoder.0.weight f8 [8, 8]
0	0x3fe72922e66f11e3	0.7237715244924029
1	0xbfd0890e6722fad0	-0.25836525031983815
2	0x3fd8fdba08e4c548	0.3904862486698062
3	0xbfcd793012b6bc43	-0.23026085771332036
4	0x3fc03abcc6eeb963	0.12679252351285716
5	0xbfc90564cae10011	-0.1954771032924332
6	0xbfc61f72561c4cb4	-0.1728346748792312
7	0x3fdea32ae9e1e95f	0.4787089618690938
8	0xbfc08a53dd9ff6a3	-0.12922142335439898
9	0xbfc94f450aa9a25f	-0.1977316190780298
10	0x3f8c2f506018bc2d	0.013762119228969716
11	0x3fd1064574f8a2e8	0.26600777075741044
12	0x3fd9479bb5080972	0.3949956195721348
13	0x3fdb5e83d1cc3398	0.42764373291066127
14	0x3fde0b7d05ed7482	0.4694511945616072
15	0x3fe6405d1e628cbc	0.6953569024521111
16	0x3f9c4677399b410d	0.027612555399913186
17	0x3fd7df336d1295f9	0.37299810077305967
18	0x3fc5cac2cce29f66	0.17025027279054966
19	0xbfcb41298713b0c3	-0.21292609305908713
20	0x3fe5673e3eda1b93	0.6688529231622503
21	0xbfce1e7b012f631d	-0.23530519063822278
22	0x3fdde8d895bded69	0.46733679412110135
23	0xbfdbf572cee31074	-0.43685598567777295
24	0x3fcdb7c595752de0	0.23217077062359603
25	0x3fd0d914b23c4b4e	0.2632495632725992
26	0x3fe7cbbaf643dc26	0.7436194238533786
27	0x3fe46b5d88076298	0.6381061226666871
28	0xbfd9e58e7377addf	-0.40463601375696884
29	0xbfbb719714e9f328	-0.10720199833481259
30	0x3fd865d57e83df36	0.3812154517649903
31	0xbfb918fb6ef39ef4	-0.09803744753628135
32	0xbfe5adcdee090031	-0.6774663590549662
33	0x3fc80b24a65885d9	0.18784006235459463
34	0x3fe4d8bdf0da223e	0.6514577583448682
35	0x3f795b438e0fa096	0.006190551649503237
36	0x3fda55e9546fe015	0.411493618448277
37	0xbfb72d6c2643b44c	-0.09053684171858939
38	0xbfe8dcf2603dcd96	-0.776971042605896
39	0x3fcecebd7927c073	0.24068420806679888
40	0x3fca0ce6510f5513	0.20351866682055028
41	0x3fede3121583e806	0.9339685840816407
42	0xbfc710155b211408	-0.1801783270804267
43	0xbfdeec4a81f9bcc8	-0.4831720608990051
44	0xbfca15222a28f9c9	-0.2037699418887782
45	0x3fd529fa369fdf63	0.33068709692405757
46	0xbf910c01e1762328	-0.016647366891933718
47	0x3fd90fa3b93daf1e	0.39157956209122513
48	0xbfda48b9a9d48036	-0.4106887968537224
49	0xbfd2b8facc39b71f	-0.2925402635945477
50	0x3fc7db0ad83571c8	0.18637214238232347
51	0xbfe70e956d4e321e	-0.7205302367088426
52	0xbfd2d47715f2926f	-0.29421784537615897
53	0xbfe29e9aea79a7b4	-0.5818609790414855
54	0x3fdb731e07dc96a5	0.4289012028478772
55	0x3fc91abce8f932bd	0.19612847686439308
56	0xbfca7e0d3b8748c9	-0.20697179228461085
57	0xbfbbd1d734282c67	-0.10867066405642022
58	0x3fd9cd60ba23ceef	0.4031602685711126
59	0xbfd708975f3d2d2e	-0.3598993711536477
60	0xbfd404236715c2c7	-0.31275258128065925
61	0x3fe5e6ae280f2071	0.6844092161563947
62	0x3fba1b766c84b8f1	0.10198154591919086
63	0xbfcea1dc5910883a	-0.23931459759575252

decoder.0.bias f8 [8]
0	0xbfd1aaa843a3b562	-0.2760410938779697
1	0x3fa463bbde78cd9d	0.03982340899201662
2	0xbfc4f13ac8abde15	-0.16361174391180158
3	0x3fc18c3c1ea89a6f	0.1370921277713992
4	0x3fae442070a61a97	0.059113515616492744
5	0x3fb0ba041f802515	0.06533838051850112
6	0x3fc5ef5242696b7a	0.17136600725902068
7	0xbfcfbb102148c5af	-0.24789620995720216

decoder.2.weight f8 [8, 8]
0	0xbfd5243155fa7a93	-0.3303340282090314
1	0x3fea7c8482710e75	0.8276999042213463
2	0xbfbf5636305cda29	-0.12240923577051234
3	0x3fe55ab1eec7593c	0.6673211730619992
4	0xbfccc6e22e93de4a	-0.2248194434575786
5	0xbfa440e32d1a3174	-0.03955755162778277
6	0x3fe1e4a07d081adb	0.5591585580849271
7	0x3fd3eea969e9bd8e	0.3114417585665813
8	0xbfcd95e7e7e27a72	-0.23113726446623023
9	0x3fd716ddc6a7f8d7	0.3607706489564299
10	0x3fcc28d5116b2712	0.21999610281482568
11	0xbfc08714a8b8baf9	-0.12912233579978485
12	0x3fc35663a38cadd7	0.15107388959709908
13	0x3fbda03ee35f569d	0.11572640467724189
14	0x3fe5da7224255f8d	0.6829157548881867
15	0xbff3193de1263f30	-1.1936625285051825
16	0xbfe8e0f9118fbb67	-0.7774625151631483
17	0xbfe67548b0d28dd1	-0.7018168881954187
18	0xbfe1fadfa8eab494	-0.5618742274433708
19	0x3fe098cd69360696	0.5186526350882612
20	0xbf99cc24f9b48986	-0.025192811718747453
21	0x3faf6ac6d71b32bd	0.061361516721807764
22	0x3fd6da914b0f926a	0.3570903046623132
23	0xbfdd0734921332c0	-0.453564779902802
24	0x3fd26870b349642d	0.28762452610459627
25	0x3fbfc81b25251897	0.12414712578638142
26	0xbfe8f5de1336ef37	-0.7800131202015795
27	0x3fdc900d2cf14507	0.44629220379745543
28	0x3fd4427c627713e1	0.3165579759191229
29	0x3fe5e307033ff933	0.6839633048510109
30	0x3fc092671996bc6e	0.1294678568787932
31	0xbfdc9a225db9c748	-0.44690760758304693
32	0x3fccba3f1958214b	0.2244337915183315
33	0x3fbdb067322d6433	0.11597294783622729
34	0xbfe1271ec982e6d2	-0.5360254226463559
35	0x3fb5042e8f2ef95d	0.08209506030741438
36	0x3fa032eb20270109	0.03163847701535089
37	0xbfedec5d3cf6e66a	-0.9351030531608562
38	0xbfc7c39a6004e4bb	-0.1856568306773506
39	0xbfd377afe59787b0	-0.3041801206692254
40	0xbfdec57145e3a618	-0.48080093217012765
41	0x3fc8271f175c2651	0.18869389191267996
42	0x3fc7c8bd8ed732fc	0.18581361269607288
43	0x3fca9bdd7f9a974d	0.20788162928254864
44	0x3feed6fea023df98	0.9637444617974209
45	0xbfb8880fe813e861	-0.09582614341698693
46	0xbfbcdc6562785819	-0.11273797658972774
47	0x3fbf3b6cbc395ba3	0.122000499680651
48	0xbfde9115f87fbd0a	-0.47760533587911935
49	0x3fd73c437cf2d4d5	0.36305319978721445
50	0xbfe759d137525f2b	-0.729714019823381
51	0xbfe6a1f7b380907a	-0.7072714334394867
52	0x3f9ec3657262c601	0.03004225264220928
53	0x3fbbc988fb128c41	0.1085439312906127
54	0x3fb56c48c5dfb9e9	0.08368353682428843
55	0x3fc26d9b305d6d99	0.14396991597719191
56	0xbfe47484779272bf	-0.6392233214752067
57	0x3fd959a2a5e3ea43	0.3960959072134395
58	0x3fab23dec231eaf5	0.05300804253143624
59	0x3fcaf54145d29616	0.21060958775812882
60	0xbfce7d14f9591cef	-0.2381921975631722
61	0x3fcb4ca325afbdef	0.2132762846008371
62	0xbfe74e95b68b784d	-0.7283428731277667
63	0xbfe2a1f3537fda5a	-0.5822693472717433

decoder.2.bias f8 [8]
0	0x3fd5108b3988c7c1	0.32913475626548566
1	0x3fbe93baeff5cb5c	0.11944168432618824
2	0x3fb35a3626e8081a	0.07559526872503888
3	0x3fca9ebd93e4aeb0	0.20796937676765515
4	0x3fddc95b377bf22f	0.4654148141706029
5	0x3fd8361171de533c	0.3783000576016098
6	0x3fd80da47b9a7dcb	0.3758326727929357
7	0x3fd332a663c7a500	0.2999664282238683

mu.weight f8 [8, 8]
0	0x3fe586f03b8e36a4	0.6727219737237715
1	0xbfe1d164aa711c75	-0.5568106965009877
2	0x3fcda70928c9345c	0.23166002742292136
3	0xbfb8482767a6905e	-0.09485098152669155
4	0x3fd9951602327b28	0.3997244855362845
5	0x3f92a7806ab60d51	0.01821709300339808
6	0xbfe5f6f5e1a762ee	-0.686396542291815
7	0x3fc2b7f338f8da7f	0.1462387111839298
8	0xbfd88685283bf389	-0.3832104580795251
9	0xbfc4bae8788db70f	-0.16195398222355847
10	0x3fe0582a175a9479	0.510762258160539
11	0x3fd0f0a12e474d35	0.26468686599146746
12	0xbfceca07333699a9	-0.24054040909431976
13	0xbfdb9e89997f24d6	-0.4315513609877376
14	0xbfa8b287179c3e93	-0.04823705828868898
15	0x3fe461998ce721ed	0.6369140388497364
16	0x3fd42d6fb3e48883	0.31527321403167025
17	0x3fb22f9a1923a5c0	0.07103884805442018
18	0x3fc929ce2e5829b2	0.196588299397559
19	0xbfe621f21c01b928	-0.6916437670713877
20	0xbf7d8c0a37294222	-0.007213630584900462
21	0xbfe54ce17e163360	-0.6656348669654157
22	0x3fd6af9c6ce6f45f	0.35446844706513575
23	0xbfd2af2233ccc2ee	-0.29193930681780855
24	0xbfd5d0d03f05e806	-0.34086996225926247
25	0x3fbf70794e0f7ecd	0.12280996471190093
26	0xbfc3ef127b55b18d	-0.15573340437130093
27	0xbfe7ef591247060c	-0.7479672772389576
28	0xbfe77e1f5448b5d2	-0.7341457983181334
29	0x3fcf211e8b9051ae	0.2431982213462453
30	0xbfdd729dd4e67218	-0.46012063780816126
31	0x3fb3211a2730908e	0.07472384888439107
32	0x3fce01267db73bb3	0.2344101060720881
33	0x3fb3e050e44dbe57	0.0776415402776761
34	0xbfe628a2008d1f19	-0.6924600611464228
35	0x3fd3d1262bfb61b5	0.30964044852364775
36	0x3fba32c907e0f5f1	0.10233742182113993
37	0xbfe84f605da0f6d6	-0.7596895054518551
38	0xbfdde609078454eb	-0.4671652387053899
39	0x3fc6be6c1df9c524	0.17768622840552795
40	0xbfa4469afca87220	-0.03960117658809659
41	0xbff07fb7618adde1	-1.031180745148838
42	0xbfd1f4237ef59144	-0.2805260410152821
43	0x3fc74080b92c26d6	0.18165597001671213
44	0xbfd4fb9adf250a38	-0.3278567484996162
45	0xbfb8c4576982c15c	-0.0967459328264843
46	0x3fc3ecd39c22b451	0.1556648743038829
47	0xbfc69def85de47bf	-0.17669481312310428
48	0xbfe4ee4d5fdde127	-0.6540896294018567
49	0xbfb78a590b45cbd6	-0.0919547703286264
50	0x3fd191c60c94aeff	0.2745223162516907
51	0x3f90c39f7a87f9d3	0.016371242383678663
52	0x3fe0611f7f548171	0.5118558394351976
53	0xbfd3ce577d8d0a65	-0.3094691015323064
54	0xbfd1cf18a81a284b	-0.278265155947001
55	0xbfe444a8de6a72f4	-0.6333813041743199
56	0xbfdab3c0f7c3145e	-0.41722130008230873
57	0xbfa8ddf29df1981c	-0.04856832674049391
58	0xbfdf77520bd972fc	-0.4916577449528601
59	0xbfe28deba07adcfd	-0.5798242697118493
60	0x3fd9bb6bc523224e	0.4020642686050778
61	0x3fd8505f5c73de14	0.379905548368215
62	0x3fd3ef8b0b87d219	0.31149555326490624
63	0x3fe1ef6b12e60abc	0.5604758614648158

mu.bias f8 [8]
0	0x3fb69ee6c018ea17	0.08836214246631645
1	0x3f950d3d83cab6fe	0.02055832020658154
2	0xbfb032eb58c5749c	-0.0632769672133286
3	0xbfc2b756cafb03aa	-0.14622006331594878
4	0x3fb248e5598071cf	0.0714248031149005
5	0x3fac14c74c09d065	0.05484602740480752
6	0xbfacc21d1ca63ac3	-0.056168470141633196
7	0xbfc28f79cae18760	-0.1450035324697252

gamma.weight f8 [8, 8]
0	0xbf95be3078111949	-0.021233327225013175
1	0x3f74ab2fc0d2ef1e	0.005046068702707433
2	0x3f8a1f73c9a6d64d	0.01275530299322294
3	0x3fa16cde6ecc6a3b	0.03403372862358763
4	0xbf771ab7039907ea	-0.005640711687705727
5	0xbf8f9a5f383c264e	-0.01543115988126256
6	0x3f8b714f6bcb0544	0.013399715878565595
7	0xbf71d8a46ab04df2	-0.004356996777477461
8	0xbf9143397ee37663	-0.016858003968869172
9	0xbf82037f31a6ea76	-0.008795732214698076
10	0x3f9f253222a58d4b	0.030415328373590438
11	0x3fa5392159bc07d7	0.041451494411390115
12	0x3f942ac801732b69	0.01969444760178921
13	0xbf922832675dd124	-0.017731463965405272
14	0x3f8b9ebb2169af7a	0.01348634906499745
15	0x3f51b1028918994a	0.0010798001061487921
16	0x3f57a163e1ee1daa	0.0014422870078493002
17	0x3f91ac1060531232	0.017257934455090225
18	0xbf6b2b977971a117	-0.0033166845783406773
19	0xbfa0b6d09ad357e1	-0.0326447667118115
20	0xbf88161905a0e335	-0.011760898098246745
21	0x3f8282f66a4b1748	0.009038853758635348
22	0xbf2530ab253cf7bb	-0.00016166772058484415
23	0x3f92e9d39d6d7b55	0.018470102771398562
24	0xbf8228920374413c	-0.008866444330607785
25	0x3f6b80a0d7682524	0.0033572331842647452
26	0x3f92aad3dafdac42	0.018229780427116767
27	0x3f8e3c2ae163c046	0.014763197902056057
28	0xbf75873be21db872	-0.005255922240264709
29	0xbf8cfdb1a1ca7718	-0.014155757665601551
30	0xbf7911df46105e3d	-0.006120559847679949
31	0xbf86c4c1cf94b5f6	-0.01111747183548582
32	0xbf829eb658056760	-0.009091782151404437
33	0xbf74277f74e6ea57	-0.004920480611355935
34	0x3fa1e1491413a595	0.03492191667630632
35	0x3fa2d01668346674	0.036743831844614855
36	0x3f9709562aca6df5	0.022496553766002198
37	0x3f548e85e956e60c	0.0012546832780188115
38	0x3f97455c7d1a341b	0.022725529800073568
39	0xbf93b941ab75b55b	-0.019261385049892037
40	0xbf8b8507eac3c380	-0.01343733010478032
41	0x3f98dca83dbbf803	0.024279240386924538
42	0x3f907e711d79a6a3	0.01610733740236604
43	0x3fa96f621ae31a66	0.04967791155063565
44	0x3fa32306392738bf	0.03737658927603737
45	0xbf81c3f15d414c1f	-0.008674512537401978
46	0xbf8ca94d39598d5b	-0.013994792282750515
47	0xbf3080d110be66eb	-0.00025181869636413276
48	0xbf8734647cf745c5	-0.011330399573952552
49	0xbf636cac07bfa032	-0.0023711547819296403
50	0x3f8dd21f047f2e88	0.014560930561763344
51	0x3f98fdd1b811e19a	0.024405743465167974
52	0x3f6f1c3c08de7b23	0.0037976429511695927
53	0xbf91c1853de71a91	-0.017339784529918637
54	0x3f8f8ef4635b3dae	0.015409383089177133
55	0xbf937b6f7f210c14	-0.019025556692451387
56	0xbf5d173daae63f72	-0.0017755605909748032
57	0x3f7dcf09d85ff31c	0.007277525384776575
58	0xbf91ca52ad2fa4fb	-0.01737336332363258
59	0xbf9579609eb82495	-0.020970830619294906
60	0xbf885264b8dc238d	-0.011875903026082013
61	0x3f98b6ecc7790f6e	0.02413530318723594
62	0xbf3275773decc0ba	-0.00028165970973060737
63	0x3f8408d98a205fd4	0.00978250458506117

gamma.bias f8 [8]
0	0xbfb47bcf31579add	-0.08001418070453377
1	0xbfb5d5bae6a3a84d	-0.08529251223413432
2	0xbfb89ea916b592e3	-0.09617096714425659
3	0xbfb80616f022b58b	-0.09384291994748233
4	0xbfb742e4f50b4ab4	-0.09086447699091132
5	0xbfb7508bef28d0be	-0.091072793854269
6	0xbfb64158445c36a9	-0.08693458241415421
7	0xbfb8965142f6230b	-0.09604366192628448
