autoencoder_model/edges_only/vae_model.pt (torch, 45983 bytes, 14 tensors)

encoder.layer1.weight f4 [45, 62]
0	0xbcc580ca	-0.024109263
1	0xbdf64a47	-0.12025886
2	0xbcbd554b	-0.02311196
3	0x3c042c6d	0.008067233
4	0xbba71056	-0.005098383
5	0x3d04c809	0.03241733
6	0x3c0db0eb	0.008648138
7	0xbd29b744	-0.04143454
8	0xbc8aeb62	-0.016957942
9	0x398f7dd3	0.00027368832
10	0x3d654803	0.05597688
11	0xbde3bd98	-0.111201465
12	0x3b011dd7	0.0019701624
13	0x3d106ccf	0.035260018
14	0xbda91e38	-0.08257717
15	0xbd406ec9	-0.046980653
16	0xbd42eb33	-0.047587585
17	0xbd23cc61	-0.039989833
18	0x3ca31c02	0.019910816
19	0x3cf91a84	0.030408151
20	0x3d38ba99	0.04509983
21	0xbcaa2c2b	-0.020773014
22	0xbd020d48	-0.031750947
23	0x3ddf1935	0.1089348
24	0xba226bfd	-0.0006195901
25	0xbcafcf82	-0.021461252
26	0x3da274a2	0.07932402
27	0x3cd01a40	0.025403142
28	0xbda7ba68	-0.08189851
29	0xbcab22cc	-0.020890616
30	0x3d34386f	0.04399913
31	0x3dea3411	0.11435712
32	0x3ca1fc82	0.019773725
33	0xbd2ea6ab	-0.042639416
34	0xbbffb0e5	-0.00780307
35	0xbd3c3359	-0.045947406
36	0xbcb20179	-0.021729218
37	0xbdc293d5	-0.09500853
38	0xbdd636d1	-0.10459674
39	0xbdc2a074	-0.0950326
40	0xbd84fcdb	-0.06493541
41	0xbdb139d5	-0.08653609
42	0xbd62cb96	-0.055369936
43	0xbde757df	-0.11296057
44	0xbd6442ad	-0.05572765
45	0x3c40506c	0.011737924
46	0x3e1be669	0.15224613
47	0x3e6f549c	0.2337212
48	0x3e6fd255	0.23420079
49	0x3e978d19	0.29599836
50	0x3eac0fbb	0.3360575
51	0x3eb3ce95	0.35118547
52	0x3eabe335	0.33571783
53	0x3eded0d7	0.43518707
54	0x3f158a6e	0.5841435
55	0x3f158bff	0.5841674
56	0x3f3f7999	0.7479492
57	0x3f5d88e4	0.86537004
58	0x3f4e96bb	0.80698746
59	0x3f34dc40	0.70648575
60	0x3efc1833	0.49237213
61	0x3e664121	0.22485782
62	0xbd25768a	-0.04039625
63	0xbd274ef8	-0.040846795
64	0xbcb93fc5	-0.022613415
65	0xbcfc2925	-0.030781338
66	0xbd174eaa	-0.036940254
67	0xbc898f3a	-0.016791929
68	0xbc35cbe2	-0.011095973
69	0xbd589349	-0.052874837
70	0xbc11e0ac	-0.008903664
71	0xbc8324ac	-0.016008697
72	0x3ca5eb84	0.020253904
73	0x3c8e07ed	0.017337764
74	0x3ba71ecb	0.0051001064
75	0xbd146e05	-0.036237735
76	0xbcdb9821	-0.02680594
77	0x3c76fcf8	0.015074961
78	0x3cd8a1a5	0.026444266
79	0x3ae3ab45	0.0017369768
80	0x3c5a3198	0.013317488
81	0x3c913452	0.017725144
82	0xbabb2738	-0.0014278656
83	0xbbb0ea4e	-0.005399025
84	0xbc64cc83	-0.013964775
85	0x3cd33c8d	0.025785709
86	0xbb1776db	-0.0023111615
87	0x3b2b8e12	0.002617721
88	0xbbafe0be	-0.0053673675
89	0xbbefbc32	-0.007316136
90	0x3be6670f	0.0070313285
91	0x3c6b2c36	0.014353802
92	0x3bcfdf47	0.0063437554
93	0xbc72ca51	-0.014818744
94	0xbc983876	-0.01858161
95	0x3b2d6286	0.002645643
96	0xbcaf1a78	-0.021374926
97	0xbcc37a27	-0.023861958
98	0xbcb57320	-0.022149622
99	0xbc252b39	-0.010081106
100	0xbbc441b0	-0.005989276
101	0xbcef7cb6	-0.029234271
102	0xbbd2b9cc	-0.00643084
103	0xbc370d7a	-0.011172647
104	0x3cb6db12	0.022321258
105	0xbc396153	-0.011314708
106	0xbc8f76c5	-0.017512688
107	0xbc962b16	-0.018331092
108	0xbd04e07b	-0.032440644
109	0xbcaa8816	-0.020816844
110	0xbcc340f9	-0.023834692
111	0xbcb9bd4c	-0.022673272
112	0xbbec08f6	-0.0072032167
113	0xb8038ddc	-3.136495e-05
114	0xbbc687c0	-0.006058663
115	0x3a97f2a9	0.0011592704
116	0xba8f9951	-0.0010955726
117	0x391b69e4	0.00014821399
118	0xbbd07878	-0.0063620172
119	0xbbd854f9	-0.0066019264
120	0xbb4933cf	-0.0030701046
121	0xbbb4b3a5	-0.0055145794
122	0xbb7223c7	-0.0036947594
123	0xbb6f3ea9	-0.0036505854
124	0x3d9ed300	0.07755089
125	0xbc982cd0	-0.018576056
126	0x3d628100	0.055298805
127	0x3da13369	0.07871134
128	0x3d8a3575	0.06748477
129	0x3d2a4027	0.041565087
130	0x3d91bcdf	0.071161024
131	0x3d238375	0.03992029
132	0x3d7a26e8	0.06107226
133	0xbd08b528	-0.03337589
134	0x3d3c45c3	0.045964967
135	0x3c175f05	0.009238963
136	0xbd17be21	-0.037046555
137	0xba89e276	-0.0010519761
138	0x3d3c7f25	0.046019692
139	0x3c9a25fb	0.018816939
140	0x3d5fdaa4	0.05465187
141	0x3de28a8a	0.110615805
142	0x3d105dc5	0.035245676
143	0x3b050a37	0.0020300278
144	0x3da88b21	0.08229662
145	0x3e0751e3	0.13214831
146	0x3e66d2c8	0.22541344
147	0x3e524691	0.20534731
148	0x3e2c7eba	0.16845217
149	0x3e4a6225	0.19764002
150	0x3e7fdab2	0.2498577
151	0x3e797336	0.24360356
152	0x3e4b8247	0.19873916
153	0x3e27661a	0.16347542
154	0x3e33db57	0.1756414
155	0x3d5ff9cf	0.054681595
156	0x3e0bbd55	0.13646443
157	0xbc3d7943	-0.011564556
158	0xbe15317e	-0.14569661
159	0xbe6e2e9b	-0.23259966
160	0xbe4d9266	-0.20075378
161	0xbe9ee628	-0.3103497
162	0xbece0f09	-0.40245846
163	0xbefc72ef	-0.49306437
164	0xbec558d1	-0.38544324
165	0xbef4e31f	-0.4782953
166	0xbefbae4f	-0.49156424
167	0xbec5d3cd	-0.38638154
168	0xbed32e62	-0.41246325
169	0xbed24d29	-0.41074494
170	0xbebc63c7	-0.36794874
171	0xbeb22acb	-0.34798273
172	0xbeb6fe9e	-0.35741132
173	0xbe7a2703	-0.24428944
174	0xbe0d68e6	-0.13809547
175	0xbdf41e92	-0.11919893
176	0xbdff906f	-0.124787204
177	0xbdd60d34	-0.10451737
178	0xbdbfa426	-0.09357481
179	0xbd2c92e5	-0.042132277
180	0xbd64efa8	-0.055892617
181	0xbd7db41d	-0.061939348
182	0xbc600666	-0.0136734005
183	0xbd180149	-0.0371106
184	0xbcd7eb27	-0.026357247
185	0xbce9452a	-0.028475363
186	0x3b043275	0.0020171676
187	0xbcb70c77	-0.02234481
188	0x3c88ebe0	0.016714036
189	0xbc9784eb	-0.018495997
190	0xbc8352ad	-0.016030634
191	0xbc697d83	-0.014251116
192	0xbc16e7d1	-0.009210543
193	0xbd14b388	-0.036304027
194	0xbc8db521	-0.017298283
195	0xbc9e294d	-0.019306803
196	0xbbffcd62	-0.007806466
197	0xbb2867df	-0.0025696678
198	0xbc9a6939	-0.018849002
199	0xbc5a92a8	-0.01334063
200	0xbcbe4423	-0.02322585
201	0xbc05c52f	-0.008164688
202	0xba1a8080	-0.0005893782
203	0xbb69d7c4	-0.0035681585
204	0xbc1ffe47	-0.009765214
205	0xbc8d67af	-0.017261354
206	0xbbec2fc2	-0.0072078416
207	0xbc08779a	-0.0083292965
208	0xbc120e88	-0.008914597
209	0xbbb5535f	-0.0055336202
210	0xbaf50ddd	-0.0018696148
211	0xbca26860	-0.01982516
212	0x3b3824aa	0.0028098025
213	0xbc80868e	-0.01568916
214	0xbbbe3017	-0.0058040726
215	0xbc6c9a18	-0.014441036
216	0xbc908cb2	-0.017645214
217	0xba67e28c	-0.0008845709
218	0x3c135477	0.008992306
219	0xbbc4a1b8	-0.0060007237
220	0xbb966ba2	-0.0045904675
221	0x3b424dc2	0.0029648398
222	0x3be0c81f	0.006859794
223	0x3bad1066	0.005281496
224	0xbac118f9	-0.0014732174
225	0x3bd95b64	0.006633209
226	0x3c08b0e9	0.00834296
227	0x3bac17f3	0.0052518784
228	0xbb96150e	-0.0045801466
229	0x3c2f5a9f	0.010702758
230	0x3ae38a34	0.0017359913
231	0x3b73ba72	0.0037189987
232	0x3aa3dca9	0.0012501675
233	0xbb4b70e2	-0.0031042625
234	0xbb005e56	-0.0019587479
235	0xba5bba60	-0.0008381959
236	0x3b7df4b5	0.0038750593
237	0xba6c8448	-0.0009022397
238	0x3bd33584	0.0064455885
239	0x3b528620	0.0032123402
240	0x3b484745	0.0030560058
241	0x3a459c07	0.00075382035
242	0x3b8813ed	0.004152766
243	0x3b877958	0.0041343383
244	0x3b9dd0af	0.004816137
245	0x3b3d7816	0.0028910688
246	0x3b6b68be	0.0035920586
247	0x3b17db67	0.0023171545
248	0x3c256017	0.01009371
249	0x3b8f1045	0.004365953
250	0xbb94a78c	-0.0045365747
251	0xbc5bb8c8	-0.0134107545
252	0x3c8636fa	0.016383637
253	0xbcf982f3	-0.03045795
254	0xbcb4a541	-0.022051455
255	0xbca6c39e	-0.02035695

encoder.layer1.bias f4 [45]
0	0xbcc184f1	-0.023622962
1	0xbbe38ee6	-0.006944525
2	0x3e30853b	0.17238323
3	0xbd098494	-0.033573702
4	0xbc5d30f3	-0.01350044
5	0x3da33013	0.07968154
6	0xbe17fc08	-0.14842236
7	0xbe1c0880	-0.15237617
8	0x3e0a3ea2	0.13500455
9	0xbcfd64ef	-0.030931918
10	0x3dd99970	0.10624969
11	0x3f31a410	0.69390965
12	0x3de91c67	0.113823704
13	0x3e8610fc	0.26184833
14	0x3f09066e	0.53525436
15	0xbd181957	-0.03713354
16	0x3e732a96	0.23746714
17	0xbcc87340	-0.024469018
18	0x3e78e5cb	0.24306409
19	0x3f2cea32	0.67544854
20	0xbc92998d	-0.017895484
21	0x3e817ddc	0.25291336
22	0xbce73082	-0.028221373
23	0x3e610ca7	0.21977483
24	0x3d0f1a86	0.034937404
25	0x3ec9deae	0.39427704
26	0x3e23284a	0.15933338
27	0xbd13c929	-0.036080513
28	0x3e88ac9a	0.26694185
29	0xbdef4930	-0.11683881
30	0x3e9217a0	0.2853365
31	0x3e343c95	0.17601235
32	0x3e2ac403	0.16676335
33	0x3e5f4f65	0.2180763
34	0x3e4253d0	0.18977284
35	0xbd9e14e9	-0.07718832
36	0x3f2c2b0c	0.67253184
37	0xbcf662ce	-0.03007641
38	0x3e8c4f76	0.27404374
39	0x3e77c06c	0.24194497
40	0x3f1301de	0.57424724
41	0x3d72967f	0.059225556
42	0xbe03b0ed	-0.1286046
43	0x3e918df9	0.2842863
44	0x3e551183	0.20807461

encoder.layer2.weight f4 [30, 45]
0	0xbb42a024	-0.0029697502
1	0xbd559125	-0.052140374
2	0x3e03e35a	0.12879696
3	0x3c6cd257	0.014454446
4	0x3ce307e5	0.027713725
5	0xbc05e923	-0.00817326
6	0xbe1a9e5a	-0.15099469
7	0xbd998665	-0.07496337
8	0xbd5272b7	-0.05137893
9	0x3cccd447	0.025003565
10	0xbe07eb3b	-0.13273327
11	0x3dd98d04	0.106226
12	0xbd973aeb	-0.073842846
13	0xbdeb2287	-0.11481195
14	0x3e3d66ca	0.18496242
15	0x3b85e5ec	0.0040862467
16	0xbd7420c4	-0.05960156
17	0x3b4cd7bb	0.0031256515
18	0xbdc72999	-0.09724731
19	0x3e3cb369	0.18427815
20	0xbc988744	-0.018619187
21	0xbdd7da60	-0.105396986
22	0x3dfb1ce1	0.122613676
23	0x3e0717b5	0.13192637
24	0xbdd95052	-0.10611023
25	0x3e8108b4	0.25201952
26	0xbd38d657	-0.045126285
27	0x3ca1648f	0.01970127
28	0xbd9d760f	-0.076885335
29	0x3c2b8fd9	0.010471308
30	0xbd44e7ed	-0.048072744
31	0x3e19b700	0.15011215
32	0x3e327dc4	0.17430788
33	0xbdbaf9c7	-0.091296725
34	0xbd09dbc5	-0.033656854
35	0x3b4af90d	0.00309712
36	0x3e72ebbf	0.23722742
37	0x3c682f55	0.014171441
38	0xbda253cc	-0.07926139
39	0xbd9b723a	-0.07590146
40	0x3e67a0ba	0.22619906
41	0x3b411352	0.0029460979
42	0xbd29f40d	-0.04149251
43	0xbdb24a5b	-0.087055884
44	0xbd970cee	-0.07375513
45	0x3dcafa1a	0.09910984
46	0xb924e562	-0.0001572571
47	0xbc9c0b12	-0.019048247
48	0xb9558a08	-0.00020364684
49	0x38bd1e63	9.017882e-05
50	0xb99a00f4	-0.0002937388
51	0xbde7c0f4	-0.113161
52	0xbdea3959	-0.114367194
53	0x3af26ac9	0.0018494959
54	0xb984909e	-0.0002528475
55	0xbd3184cd	-0.04333954
56	0xbb01ee8b	-0.001982602
57	0xba68d532	-0.0008881866
58	0x37a1d375	1.9291163e-05
59	0xbb8b5de2	-0.004253135
60	0xb9fa625e	-0.00047757005
61	0xba2c31cf	-0.00065687014
62	0xb9218643	-0.00015404173
63	0xba2c7b72	-0.0006579674
64	0xbb4db35e	-0.0031387429
65	0xb993519a	-0.00028098823
66	0xb9488eda	-0.00019126703
67	0x3d525ac4	0.051356092
68	0x3a48f869	0.00076664105
69	0x3d84a844	0.064774066
70	0xbc94fe7a	-0.01818775
71	0xb9d5734a	-0.00040712423
72	0xb99f66a4	-0.00030403316
73	0xba40d517	-0.00073559716
74	0xbd8a9916	-0.0676748
75	0xb9a712bf	-0.0003186669
76	0x3bb6ad8f	0.005574889
77	0x3b92a800	0.0044755936
78	0xbaa9ecd2	-0.0012964255
79	0x399d6a34	0.000300245
80	0xbbdc7e40	-0.0067289174
81	0xbb81c0f8	-0.0039597712
82	0xba8dd4e8	-0.0010820897
83	0xb926dd6e	-0.00015913483
84	0xba8a82bf	-0.001056753
85	0xbbffe46b	-0.007809212
86	0x3b63d94f	0.0034766977
87	0xbdd9f355	-0.10642115
88	0xb9a29cda	-0.0003101591
89	0xb9c9d9fe	-0.00038500124
90	0xbd76a1aa	-0.06021277
91	0xba518cf1	-0.0007993719
92	0xbdd1551a	-0.1022131
93	0x3b40f34c	0.0029441891
94	0xb9d41209	-0.00040449228
95	0x3c41dc67	0.011832333
96	0xbe13ae90	-0.14422059
97	0xbe2890d8	-0.16461504
98	0x3c15a56e	0.00913368
99	0xbc280ce5	-0.010256981
100	0xbc4c86f6	-0.012483349
101	0x3de6eac3	0.11275246
102	0xbcae27f8	-0.021259293
103	0xbd6a1da2	-0.057157166
104	0x3dc46ba7	0.095908456
105	0xbd1c410c	-0.03814797
106	0xbbd5efcf	-0.0065288316
107	0x3ba5ce0a	0.005059962
108	0xbc9b6817	-0.018970532
109	0x3e48c6ae	0.1960704
110	0xbc2aa83d	-0.010416088
111	0xbd2697ec	-0.040672228
112	0xbd8d2bed	-0.06893144
113	0x3d4b07ad	0.049567867
114	0x3d077b90	0.033076823
115	0x3da0b2e4	0.07846621
116	0xbce3d4de	-0.027811464
117	0x3c9e40d9	0.019318031
118	0x3baddde4	0.0053059924
119	0xbcae5fe9	-0.021285968
120	0x3c548c5e	0.012972919
121	0xbccaa246	-0.024735581
122	0xbdc61294	-0.09671512
123	0xbd44d2ad	-0.04805248
124	0xbd3bde54	-0.045866325
125	0x3c01bf68	0.00791917
126	0x3e42262b	0.18959872
127	0x3c5f3782	0.013624074
128	0xbb7edf26	-0.003889033
129	0xbc0004f5	-0.007813682
130	0x3e23969a	0.15975419
131	0x3c32ce7c	0.0109134875
132	0xbc574b2f	-0.013140484
133	0xbcb6e34b	-0.022325179
134	0xbcc81211	-0.024422677
135	0xbd8f8985	-0.07008652
136	0x3b35558e	0.0027669403
137	0xbe35d222	-0.1775594
138	0x3b7bfbd2	0.0038449657
139	0x39e2161a	0.00043122546
140	0x3d59c75b	0.053168636
141	0xbe8d2505	-0.27567306
142	0xbdf799af	-0.1208986
143	0x3dd201b9	0.10254235
144	0x3a11b56f	0.0005558347
145	0xbc5a4068	-0.01332102
146	0x3ef015ba	0.46891576
147	0x3dd44c73	0.10366144
148	0x3e1babc1	0.15202238
149	0xbdbd9e25	-0.09258679
150	0x3b16d9ce	0.0023018005
151	0x3e69adc9	0.228202
152	0x39f9c4d0	0.00047639618
153	0x3e814c54	0.25253546
154	0x3eb2f0b8	0.3494928
155	0xbc7f56bb	-0.015584643
156	0x3e53ec75	0.2069567
157	0xbba4e3cf	-0.0050320397
158	0xbe35fc20	-0.1777196
159	0xbe8368d0	-0.25665903
160	0xbe235c66	-0.15953216
161	0x3de2069e	0.110364184
162	0x3a0f6bea	0.00054710975
163	0x3ea47db4	0.32127154
164	0xbc81a55d	-0.015825922
165	0x3e9d334d	0.30703202
166	0xbe451d41	-0.1924944
167	0xbe25b241	-0.1618128
168	0x3e426228	0.18982756
169	0x3e50704c	0.20355338
170	0xbc53081a	-0.0128803495
171	0x3e010f77	0.12603556
172	0x3bc54227	0.006019849
173	0x3e5c1621	0.21492817
174	0x3e30d9d6	0.17270598
175	0xbdfa6fd8	-0.12228364
176	0xbc2ae308	-0.010430105
177	0xbdc2efbf	-0.09518384
178	0x3e7919c2	0.24326232
179	0x3e4135d1	0.18868186
180	0xbdd48bce	-0.10378228
181	0xbcde9bec	-0.027173959
182	0xbde0cbbd	-0.1097636
183	0x3c79b946	0.015241927
184	0x3a5137b3	0.0007981017
185	0x3ce5fd47	0.028074874
186	0xbddddcb9	-0.10833115
187	0xbe4e61f6	-0.20154557
188	0x3a73369a	0.00092778506
189	0x3cba71a7	0.022759272
190	0xbdb485b4	-0.08814564
191	0x3e90ade6	0.28257674
192	0x3c2a8b74	0.010409225
193	0x3c262557	0.010140738
194	0x3dfe702e	0.1242374
195	0xbd2906b8	-0.041266173
196	0x3d509708	0.050925285
197	0x3c56c226	0.013107812
198	0x3d9d2c68	0.076744854
199	0x3eaca36d	0.33718434
200	0x3b997700	0.0046833754
201	0x3d5f9c6a	0.054592527
202	0xbdbe16dd	-0.092817046
203	0xbd187626	-0.03722205
204	0xbd1893a7	-0.037250187
205	0x3cdb9d0b	0.026808282
206	0x3c8cce26	0.017188143
207	0x3cd1bc15	0.02560238
208	0x3dd25a26	0.10271101
209	0x39f3343e	0.00046387495
210	0x3df92ca0	0.12166715
211	0xbd91bc27	-0.07115965
212	0xbdb91e22	-0.090389505
213	0x3ceebb96	0.029142182
214	0x3c140eca	0.009036729
215	0xbb53e955	-0.0032335122
216	0x3e8a8c46	0.27060145
217	0x3cbf4448	0.023347989
218	0x3d3c23a5	0.04593243
219	0x3d825281	0.063633926
220	0x3e147583	0.14497952
221	0x3c34db83	0.011038664
222	0x3c7b883d	0.015352306
223	0x3d8ccf57	0.068754844
224	0x3d2d3718	0.04228887
225	0x3e46307a	0.1935443
226	0xbc65c852	-0.014024811
227	0xbeac1cf6	-0.33615845
228	0x3c36e064	0.011161897
229	0x3aa5cb03	0.0012649003
230	0xbbd2a6c3	-0.006428571
231	0x3d60e7e2	0.05490864
232	0x3c077535	0.00826769
233	0x3c7262e7	0.014794088
234	0x3ba8fae8	0.0051568635
235	0xbddd71e5	-0.10812739
236	0xbd3af402	-0.04564286
237	0xbc978b58	-0.018499061
238	0xbbbc93af	-0.00575491
239	0xbd5f7169	-0.054551516
240	0x3d301c2b	0.042995613
241	0x3c28abf2	0.010294901
242	0x3cfdcbe9	0.030981021
243	0x3cea2d99	0.028586196
244	0xbceb2abf	-0.028706906
245	0x3c8c064f	0.017092852
246	0x3cc7c11c	0.024384074
247	0x3da23c0c	0.07921609
248	0xbd3e9b03	-0.04653455
249	0x3e60ae64	0.21941525
250	0xbde0fde4	-0.10985926
251	0xbbdba8bf	-0.0067034657
252	0x3bbf243a	0.005833176
253	0xbbc36939	-0.0059634713
254	0xbb7efc4e	-0.003890771
255	0x3d539834	0.051658824

encoder.layer2.bias f4 [30]
0	0x3eaab604	0.33341992
1	0xbb26cace	-0.002545047
2	0x3eb67e54	0.35643256
3	0x3d88b45d	0.066750266
4	0x3ebd174a	0.3693183
5	0x3e8a9822	0.27069193
6	0x3e905226	0.28187674
7	0x3e66ab60	0.22526312
8	0x3dbef55b	0.093241416
9	0xbcac6280	-0.021043062
10	0xbc05365d	-0.008130637
11	0x3e8fcf94	0.28088057
12	0x3e90e642	0.28300673
13	0x3e8c32a1	0.27382377
14	0x3eba2e48	0.36363435
15	0x3ebba287	0.36647436
16	0xbbfad153	-0.007654348
17	0x3eac52cb	0.33656916
18	0xbd093648	-0.033499032
19	0x3f443a3d	0.76651365
20	0xbe080894	-0.13284522
21	0x3eac5bc3	0.3366376
22	0x3c6d315e	0.014477102
23	0x3d9880e0	0.07446456
24	0x3eab0d77	0.3340871
25	0x3eae592f	0.34052417
26	0x3e6b2845	0.2296458
27	0x3c5a134d	0.013310266
28	0xbd40d882	-0.047081478
29	0x3eaaa61f	0.33329865

fc_mu.weight f4 [20, 30]
0	0xbd9064e1	-0.07050491
1	0x3bf4fc97	0.0074764
2	0x3d1cf83e	0.03832268
3	0x3d3c0242	0.04590059
4	0x3c208a39	0.00979858
5	0xbcb4b294	-0.022057809
6	0xbc24fefa	-0.010070557
7	0xbcca517e	-0.024697062
8	0xbcbe136f	-0.023202626
9	0x3c4d536b	0.012532095
10	0xbb48b81b	-0.0030627314
11	0xbce3f060	-0.02782458
12	0xbbf45512	-0.0074564302
13	0xbcc1e336	-0.023667913
14	0x3d0a03df	0.033695098
15	0xbc87d278	-0.016579852
16	0xbb9621b2	-0.0045816535
17	0xbd3a0289	-0.045412574
18	0x3c1b62ef	0.009484037
19	0xbd1451ed	-0.036210943
20	0xbdee6fdf	-0.116424315
21	0x3cecdfc1	0.028915288
22	0x3b1fb144	0.0024367133
23	0x3d203d9a	0.039121248
24	0xbb9532a6	-0.004553157
25	0x3b66e780	0.00352332
26	0xbb2f1833	-0.0026717305
27	0x3c1e7840	0.0096722245
28	0x3be1b350	0.006887831
29	0x3c8dd77d	0.017314667
30	0x3cc2e5fb	0.023791304
31	0x3c816d28	0.01579912
32	0x3d2a21d0	0.041536152
33	0x3cc4ea75	0.02403758
34	0x3d0086b3	0.03137846
35	0xbb27ba8b	-0.0025593366
36	0xbc8e097f	-0.017338512
37	0x3c6036ee	0.013684971
38	0x3c11c7e5	0.008897756
39	0xbc0d5547	-0.008626289
40	0xbb96f17d	-0.0046064244
41	0xbd52c909	-0.051461253
42	0xbcaea1d0	-0.021317393
43	0xbc439cd3	-0.011939245
44	0x3c2ceb79	0.010554188
45	0x3c22cb8b	0.009936224
46	0x3b25d906	0.0025306358
47	0xbc8d12cd	-0.017220879
48	0x3b9566ab	0.004559358
49	0xbd054e67	-0.032545473
50	0xbd943cde	-0.07238172
51	0xbcf7e34a	-0.030259747
52	0xb872ec40	-5.791732e-05
53	0x3c9a1685	0.018809566
54	0xbce061a3	-0.027390307
55	0x3d1b2fd8	0.037887424
56	0xbd15ef47	-0.036605146
57	0x3b0aba34	0.0021168115
58	0x3c336e44	0.010951582
59	0xbca0e52c	-0.019640528
60	0xbc468d84	-0.012118701
61	0x3ca7d1e4	0.020485826
62	0x3c05a272	0.008156406
63	0x3c647b77	0.013945452
64	0xbba5053e	-0.0050360253
65	0xbc0fd5bc	-0.008778986
66	0xbcda98fe	-0.02668428
67	0x3abee1bc	0.0014563124
68	0xbcccf877	-0.025020821
69	0xbc8380ed	-0.016052688
70	0xbb18ef46	-0.0023335977
71	0xbd273b0f	-0.040827807
72	0xbc261344	-0.010136429
73	0xbca2d8b2	-0.019878719
74	0x3c9c2835	0.019062141
75	0xbd312ebf	-0.04325747
76	0x3c02fec4	0.007995311
77	0xbc64e36f	-0.01397024
78	0x3c8b9891	0.017040523
79	0xbd501d96	-0.050809465
80	0x3d3b1012	0.045669623
81	0xbbf9453e	-0.0076071313
82	0xbb239bd4	-0.0024964707
83	0x3c4c0975	0.012453427
84	0xba94b0bf	-0.0011344178
85	0x3c084675	0.0083175795
86	0xbd5305f3	-0.051519345
87	0xb81a81ee	-3.6837468e-05
88	0xbb0e3b73	-0.0021702915
89	0x3aaec1b4	0.0013332875
90	0xbc97b96b	-0.018521031
91	0xbb8be46c	-0.0042691734
92	0x3ce4f448	0.027948514
93	0xbd3b79e6	-0.04577055
94	0x3cc827fe	0.024433132
95	0x3c36e346	0.011162585
96	0x3cb24c4f	0.021764902
97	0x3c51bb5d	0.012801019
98	0xbb2211a1	-0.0024729746
99	0xbc948890	-0.018131524
100	0xbb114212	-0.0022164625
101	0x3c01f5c6	0.007932132
102	0x3c3dec16	0.011591932
103	0x3c6487a8	0.013948359
104	0x3c230a28	0.009951152
105	0x3d12063d	0.03565048
106	0x3c5470bc	0.012966331
107	0x3c91a6ce	0.017779734
108	0xba06f76b	-0.00051485625
109	0x3d35e25b	0.044405323
110	0xbcab867a	-0.020938147
111	0x3b1bd87f	0.0023780165
112	0xbb2d4e1b	-0.002644426
113	0xbd479da3	-0.04873432
114	0x3ca2bb78	0.019864783
115	0x3ca52b69	0.020162301
116	0xbd20d9ba	-0.03927014
117	0x3a30fdf4	0.0006751709
118	0xbb4abac9	-0.0030934087
119	0x3ce4f977	0.027950985
120	0xbcd60e1d	-0.026129777
121	0xbbf2c057	-0.0074081826
122	0xbc94f383	-0.018182522
123	0x3c22647d	0.009911654
124	0xbc4943c3	-0.012284222
125	0xbc73d447	-0.014882154
126	0xbc81f500	-0.015863895
127	0xbc864e06	-0.016394626
128	0xbb6b3800	-0.0035891533
129	0x3a31603c	0.0006766354
130	0xbb94710d	-0.0045300783
131	0x3d1bd31a	0.03804312
132	0xbcbfed7b	-0.02342867
133	0xbc85e1b0	-0.016342968
134	0xbc961e79	-0.018325077
135	0x3cb12b68	0.021627143
136	0x3cf53fcb	0.029937645
137	0x3cbf65c1	0.02336395
138	0x3ccaa697	0.02473764
139	0x3cb21d3c	0.021742456
140	0xbcbe957a	-0.023264635
141	0xbbb097b3	-0.0053891777
142	0x3bdbdab0	0.006709419
143	0x3c898b4d	0.016790057
144	0xbc2e7c85	-0.010649805
145	0xbc90b56c	-0.017664634
146	0x3cc629c6	0.024189841
147	0x3b3d9dec	0.002893324
148	0x39c7bd7c	0.00038097415
149	0x3b413394	0.0029480206
150	0x3de45856	0.11149661
151	0xbc9b9473	-0.018991685
152	0x3de7d64f	0.11320173
153	0x3e95563f	0.29167363
154	0x3e12397b	0.1427974
155	0xbe49fbbe	-0.19724938
156	0xbe3d889f	-0.18509148
157	0xbe21a80e	-0.15786764
158	0x3a28dce5	0.0006441607
159	0x398af0db	0.00026500862
160	0xbc40d1ab	-0.011768739
161	0x3e2c8013	0.16845731
162	0xbe29edb6	-0.16594586
163	0xbe250554	-0.16115314
164	0x3e0ec266	0.13941345
165	0x3e856173	0.2605091
166	0xba981e71	-0.0011605752
167	0x3daae55e	0.083445296
168	0xbb9af044	-0.004728349
169	0xbd466c39	-0.048443053
170	0xbd223af7	-0.039607015
171	0x3e08915c	0.133367
172	0x3b605e97	0.0034236067
173	0x3e6b44fc	0.22975534
174	0xbe6d4bdd	-0.23173471
175	0x3da7d43d	0.08194778
176	0x3eb289ac	0.3487066
177	0x3c3ccd99	0.011523628
178	0x3b9322cf	0.0044902335
179	0x3de5f0ca	0.112275675
180	0xbcb8bb61	-0.022550287
181	0xb7cd5b18	-2.4480323e-05
182	0x3b83891f	0.004014149
183	0xbce16895	-0.027515689
184	0x3cc34ed0	0.023841292
185	0x3ab8feb8	0.0014113998
186	0xbb62d667	-0.0034612657
187	0xbc2c3515	-0.010510703
188	0x3cb540fd	0.022125715
189	0x3b459579	0.0030148907
190	0xb8c221b2	-9.256917e-05
191	0xbba4ead3	-0.005032876
192	0xbba767fa	-0.0051088305
193	0x3c1ba577	0.009499899
194	0xbd05b408	-0.032642394
195	0x3d103f14	0.035216406
196	0x3cacfa42	0.021115426
197	0x3c27d050	0.010242537
198	0xbc17081a	-0.00921824
199	0x3c908356	0.01764075
200	0x3d6bb95a	0.057549812
201	0x3d18f84e	0.037346177
202	0x39cce98a	0.00039083912
203	0xbca983b6	-0.020692687
204	0x3ac8f370	0.0015331339
205	0x3c251cc3	0.010077658
206	0xbcb5759c	-0.022150807
207	0xbb9bf6bb	-0.004759637
208	0xbc0c6ae1	-0.008570404
209	0x3ba72fbb	0.0051021255
210	0xbcfac73f	-0.030612586
211	0xbcba6081	-0.022751095
212	0x3ba2dbe6	0.0049700616
213	0x3c686c04	0.014185909
214	0xbbce3c46	-0.0062938062
215	0x3cd020cf	0.02540627
216	0x3a802900	0.0009777844
217	0xbd40e2b2	-0.047091193
218	0x3c1f5471	0.009724722
219	0x3bf0fd06	0.0073543815
220	0xb9cec468	-0.00039437716
221	0xbc9f028f	-0.0194104
222	0x3ca69369	0.020333963
223	0x3ce466fc	0.027881138
224	0x3d92d420	0.07169366
225	0xbcdb8f2c	-0.026801668
226	0xbc0f9639	-0.008763843
227	0xbcdd9266	-0.027047347
228	0xbc0d6f1c	-0.008632448
229	0xbbc4e82f	-0.0060091238
230	0x3b2fabb1	0.0026805217
231	0x3d4e12fd	0.050311077
232	0xbb38c955	-0.0028196175
233	0x3cc02990	0.023457319
234	0x3d07f8ee	0.033196382
235	0xbc875dc1	-0.016524198
236	0x3c29c40b	0.010361682
237	0xbbb48888	-0.00550944
238	0x3a054476	0.0005083749
239	0x3d14d2a7	0.036333706
240	0xbd52424a	-0.05133275
241	0xbbce927e	-0.0063040843
242	0x3d4a1a9e	0.04934179
243	0xbc5583a5	-0.013031875
244	0xbcadff2d	-0.021239841
245	0xbc827de4	-0.01592917
246	0x3c3c88b6	0.011507204
247	0x3b0dfcbf	0.002166554
248	0x3cf8f822	0.030391756
249	0x3b0e071c	0.0021671718
250	0x3bfc3af8	0.0076974593
251	0xbc536cb9	-0.0129043395
252	0xbc012330	-0.0078819245
253	0x3ae44ef6	0.0017418552
254	0x3d106df2	0.035261102
255	0xbcf9984c	-0.030468129

fc_mu.bias f4 [20]
0	0x3d95a59d	0.07306979
1	0x3d736b35	0.059428412
2	0x3e05a88c	0.13052577
3	0xbdee95c6	-0.11649661
4	0xbc3d291c	-0.011545446
5	0x3db63b5d	0.088980414
6	0xbcb7d6e4	-0.022441335
7	0xbd09b683	-0.033621322
8	0x3c745fd9	0.01491543
9	0xbdcc95c4	-0.09989503
10	0x3dfa40cb	0.122193895
11	0xbdc3e728	-0.09565574
12	0xbe02a73a	-0.12759104
13	0x3cde536e	0.027139392
14	0xbdf0bf1e	-0.11755203
15	0x3dab8e64	0.08376768
16	0x3d69beb6	0.05706664
17	0xbd8f2e9d	-0.06991313
18	0x3e22fb76	0.15916237
19	0x3c9f144f	0.019418864

fc_var.weight f4 [20, 30]
0	0x3c9cae96	0.019126218
1	0x3b73c9fe	0.0037199254
2	0xbbfedc02	-0.007777692
3	0x3a83d3d4	0.0010057637
4	0xbb408e72	-0.002938178
5	0xbc123fe8	-0.008926369
6	0xba0ae141	-0.00052978477
7	0x3d177361	0.03697527
8	0x3a338475	0.0006848046
9	0x3b4af49f	0.003096856
10	0xbaaa9176	-0.0013013321
11	0xbc2fde31	-0.010734127
12	0xbb9211bd	-0.004457681
13	0xbbe0aeb4	-0.0068567637
14	0x3d08264c	0.033239648
15	0xbbfae4b2	-0.007656657
16	0xbd41690f	-0.047219332
17	0x3c29ad12	0.010356205
18	0x3b4964d1	0.0030730257
19	0x3b535927	0.0032249184
20	0x3c073238	0.008251719
21	0x3cd54966	0.026035976
22	0xbb8e3e44	-0.0043409187
23	0x3a3d817e	0.00072290737
24	0xbc63719a	-0.013882065
25	0x39a34b54	0.00031145907
26	0x3c73c052	0.014877396
27	0xbb9a2318	-0.0047038905
28	0xbb062a3b	-0.0020471949
29	0x3d12dcaa	0.035854973
30	0xbc1ed354	-0.009693939
31	0xbbd3e21f	-0.0064661647
32	0xb74df1d0	-1.22752535e-05
33	0xbcbe4788	-0.023227468
34	0x3c2a8f6e	0.010410173
35	0x3bb47841	0.0055074994
36	0x3b5241b7	0.0032082626
37	0x3bb1285b	0.005406422
38	0x3ae14579	0.0017186842
39	0x3ba33007	0.0049800905
40	0xbade646a	-0.0016967182
41	0x3c3d3070	0.011547193
42	0x3ca389f7	0.019963248
43	0x3826aef0	3.9740407e-05
44	0x3c20326c	0.0097776465
45	0x3a87d2b3	0.0010362476
46	0xbc905575	-0.017618874
47	0x3c17f889	0.009275564
48	0x3a945d65	0.0011319338
49	0x3d0b2762	0.033973105
50	0xbd44904d	-0.04798918
51	0x3b8c4c34	0.004281545
52	0xbb1e1214	-0.0024119662
53	0xbc9efba4	-0.019407101
54	0x3b5d0973	0.0033727556
55	0x3ba04b35	0.004891778
56	0x3ca3237d	0.019914383
57	0xbb42c856	-0.002972146
58	0xbbadfd4a	-0.0053097354
59	0x3c046248	0.008080073
60	0xbca4bb4a	-0.020108838
61	0x3c0a30dc	0.008434501
62	0x3ca63ea1	0.020293536
63	0xbd2281de	-0.039674632
64	0x3c5fe999	0.013666534
65	0xbca659c9	-0.020306485
66	0xba76587a	-0.00093973393
67	0x3bb1f330	0.0054306015
68	0xbc867ee1	-0.016417922
69	0x3a452345	0.0007520209
70	0x3bd0a2af	0.0063670496
71	0x3bbfd4d4	0.0058542285
72	0xbbddc4a2	-0.006767825
73	0xbc365b11	-0.01113011
74	0x3cd0cd91	0.025488647
75	0x3d038621	0.032110337
76	0x3afef2a4	0.0019450975
77	0x3c3c72fd	0.011502025
78	0xbc0fb815	-0.008771916
79	0xbc1f6972	-0.00972973
80	0xbbfd318e	-0.0077268546
81	0x3c2b54ee	0.0104572605
82	0x3ba92c35	0.0051627406
83	0xbd2b204b	-0.041778844
84	0xbca213d4	-0.019784845
85	0x3d01e31a	0.03171072
86	0xbc8e08f9	-0.017338263
87	0x3bd161e3	0.006389843
88	0x3bee5a78	0.0072739683
89	0x3b478f96	0.0030450574
90	0xbc237df0	-0.009978756
91	0xbb5353d2	-0.0032246006
92	0x3c3a7e83	0.011382702
93	0xbd20b7aa	-0.039237656
94	0x3c7a5538	0.015279107
95	0x3c06dd3c	0.008231457
96	0xbb42b331	-0.0029708857
97	0xbac29b6f	-0.0014847348
98	0x3b59bd77	0.0033224502
99	0x3c30d7a4	0.0107936
100	0x3b0673c5	0.0020515781
101	0xbb95d716	-0.0045727594
102	0x3ba3ad0d	0.0049949945
103	0x3b8b6e63	0.0042551025
104	0x3d0b2f1d	0.033980478
105	0x3ad82768	0.0016491236
106	0x3c51f055	0.012813647
107	0x3a8fbf5b	0.0010967063
108	0x3a145214	0.00056579825
109	0x3d073397	0.033008184
110	0xbcc3759e	-0.023859795
111	0x3cfbdfc3	0.030746346
112	0x3a81699a	0.0009873391
113	0xbd1b577f	-0.03792524
114	0xbb3e66aa	-0.0029052892
115	0x3cb4e4d7	0.022081776
116	0x3b4d39a6	0.0031314879
117	0x3a0365c7	0.00050124194
118	0xbb3c7e91	-0.0028761963
119	0x3ccbc659	0.024874853
120	0x3b01f9c8	0.001983272
121	0xbbeab4cc	-0.007162666
122	0xbb88d265	-0.0041754716
123	0xba8f3d6b	-0.0010928338
124	0x3b0092c1	0.0019618722
125	0xbb95d520	-0.0045725256
126	0xba0f793c	-0.00054730824
127	0x3bb7345c	0.0055909585
128	0x3c94d41e	0.018167552
129	0xbba1a346	-0.004932794
130	0x3a5ed2a7	0.00085000176
131	0xbca2f9fa	-0.019894589
132	0xbb806dc9	-0.0039193374
133	0x39504474	0.00019861927
134	0x3c094139	0.008377367
135	0xbc0d355a	-0.008618677
136	0x3bfdb32f	0.0077423076
137	0x3a2f9e31	0.00066992926
138	0xbc2af408	-0.010434158
139	0xbbcdcb82	-0.0062803635
140	0xbc02808a	-0.007965216
141	0x3b31b2e0	0.0027114674
142	0x3a0b1d00	0.00053067505
143	0x3b1f3c47	0.0024297403
144	0xbc0c29ec	-0.008554917
145	0xbc6d2dfd	-0.0144762965
146	0xbc3929b8	-0.01130145
147	0x3a606930	0.0008560596
148	0xbb7691ee	-0.0037623602
149	0x3b17b14e	0.0023146453
150	0xbf4d1e4b	-0.8012435
151	0x3d3a22c2	0.045443304
152	0xbe5eba58	-0.21750772
153	0x3ee0fe0a	0.43943816
154	0x3dc25edb	0.094907485
155	0xbdc8f2bf	-0.09811925
156	0xbd55d2f2	-0.052203126
157	0x3aea2cae	0.0017866099
158	0x3cc19c72	0.02363417
159	0xbae74a78	-0.0017646095
160	0x3c91ca8d	0.017796779
161	0x3eb4d593	0.35319194
162	0xbdb4acd3	-0.08822026
163	0xbe285f51	-0.1644261
164	0xbeb64ed8	-0.35607028
165	0x3e8cbb3e	0.27486604
166	0x3d57177c	0.05251263
167	0x3da670ff	0.08127021
168	0xbbdc2462	-0.0067182044
169	0xbfd442b4	-1.6582856
170	0x3e722246	0.23645887
171	0xbf1702fa	-0.58988917
172	0x3c12e221	0.008965046
173	0x3edbee98	0.4295547
174	0xbdc46dfc	-0.0959129
175	0xbe2279ba	-0.15866747
176	0x3ef4a338	0.47780776
177	0x3d3e9eac	0.04653804
178	0x3ccea92c	0.025227152
179	0xbee95a85	-0.45576873
180	0xbc8f2a7f	-0.017476318
181	0x3b178eae	0.0023125815
182	0x3b4d948a	0.0031369054
183	0x3b4ea4f6	0.003153143
184	0x3c9e9071	0.019355984
185	0xbb09c7f0	-0.0021023713
186	0x3c08f1f2	0.0083584655
187	0x3c934a72	0.017979834
188	0x3cf2c8c9	0.029636757
189	0x3b059215	0.002038126
190	0xbb020b18	-0.0019843038
191	0xbc20a8e5	-0.009805893
192	0x3bf04106	0.00733197
193	0x3a5e755e	0.0008486117
194	0x3cb3a177	0.021927578
195	0x3c26908c	0.010166299
196	0x3c8a08c7	0.016849888
197	0xbb15a5a6	-0.002283433
198	0x3b0c7506	0.0021432056
199	0xbb694e01	-0.0035599472
200	0xbc8e3b87	-0.01736237
201	0x3c2c1320	0.010502607
202	0xbab13e87	-0.0013522663
203	0x3b05cd9f	0.002041675
204	0x3bcb9a7d	0.006213485
205	0xbafcdb33	-0.0019291401
206	0xbc72a121	-0.014808924
207	0xbb69eab2	-0.0035692868
208	0xbad9d521	-0.0016619303
209	0x3c9a88b5	0.018864015
210	0xbc809e6f	-0.015700547
211	0xbb8772ef	-0.004133574
212	0xba195749	-0.00058494933
213	0x3afe0dc0	0.001938276
214	0xbc07fb55	-0.008299668
215	0xbb559be2	-0.0032594134
216	0x3ae33270	0.0017333757
217	0x3bdf022b	0.0068056784
218	0xbb5d3ce0	-0.0033758208
219	0xbb198d25	-0.0023430076
220	0xbac94927	-0.0015356884
221	0xbbd1cafc	-0.0064023715
222	0xbab82f65	-0.0014052211
223	0x3c11fe34	0.008910704
224	0x3cb4fdf5	0.022093752
225	0xbbbd3d03	-0.0057750954
226	0x3c811931	0.015759083
227	0x3c8d0006	0.017211925
228	0x3c1a96de	0.009435384
229	0x3ab0a811	0.0013477822
230	0x3cab954b	0.020945212
231	0x3c2af467	0.010434247
232	0xbb403e2f	-0.002933394
233	0x3a1231de	0.0005576889
234	0x3b8d7626	0.004317063
235	0x3bba6795	0.0056886175
236	0x3b723808	0.0036959667
237	0xbb085e79	-0.0020808263
238	0xba8fc67b	-0.0010969186
239	0x3bdecedc	0.006799562
240	0x3c33a1e3	0.01096389
241	0xbb132a28	-0.0022455547
242	0xb8bce60c	-9.007388e-05
243	0xbc8ecff2	-0.01743314
244	0xbba31e8a	-0.004978006
245	0x3b8573b8	0.0040726326
246	0x3bfaf59e	0.0076586744
247	0x3ce02e51	0.027365835
248	0x3c3d271d	0.01154497
249	0x39aa56e1	0.00032489657
250	0xbaa27e04	-0.0012397175
251	0x3cfcc574	0.030855872
252	0x3c183e15	0.009292145
253	0x3bab8662	0.0052345255
254	0xbc802129	-0.015640812
255	0x3cbb1f9a	0.022842217

fc_var.bias f4 [20]
0	0xbd422fda	-0.047408916
1	0xbda52499	-0.08063621
2	0xbdb14623	-0.08655956
3	0xbe06e306	-0.1317254
4	0xbcb45abe	-0.022015925
5	0xbff7e589	-1.9366924
6	0xbd055c87	-0.032558944
7	0xbd38ad1a	-0.045086958
8	0xbd7b41a9	-0.061341915
9	0xbdbff74c	-0.0937334
10	0xbdd27f43	-0.102781795
11	0xbdf90191	-0.12158502
12	0xbdefb76e	-0.11704908
13	0xbd5909c6	-0.052987836
14	0xbe0841ab	-0.133063
15	0xbd067689	-0.032827888
16	0xbd12706d	-0.03575175
17	0xbd596796	-0.053077303
18	0xbdd77b8e	-0.10521613
19	0xbc6390ff	-0.01388955

decoder.layer1.weight f4 [30, 20]
0	0xbbaa4e54	-0.0051973257
1	0xbd2343ec	-0.039859697
2	0xbc170e61	-0.009219737
3	0xbd0aea7e	-0.033915035
4	0xbd7021e6	-0.058626078
5	0x3ebe082c	0.3711561
6	0x3aa33860	0.0012452714
7	0x3d32b7fc	0.043632492
8	0x3d3450ba	0.0440223
9	0x3d8b817e	0.06811808
10	0x3bb0abc9	0.005391572
11	0xbc13fac4	-0.009031955
12	0x3baac71f	0.0052117254
13	0xbc909d73	-0.017653203
14	0xbbce9088	-0.0063038506
15	0xbd1e9060	-0.038711905
16	0x3c0849a8	0.008318342
17	0xbd15f2e9	-0.03660861
18	0xbce65c5e	-0.028120216
19	0xbd950021	-0.07275415
20	0xbce90b63	-0.028447812
21	0xbba0aa23	-0.0049030944
22	0x3b893890	0.004187651
23	0x3cb25c7f	0.021772621
24	0xbc86da03	-0.016461378
25	0x3fcc1836	1.5944889
26	0x3cb0b4c8	0.021570578
27	0x3d2c1896	0.042015634
28	0xbca430d6	-0.020042818
29	0xbcc2b57d	-0.023768181
30	0xba1aa188	-0.0005898704
31	0x3b4a951e	0.0030911635
32	0xbbd068d0	-0.006360151
33	0xbcc4855e	-0.023989376
34	0x3cb24fd2	0.021766577
35	0xbd3c65a5	-0.045995373
36	0x38b9e163	8.863469e-05
37	0xbd43e1e2	-0.04782284
38	0xbceb64ad	-0.02873453
39	0x3caf97c4	0.021434672
40	0xbcb4a957	-0.022053404
41	0xbce0bf7c	-0.027435057
42	0xbcb6f8fd	-0.022335524
43	0x3d190c3a	0.037365176
44	0xbbe0d0f1	-0.0068608453
45	0x3ea7d930	0.32782888
46	0xbc97dddd	-0.01853841
47	0xbc937637	-0.018000705
48	0x3c8b44f1	0.017000647
49	0xbc6222ae	-0.013802214
50	0x3c6cb924	0.014448438
51	0xbcd2e7df	-0.02574533
52	0xbd7b7eb0	-0.061400115
53	0x3cc889ca	0.024479765
54	0x3b13ed21	0.002257176
55	0xbc82021a	-0.015870143
56	0xbc286bc2	-0.010279598
57	0x3ccff8d2	0.025387201
58	0x3cd50ed0	0.02600804
59	0x3ce94cf0	0.02847907
60	0x3d696684	0.056982532
61	0x3d13d0b4	0.036087707
62	0xbc8a8aa4	-0.016911812
63	0x3b6182d6	0.003441026
64	0x3c51e857	0.012811742
65	0x3fd583d0	1.6680851
66	0x3c0d707b	0.008632774
67	0x3ccbb370	0.024865836
68	0x3c07733d	0.008267221
69	0x3b3a3dcd	0.0028418184
70	0xbd3fcde7	-0.046827223
71	0xbc1cde89	-0.009574541
72	0x3c81a8fe	0.015827652
73	0x3d631855	0.055443127
74	0x3cc91bd0	0.024549395
75	0x3c192f8a	0.009349713
76	0xbbe0464a	-0.0068443166
77	0xbca22e33	-0.01979742
78	0xbca88904	-0.020573147
79	0xbd0705b8	-0.03296444
80	0x3d9c4648	0.076305926
81	0x3c304ad8	0.010760032
82	0xbc07ccb9	-0.008288556
83	0x3cd75f2f	0.026290504
84	0xbc78cc24	-0.01518539
85	0x3fcdcbac	1.6077781
86	0x3d816b66	0.06319313
87	0x3d46ab89	0.048503432
88	0x3b03467e	0.002003103
89	0x3c0992db	0.0083968295
90	0x3b62ae99	0.0034588932
91	0xbc0483db	-0.008088077
92	0x398041ba	0.00024463033
93	0xbcbea02d	-0.023269737
94	0xbcba63f5	-0.022752741
95	0x3d166df9	0.03672597
96	0xbb9d303e	-0.0047970107
97	0x3d5c04bb	0.05371545
98	0x3ca6309c	0.02028685
99	0xbc852f03	-0.016257768
100	0xbc1ff5e0	-0.009763211
101	0x3c5e6995	0.013574977
102	0x3b080f1d	0.0020760961
103	0x3ca91ff4	0.02064512
104	0x3c42b914	0.011884946
105	0x3fb6c629	1.4279224
106	0x3bd17abb	0.0063928044
107	0xbc174a9e	-0.009234099
108	0xbc86e6c6	-0.016467463
109	0xbd059be7	-0.032619383
110	0xbc8af5af	-0.016962854
111	0x3d00ca79	0.031443093
112	0xbbeb3641	-0.0071780984
113	0x3c8da3af	0.017289964
114	0x3c235353	0.0099685965
115	0x3d15a67a	0.036535718
116	0x3c541ad6	0.012945851
117	0x3cf9b458	0.030481502
118	0xbb4e4a34	-0.0031477334
119	0xbca46d75	-0.020071724
120	0x3d619806	0.05507662
121	0xbd13b019	-0.03605661
122	0x3c896c8b	0.01677539
123	0xbc1cf5fa	-0.00958013
124	0xbc4bba00	-0.012434483
125	0x3eaf67d4	0.34258902
126	0xb9c1a4dc	-0.00036934658
127	0xbd6cfe10	-0.05785948
128	0x3c176ff5	0.009243001
129	0x3c767a75	0.0150438445
130	0x3de59c6a	0.11211474
131	0x3d4d1b4f	0.05007487
132	0xbd8832d1	-0.066503175
133	0x3d8106a0	0.06300092
134	0xbd8d7179	-0.06906409
135	0xbc31c98d	-0.010851276
136	0xbcc1971a	-0.023631621
137	0xbc007def	-0.007842525
138	0xbc0d6069	-0.008628943
139	0x3d2cbd35	0.04217263
140	0x3bc98e92	0.006151029
141	0xbbb0c67e	-0.005394756
142	0xbd3a71e0	-0.045518756
143	0x3d948075	0.07251064
144	0xbd510e4c	-0.051039025
145	0x3f30b2b4	0.6902268
146	0xbc98440a	-0.018587131
147	0xbd413585	-0.04717018
148	0xbbefb93a	-0.007315782
149	0x3bbe02ee	0.005798689
150	0x3d03ab4e	0.03214579
151	0xbcbda05f	-0.02314776
152	0x3d3f8625	0.04675879
153	0x3d1f95bb	0.038961153
154	0xbd0dba9b	-0.03460179
155	0xbcc7cf9a	-0.024390984
156	0x3cd4996f	0.02595207
157	0x3e0d8737	0.13821112
158	0x3d2cfed2	0.042235203
159	0xbd0cba32	-0.034357257
160	0x3bd8bc9b	0.0066142804
161	0x3d194a56	0.037424408
162	0x3c68810c	0.014190923
163	0xbd043b1c	-0.032282934
164	0x3d32abae	0.043620758
165	0x3eae67a7	0.34063455
166	0x3d271360	0.04078996
167	0xbcebe9bb	-0.028797975
168	0xbb038fcf	-0.002007473
169	0xbca9a043	-0.020706302
170	0xbb24afa2	-0.00251291
171	0xbc6e09fe	-0.0145287495
172	0xbd5b44d6	-0.053532444
173	0xbbb23777	-0.005438741
174	0xbd226c06	-0.0396538
175	0x3c7bb600	0.015363216
176	0x3b194fd1	0.0023393522
177	0xbc68bb94	-0.014204878
178	0xbcc81ee3	-0.02442879
179	0x3d57406e	0.05255168
180	0xbbc3eda4	-0.0059792567
181	0xbcd584d7	-0.02606432
182	0xbce4fa70	-0.02795145
183	0xbd6181c9	-0.055055413
184	0x3ce4597e	0.027874704
185	0x3fa3988c	1.2780929
186	0x3b351483	0.0027630634
187	0x3cea79aa	0.028622467
188	0x3c8687b6	0.016422134
189	0xbd6faec8	-0.058516294
190	0xbc099178	-0.008396499
191	0xbd0ce5c1	-0.034398798
192	0x3d854361	0.06506992
193	0x3cecc124	0.02890069
194	0xbd6229d6	-0.05521568
195	0x3bc7977f	0.006091058
196	0x3d6be21d	0.057588685
197	0xbc3645ec	-0.011125069
198	0xbcf401b1	-0.029785963
199	0xbce01056	-0.02735154
200	0x3d6f3679	0.05840156
201	0x3db639f0	0.088977695
202	0x3d7e728d	0.062120963
203	0xbd38d5ca	-0.04512576
204	0x3afc60fa	0.0019254975
205	0x3f2f453b	0.6846501
206	0xbddf5e35	-0.109066404
207	0x3d5570fa	0.052109696
208	0x3d9d10a6	0.07669191
209	0x3d94694d	0.07246647
210	0xbd007914	-0.03136547
211	0x3c5fb16a	0.013653139
212	0x3be378c3	0.006941886
213	0xbd15c796	-0.036567293
214	0xbdf9202d	-0.1216434
215	0x3ba45f70	0.00501626
216	0xbc3cd1ec	-0.011524659
217	0xbdb32bda	-0.087485984
218	0xbd4fb258	-0.05070719
219	0x3a1cdf42	0.0005984196
220	0xbd048871	-0.032356683
221	0x3d3c1e39	0.04592726
222	0xbc2e1024	-0.010623965
223	0x3d0f8ec1	0.03504825
224	0xbd489c5b	-0.048977237
225	0x3ebad87d	0.36493292
226	0x3d250362	0.04028643
227	0x3c99043d	0.018678779
228	0x3cda73ee	0.026666608
229	0xbc0e6e21	-0.008693249
230	0xbd47918f	-0.0487228
231	0xbd44dde5	-0.048063178
232	0x3c96ddaa	0.018416245
233	0x3d8a6546	0.067575976
234	0xbd879ed7	-0.06622093
235	0xbbc2e799	-0.0059480187
236	0xbc305144	-0.010761563
237	0xbd86e90c	-0.06587419
238	0xbc70f4d6	-0.014706811
239	0x3ca41917	0.020031495
240	0xbc285a7e	-0.010275481
241	0xbc7b11cd	-0.015324068
242	0x3c07e72b	0.008294861
243	0x3bc55abf	0.0060227807
244	0xbd87d2d3	-0.066320084
245	0x3f2c2d67	0.6725678
246	0x3c1f8719	0.0097368
247	0x3c4eabfd	0.012614247
248	0xbccbe6c8	-0.024890319
249	0xbcc30f5a	-0.023811031
250	0xbd9a77e1	-0.07542396
251	0xbbdbb7fa	-0.0067052813
252	0xbcb3cd39	-0.021948444
253	0xbc288783	-0.010286215
254	0x3d7d69ec	0.061868593
255	0xbd6841c7	-0.056703355

decoder.layer1.bias f4 [30]
0	0x3f3b7d71	0.73238283
1	0xbea6fb02	-0.3261338
2	0x3f49022d	0.78518945
3	0xbec225b0	-0.37919378
4	0xbe8b1d84	-0.27170956
5	0x3f0f65a8	0.5601449
6	0x3ddf6b02	0.10909082
7	0xbde2fdae	-0.11083542
8	0x3f40db58	0.7533469
9	0xbf79d2cc	-0.97587276
10	0x3ea91655	0.3302485
11	0x3f0c6650	0.54843616
12	0x3eb1f7c2	0.34759337
13	0x3e93ae60	0.28843975
14	0x3df55260	0.119786024
15	0x3f169cdf	0.58833116
16	0x3f32494b	0.69643086
17	0x3e060a9c	0.13089985
18	0x3ed9f525	0.42569843
19	0x3d7e8bec	0.06214516
20	0x3ebe94eb	0.3722299
21	0x3eba6f38	0.36412978
22	0x3edfd4a5	0.43716922
23	0xbf632c9b	-0.8873994
24	0x3f261da1	0.6488896
25	0x3f28654b	0.6577956
26	0x3f36b979	0.7137676
27	0xbeae4d22	-0.34043223
28	0xbf444961	-0.7667447
29	0xbe7e065e	-0.24807116

decoder.layer2.weight f4 [45, 30]
0	0x3d7f8521	0.06238282
1	0xbf16c49a	-0.5889374
2	0x3d75e6c5	0.060034532
3	0xbf2a0012	-0.6640636
4	0xbf275201	-0.65359503
5	0x3e22c637	0.15895925
6	0x3d4194d4	0.047261074
7	0xbc181446	-0.009282177
8	0x3cc28b52	0.023748074
9	0x3e7bba0c	0.2458269
10	0x3e31d6f3	0.17367153
11	0x3d8ed298	0.06973761
12	0x3e14e986	0.14542207
13	0x3e62765d	0.22115465
14	0xbec0d59b	-0.37662968
15	0x3e576b3e	0.21037003
16	0x3e56e5ae	0.20986053
17	0xbe922ea7	-0.28551218
18	0x3d786a61	0.060648326
19	0xbefa526c	-0.48891008
20	0x3e49808a	0.1967794
21	0xbdd07ca7	-0.101800255
22	0x3e720f32	0.23638609
23	0x3e2b6c33	0.16740493
24	0x3c88d205	0.016701708
25	0x3e6ae684	0.22939497
26	0x3ee2857e	0.4424247
27	0xbd081280	-0.033220768
28	0xbbfef117	-0.007780205
29	0x3d8bb740	0.068220615
30	0x3e11bfc2	0.14233306
31	0xbe9cadd5	-0.30601373
32	0x3df3917d	0.11892984
33	0xbe7f1b23	-0.24912696
34	0xbe50af32	-0.20379332
35	0xbe2586c6	-0.16164693
36	0x3d348fab	0.044082325
37	0xbdb16a00	-0.08662796
38	0x3d9398ee	0.072069034
39	0x3e6f8031	0.23388745
40	0x3e06afd3	0.13153009
41	0x3c8ed2bf	0.017434476
42	0x3dfbfd96	0.12304227
43	0x3db8df1e	0.09026931
44	0xbf2a417b	-0.66506165
45	0x3e494d64	0.19658428
46	0x3e991d35	0.29905096
47	0xbf02c8e0	-0.5108776
48	0x3d419aa1	0.047266606
49	0xbf3d1df2	-0.7387382
50	0x3e2e791a	0.17038384
51	0xbed4a905	-0.41535202
52	0x3e1c3807	0.15255748
53	0x3e870c40	0.26376534
54	0x3d31ce0d	0.043409396
55	0x3ead9ef6	0.3391034
56	0x3f03d0a7	0.51490253
57	0xbde3ee35	-0.11129419
58	0x3e7519e1	0.23935653
59	0xbcd481e2	-0.02594084
60	0xbaa50477	-0.0012589832
61	0xbc8b05f5	-0.016970614
62	0xbbd58dde	-0.006517156
63	0xbca1a8ea	-0.019733865
64	0xbc66499d	-0.014055637
65	0x39a4b540	0.0003141556
66	0xbce748b1	-0.028232904
67	0x3c267159	0.01015886
68	0xbadf95ca	-0.001705819
69	0xbc9fa9d4	-0.01949016
70	0xb905816e	-0.00012732085
71	0xb76457a4	-1.3610264e-05
72	0x3c296917	0.010339997
73	0x3bb19c00	0.005420208
74	0xbaa6c262	-0.0012722726
75	0x3a860bc0	0.001022689
76	0x3b24d4b9	0.0025151207
77	0xbc2def65	-0.010616158
78	0xbcb159ca	-0.02164926
79	0xbb8b3f23	-0.00424947
80	0xbbc1479e	-0.00589843
81	0xbb84295e	-0.0040332517
82	0xbb92a03c	-0.004474668
83	0xbcc1c8c6	-0.023655307
84	0x3b7e653e	0.003881767
85	0x3b237b61	0.0024945366
86	0x3be4ab0b	0.0069783977
87	0xbadc6249	-0.0016813959
88	0xbc8f3759	-0.017482447
89	0x3c845748	0.0161549
90	0x3c3fbd94	0.011702914
91	0x3b8b79e8	0.0042564757
92	0x3c71fa3f	0.014769136
93	0x3c270291	0.010193483
94	0x3b0e22e6	0.0021688282
95	0xbb00fbab	-0.0019681256
96	0xbbc117b7	-0.0058927196
97	0x3ba324e2	0.004978762
98	0xba131a8b	-0.000561156
99	0x3bb1356e	0.0054079806
100	0xbcdbe7f5	-0.026844004
101	0x3a36e436	0.0006976755
102	0x3b1de576	0.0024093068
103	0x3c683962	0.014173837
104	0xbd4445b9	-0.047918055
105	0x3a41dd8d	0.00073953794
106	0x3c33bb8c	0.010970008
107	0xbd21275c	-0.039344177
108	0x3cc932ab	0.024560293
109	0xbd15e8a2	-0.03659881
110	0x3c310a78	0.010805719
111	0xbd627db2	-0.055295654
112	0xbc1e7cfb	-0.009673352
113	0x3c3b2293	0.011421817
114	0xbc9f0532	-0.019411657
115	0x3bfc65ea	0.007702579
116	0x3ce4bc11	0.027921708
117	0x39b29498	0.00034061517
118	0x3c2e1087	0.010624058
119	0x3bad0742	0.005280406
120	0x3d79a3b2	0.060947128
121	0xbe4e698e	-0.20157453
122	0x3d7bfa6d	0.06151812
123	0xbe38a3ec	-0.18031281
124	0xbe6dd029	-0.23223938
125	0x3d8dc472	0.069222346
126	0xbd17c64b	-0.03705434
127	0xbdbb60e6	-0.09149341
128	0x3d931056	0.0718085
129	0x3e7a7921	0.2446027
130	0xbd52c930	-0.0514614
131	0x3d091d1f	0.033475038
132	0xbd82638c	-0.06366643
133	0xbc397134	-0.011318494
134	0xbdf9a8b0	-0.12190378
135	0x3d66e633	0.05637188
136	0x3d929b7a	0.07158561
137	0xbd9c9260	-0.07645106
138	0x3c18001b	0.009277369
139	0xbdcd79b2	-0.10032977
140	0xbd05e172	-0.032685705
141	0xbd0f16c2	-0.034933813
142	0xbcee6bb6	-0.029104095
143	0x3e55ca1e	0.20877883
144	0x3c95449b	0.01822119
145	0x3d7ceee7	0.061751273
146	0x3d16ae88	0.03678754
147	0x3aaa49b4	0.0012991936
148	0x3e2c2b64	0.16813427
149	0x3ca188c8	0.019718543
150	0xbc9acabe	-0.018895503
151	0xbd18af7b	-0.037276726
152	0xbc72d97a	-0.014822358
153	0xbd13af60	-0.036055923
154	0xbce53691	-0.02798012
155	0xbd2f97ed	-0.042869497
156	0xbc5585ac	-0.013032358
157	0xbc8e31df	-0.017357765
158	0xbcd37f42	-0.025817517
159	0xbd26d66c	-0.040731832
160	0x3adff0f3	0.0017085358
161	0xbd5d6733	-0.054053497
162	0xbc82bfcf	-0.015960602
163	0xbcf118e7	-0.02943082
164	0xbd2e2f1c	-0.042525396
165	0xbc9827f4	-0.018573739
166	0xbd166386	-0.036716007
167	0xbd40c87e	-0.047066204
168	0x3d13936b	0.03602926
169	0xbd07e2a1	-0.033175115
170	0xbcbf0d9d	-0.023321921
171	0xbd20b00d	-0.039230395
172	0xbd81e950	-0.06343329
173	0xbd0a525e	-0.033769958
174	0xbd9761e4	-0.07391718
175	0xbcb4c48d	-0.022066379
176	0xbcf8c478	-0.030367121
177	0x3ba9eb98	0.0051855557
178	0xbd22d410	-0.03975302
179	0xbce906a5	-0.028445551
180	0x3e94f2f7	0.29091617
181	0xbdb215ea	-0.08695586
182	0x3e9e75c3	0.3094922
183	0xbd2fb5de	-0.04289805
184	0xbd2d1f1d	-0.042266
185	0x3db82411	0.08991254
186	0x3d4883f7	0.048953976
187	0x3dfb4bda	0.12270327
188	0x3e8b2d3a	0.27182943
189	0xbf5bd838	-0.858768
190	0x3e1354f6	0.14387879
191	0x3e2109d5	0.15726407
192	0x3e42b3a6	0.19013843
193	0x3e112911	0.14175822
194	0x3d28f954	0.041253403
195	0x3e565c0c	0.2093355
196	0x3e612070	0.2198503
197	0x3cbbccab	0.022924742
198	0x3e060dee	0.13091251
199	0xbd17d8b7	-0.03707191
200	0x3dbc25ce	0.09186898
201	0x3cb55193	0.022133624
202	0x3e0f88a6	0.14016971
203	0xbf2a050a	-0.6641394
204	0x3e28de30	0.16491008
205	0x3e1d794f	0.15378307
206	0x3e16c285	0.14722641
207	0x3d612fd2	0.054977246
208	0xbeeb4da6	-0.4595768
209	0xbc7f656c	-0.015588146
210	0xbc4090e6	-0.0117532965
211	0x3f4b05ac	0.7930553
212	0x3d02be91	0.03192002
213	0x3f69ccf8	0.9132838
214	0x3f4c8221	0.7988606
215	0x3ee09286	0.4386179
216	0x3d8c444e	0.068489656
217	0x3e1d29a8	0.15347922
218	0xbab548e4	-0.0013830927
219	0x3ff07a0f	1.8787249
220	0x3e0929f3	0.13394909
221	0x3c829d18	0.015944049
222	0x3d932c1d	0.07186148
223	0x3e35dd8a	0.17760292
224	0x3f11cbe2	0.56951725
225	0x3d4f2f91	0.050582472
226	0x3db660e4	0.08905199
227	0x3f14d4fa	0.58137476
228	0x3d26e639	0.0407469
229	0x3f45cac5	0.77262527
230	0x3d93ecd3	0.07222905
231	0x3efe56b7	0.49675533
232	0x3e56a329	0.20960678
233	0x3fd2ce86	1.6469276
234	0x3d4164de	0.047215335
235	0x3e08d261	0.13361503
236	0x3e4acfe0	0.1980586
237	0x3d40ed9b	0.0471016
238	0x3fb98643	1.4494098
239	0x3df6dfd3	0.1205441
240	0x3aa32679	0.0012447379
241	0x3bfeab43	0.007771881
242	0xbc20aa36	-0.009806206
243	0x3c234f69	0.009967663
244	0x3c138de5	0.009005998
245	0xbc115172	-0.008869516
246	0xbc25fd4d	-0.010131192
247	0x3bc99034	0.0061512236
248	0xbc336630	-0.010949656
249	0x3aca976d	0.0015456505
250	0x3c2f1c83	0.01068795
251	0x3ba68169	0.005081345
252	0x3bbbe863	0.0057344898
253	0xbbd08f55	-0.0063647428
254	0xbb1f55b4	-0.0024312558
255	0xbc713f28	-0.01472453

decoder.layer2.bias f4 [45]
0	0xbebf975c	-0.37420166
1	0xbe8b3e9f	-0.27196214
2	0xbd0ce442	-0.03439737
3	0xbdc106ca	-0.09425123
4	0xbe181a43	-0.14853768
5	0xbc369610	-0.011144176
6	0xbdaa1865	-0.08305434
7	0xbf0aa468	-0.54157114
8	0xbd1c38ed	-0.038140226
9	0x3c4403b9	0.011963778
10	0xbe83af32	-0.257196
11	0x3c98d64e	0.018656876
12	0xbeb7dbe9	-0.35909966
13	0xbd11a8d0	-0.035561383
14	0xbd0caa8c	-0.034342334
15	0xbdc22c69	-0.09481127
16	0xbe25e080	-0.16198921
17	0xbea555cc	-0.3229202
18	0xbec7f776	-0.39055985
19	0xbe8cfd45	-0.2753698
20	0xbd4dd346	-0.050250314
21	0xbc98f5cf	-0.018671898
22	0xbd8d8cd7	-0.06911629
23	0xbec084b1	-0.37601236
24	0xbcd8769c	-0.026423745
25	0xbd375a89	-0.044764075
26	0xbe1090f7	-0.141178
27	0xbd51d274	-0.051226094
28	0xbe21b478	-0.157915
29	0xbd81e5d4	-0.06342664
30	0xbe357eb7	-0.17724119
31	0xbd952e31	-0.07284201
32	0xbdc87565	-0.09788016
33	0x3e814973	0.2525135
34	0x3ce9f711	0.028560193
35	0xbe8c31de	-0.27381796
36	0xbe2408fe	-0.16019055
37	0xbe014b17	-0.12626301
38	0xbe68cffa	-0.22735587
39	0xbe07e2d5	-0.13270123
40	0x3ecc0396	0.39846486
41	0xbda814e7	-0.08207112
42	0xbe9f242d	-0.31082287
43	0xbe3421ef	-0.1759107
44	0x3cdcad06	0.026937973
