seq_to_seq/seq2seq_model_1.pt (torch, 35519 bytes, 26 tensors)

encoder.gru.weight_ih_l0 f4 [30, 50]
-0.3274173 -0.09156258 -0.18140559 -0.113861196 -0.30887276 0.09738108 -0.31298584 -0.049668264
0.08040687 -0.13611056 0.14991501 0.010366917 0.14431301 0.17337564 -0.16911548 0.085406385
-0.16633368 0.06960725 -0.19474304 0.11675942 0.03450106 -0.15327127 -0.18462606 0.052297875
0.26552987 0.122239515 -0.06005402 -0.04486693 0.15022257 -0.2492984 0.07561176 -0.13430104
0.15344563 -0.14232267 -0.013881083 0.07726645 0.1878033 -0.07599802 0.25897437 -0.29706088
-0.085925914 -0.3448523 -0.0033214581 0.06022141 -0.15752883 0.101818986 -0.080781154 -0.3043157
0.2132608 0.16545674 0.17740904 0.2697647 0.13380514 0.18565698 0.27993813 -0.04619257
-0.22910595 -0.13799654 -0.024691625 -0.017227357 0.015378626 0.19874306 0.118964896 -0.21629436
-0.07747465 -0.056870602 0.20998235 -0.09719896 -0.11478297 -0.033321388 -0.0629173 -0.06033839
-0.29188845 0.29927674 0.18582563 -0.1321129 -0.179783 0.028523298 0.19770013 -0.20941629
-0.10191108 0.14979227 -0.18644969 -0.017690131 -0.22094487 0.31082883 0.18798135 -0.27477542
-0.15707186 0.12961897 0.034852743 0.10132518 -0.24117753 -0.15179925 0.16100623 -0.22360249
-0.048809156 0.15658449 0.18164937 0.03718406 0.084468536 0.13346784 -0.04414627 -0.09360633
0.23428658 0.30106246 0.1392741 -0.14543724 -0.28227177 -0.3193248 -0.0050154487 -0.12853348
-0.08677984 -0.051672224 0.2918576 0.29254192 -0.036769107 -0.10216015 0.14636882 -0.03243703
-0.30809686 0.09587693 0.29553908 -0.25786808 -0.07549995 0.061375793 -0.26471016 -0.2779447
0.22887157 -0.11917787 0.17726128 0.021066979 0.06995248 -0.21795703 -0.07474087 0.20139693
0.13783897 -0.09863251 0.03169891 0.23490672 -0.28428087 0.19592528 -0.102242164 -0.07153512
0.14327706 -0.2699119 -0.054975484 0.29499137 0.10660973 -0.124134265 -0.09109289 0.22717315
0.09726142 0.19215041 -0.22584715 0.06895756 0.0343164 0.032911368 0.2714219 0.1528427
0.19576472 0.11664053 0.11069368 -0.077217184 -0.30130956 -0.28933898 -0.2191667 -0.22695142
0.12665406 0.07568117 -0.11238108 -0.26310134 0.28910315 0.21541816 0.12818027 0.29080135
-0.19057411 -0.20229733 -0.20731339 -0.03752182 -0.30135843 0.22812706 -0.014077048 0.13526797
-0.19587508 -0.05479028 0.019380651 -0.10876512 0.27627546 -0.1666883 0.07597568 -0.23677522
-0.05964165 -0.106106974 0.11422703 0.1986866 0.05469708 -0.05092382 -0.103187956 0.22571985
-0.103156686 0.1998545 -0.16913557 0.23218895 0.2865263 0.18833435 0.15293527 0.089264706
-0.18392399 -0.02466157 0.08045156 -0.11106573 0.028253714 0.15677148 -0.32143083 -0.3162667
-0.21765478 0.010139552 -0.08705101 0.039708856 -0.1036351 -0.2354503 0.013549853 0.1857413
-0.21831018 0.24876213 0.04939217 0.28337553 -0.3182861 -0.33113214 0.078849 -0.32344136
-0.28758296 0.132361 0.12507078 -0.3165888 0.1991151 -0.089925006 0.20633799 -0.21401273
-0.32912686 -0.23806782 -0.07745979 -0.34425983 -0.04998164 -0.18625969 -0.102038324 -0.02848065
-0.01068744 -0.33776388 0.1429231 -0.21355206 0.1729805 0.27002966 -0.12519616 0.015754534
00000000: 3ea3 a7be 2985 bbbd 63c2 39be 0f30 e9bd
00000010: 9224 9ebe bb6f c73d ae3f a0be f370 4bbd
00000020: 5bac a43d 9160 0bbe 5283 193e 00da 293c
00000030: cac6 133e 6289 313e 9c2c 2dbe 8be9 ae3d
00000040: 6053 2abe 3f8e 8e3d b86a 47be 901f ef3d
00000050: fc50 0d3d 25f3 1cbe 9d0e 3dbe 4c36 563d
00000060: 88f3 873e b658 fa3d 34fb 75bd 63c6 37bd
00000070: f2d3 193e 1448 7fbe 57da 9a3d 3686 09be
00000080: da20 1d3e 09bd 11be 7b6d 63bc df3d 9e3d
00000090: 824f 403e daa4 9bbd 4a98 843e 5d18 98be
000000a0: edf9 afbd 7b90 b0be d2ac 59bb baaa 763d
000000b0: 3d4f 21be 7986 d03d 9770 a5bd 44cf 9bbe
000000c0: 0a61 5a3e 7e6d 293e b7aa 353e 991e 8a3e
000000d0: 3704 093e dd1c 3e3e 0d54 8f3e 6c34 3dbd
000000e0: c09a 6abe f74e 0dbe 1746 cabc 6320 8dbc
000000f0: a2f6 7b3c 4d83 4b3e dea3 f33d 457c 5dbe
00000100: 08ab 9ebd 26f1 68bd 9d05 573e 4010 c7bd
00000110: 5513 ebbd 027c 08bd c9da 80bd 6325 77bd
00000120: 6772 95be cd3a 993e 1349 3e3e 9b48 07be
00000130: 0919 38be b1a9 e93c e771 4a3e 3971 56be
00000140: c2b6 d0bd 2563 193e abec 3ebe e5ea 90bc
00000150: 5f3f 62be f524 9f3e 2f7e 403e 5daf 8cbe
00000160: 72d7 20be d6ba 043e c0c1 0e3d 9383 cf3d
00000170: 3ef7 76be 4371 1bbe d1de 243e 0df8 64be
00000180: 1cec 47bd af57 203e 4b02 3a3e 504e 183d
00000190: d7fd ac3d cbab 083e b8d2 34bd adb4 bfbd
000001a0: d2e8 6f3e dc24 9a3e df9d 0e3e 80ed 14be
000001b0: ed85 90be 8a7e a3be a258 a4bb 489e 03be
000001c0: a1b9 b1bd 41a6 53bd 5c6e 953e 0ec8 953e
000001d0: 349b 16bd 5739 d1bd b5e1 153e b1dc 04bd
000001e0: dfbe 9dbe 205b c43d e650 973e 4907 84be
000001f0: b89f 9abd 2f65 7b3d 1788 87be c54e 8ebe
00000200: 4f5d 6a3e 8713 f4bd fb83 353e a894 ac3c
00000210: 3f43 8f3d 2130 5fbe be11 99bd ff3a 4e3e
00000220: a925 0d3e d7ff c9bd b7d6 013d 638b 703e
00000230: 438d 91be a3a0 483e 5764 d1bd 0181 92bd
00000240: 39b7 123e e431 8abe f92d 61bd 1c09 973e
00000250: 3456 da3d 1b3a febd e98e babd 14a0 683e
00000260: ff30 c73d 14c3 443e 7a44 67be 9f39 8d3d
00000270: 5a8f 0c3d 12ce 063d d0f7 8a3e cc82 1c3e
00000280: 8c76 483e 3be1 ee3d 5eb3 e23d 0b24 9ebd
00000290: 3f45 9abe 3d24 94be 3c6d 60be f465 68be
000002a0: 9ab1 013e bbfe 9a3d 0d28 e6bd 38b5 86be
000002b0: 5405 943e 9496 5c3e b041 033e eae3 943e
000002c0: dc25 43be 0827 4fbe f649 54be 7bb0 19bd
000002d0: a74b 9abe 249a 693e 6ba3 66bc b083 0a3e
000002e0: 7a93 48be c66b 60bd 2cc4 9e3c 3fc0 debd
000002f0: fa73 8d3e 56b0 2abe 2399 9b3d 3475 72be
00000300: ce4a 74bd 9d4e d9bd dcef e93d 8074 4b3e
00000310: 0c0a 603d 7f95 50bd 3554 d3bd 1b23 673e
00000320: d043 d3bd a8a6 4c3e e031 2dbe f1c2 6d3e
00000330: 93b3 923e b8da 403e 109b 1c3e 6ad0 b63d
00000340: 9256 3cbe 1007 cabc cac3 a43d 6e76 e3bd
00000350: 5574 e73c b488 203e 9592 a4be b5ed a1be
00000360: e5e0 5ebe 5d20 263c cd47 b2bd c1a5 223d
00000370: a43e d4bd e219 71be 3400 5e3c f832 3e3e
00000380: b48c 5fbe 80bb 7e3e 724f 4a3d 9916 913e
00000390: 65f6 a2be 278a a9be 967b a13d 1b9a a5be
000003a0: 133e 93be a489 073e 8e12 003e ed17 a2be
000003b0: d4e4 4b3e 9a2a b8bd 444a 533e 2726 5bbe
000003c0: 5183 a8be 0dc8 73be 3da3 9ebd d342 b0be
000003d0: 8cb9 4cbd dcba 3ebe 78f9 d0bd 4150 e9bc
000003e0: 5f1a 2fbc 63ef acbe 6f5a 123e 64ad 5abe
000003f0: cd21 313e 5441 8a3e 6c33 00be a70f 813c

encoder.gru.weight_hh_l0 f4 [30, 10]
0.07146503 0.025000678 -0.17507029 -0.0676739 0.31578848 0.16168472 0.17242353 -0.06012797
-0.33070567 0.0882483 0.26257065 0.24303983 0.11273457 -0.2579941 0.13308161 -0.22405142
0.22722933 0.20649776 0.25155604 -0.25907382 0.054965872 -0.16949421 0.24196324 0.19303001
0.31956962 0.030640444 -0.10046412 0.24984741 0.21167603 0.015699713 0.11170074 -0.16015013
0.1649771 0.2162775 0.22913305 -0.14780442 0.13865966 -0.08330609 0.28586334 -0.071630865
-0.22865693 -0.2983246 0.25816256 -0.27098218 -0.03613867 -0.09916778 -0.15111907 -0.09926694
-0.106297396 -0.2499362 -0.15833737 0.120561436 0.10414958 0.30067492 -0.04580193 -0.23896293
0.18949479 -0.12775867 -0.111294806 0.16128582 0.2769143 0.23245034 0.027603226 -0.030873403
0.10543559 -0.055485588 0.2633231 0.036855254 0.16336359 0.013172428 0.038814776 0.20966025
-0.14520976 0.282804 -0.18410912 0.22805718 -0.2098289 -0.25874123 -0.2636603 -0.015855948
0.1257026 0.06244314 -0.2239997 -0.120541885 -0.21484052 0.11529726 0.06883326 0.13610104
0.26546463 -0.13176978 -0.19750056 -0.1996466 -0.1559747 0.22267696 0.23592313 -0.111678585
-0.03633797 -0.16117209 -0.06693118 -0.29182592 0.14445436 0.15144178 -0.22641487 -0.014076464
-0.08252398 0.16695343 0.22578539 0.040831994 -0.25815877 -0.25200438 0.28689972 -0.06871418
-0.02718604 -0.14154758 -0.17691945 0.15760455 -0.008521747 0.053635363 -0.25906605 0.25805196
0.20890412 0.3177512 0.24852842 0.13505745 0.033847492 -0.27018377 -0.23248224 0.0072469646
0.18947133 0.004890269 0.15480968 0.020688491 -0.052281227 0.062323213 -0.001297159 -0.16952851
-0.11127489 0.24963997 0.22229894 -0.048963666 -0.23427323 0.2508634 -0.18551777 0.011809885
0.10306876 -0.0051445016 -0.08806384 0.25641528 0.18127763 -0.30460218 -0.17519046 0.0061024395
0.1267599 0.1308704 -0.07924292 -0.22652002 0.29991546 -0.23624742 -0.23830932 0.31243774
0.12238065 0.14419171 -0.18480812 -0.19946027 0.088199355 -0.057447746 0.24476703 -0.102542974
0.31137353 0.116648085 -0.14007849 -0.25096574 0.19192466 -0.1494384 -0.2523439 0.043434504
0.16218008 -0.07123287 0.03286098 -0.1399209 0.24492249 0.29382843 0.2050873 -0.30584642
-0.2948668 0.17854743 0.2710636 0.17604172 0.03550699 -0.061336648 -0.23607571 -0.045823388
0.29691675 -0.034365106 -0.3047981 0.047422472 -0.28873724 0.22527787 -0.019810313 0.04003804
0.096131854 -0.007320305 0.09666787 -0.25879315 0.011300315 0.08795383 -0.260635 -0.26725447
0.04147914 0.058249615 -0.068834335 -0.18056779 -0.0029574058 0.13864996 -0.20496972 -0.3122037
0.2866466 -0.27969104 -0.029980673 0.13058893 -0.23273897 -0.064182356 -0.04599881 0.07393019
0.10970187 -0.12252592 0.25166363 0.004459543 0.27633435 0.047621395 -0.13214739 0.03337272
0.31660292 -0.21997114 -0.051241096 -0.20037618 -0.18308766 0.26115894 0.3011446 0.16727063
-0.24958293 -0.19833441 -0.29233012 -0.08606551 0.13176407 0.25302547 -0.10497325 -0.21381608
0.07104976 0.28271008 -0.0049420395 0.19827184 0.24015245 -0.030458126 0.3251151 0.25524238
00000000: 425c 923d 39ce cc3c a045 33be 9d98 8abd
00000010: 07af a13e ae90 253e cb8f 303e bf48 76bd
00000020: 4152 a9be 86bb b43d a96f 863e 6fdf 783e
00000030: 62e1 e63d cd17 84be 8c46 083e bc6d 65be
00000040: ceae 683e 2674 533e f4cb 803e 53a5 84be
00000050: e523 613d e48f 2dbe 36c5 773e a9a9 453e
00000060: a19e a33e ab01 fb3c 22c0 cdbd 00d8 7f3e
00000070: 9ac1 583e af9c 803c 5cc3 e43d 65fe 23be
00000080: c2ef 283e d977 5d3e dba1 6a3e 0b5a 17be
00000090: ccfc 0d3e 629c aabd ae5c 923e 34b3 92bd
000000a0: 0b25 6abe 01be 98be e22d 843e 2dbe 8abe
000000b0: 2406 14bd 7a18 cbbd f5be 1abe 774c cbbd
000000c0: 73b2 d9bd 46ef 7fbe 3123 22be eae8 f63d
000000d0: 604c d53d 10f2 993e ce9a 3bbd b3b2 74be
000000e0: ec0a 423e 2bd3 02be 88ee e3bd 1c28 253e
000000f0: b6c7 8d3e 7607 6e3e 2920 e23c 38ea fcbc
00000100: 9dee d73d db44 63bd 49d2 863e 89f5 163d
00000110: c948 273e 2bd1 573c 3efc 1e3d 2db1 563e
00000120: deb1 14be b0cb 903e 1a87 3cbe d287 693e
00000130: 63dd 56be bb79 84be 7cfe 86be 55e4 81bc
00000140: 2fb8 003e 61c4 7f3d 2d60 65be aade f6bd
00000150: 27ff 5bbe f820 ec3d 74f8 8c3d 125e 0b3e
00000160: fbea 873e a8ee 06be 963d 4abe 2970 4cbe
00000170: d5b7 1fbe 6e05 643e d595 713e beb7 e4bd
00000180: 20d7 14bd 4c0a 25be 3713 89bd 356a 95be
00000190: d8eb 133e 8e13 1b3e 4dd9 67be f8a0 66bc
000001a0: 5502 a9bd d7f5 2a3e 4934 673e 733f 273d
000001b0: 632d 84be b806 81be 85e4 923e 05ba 8cbd
000001c0: 42b5 debc d9f1 10be 5f2a 35be 1663 213e
000001d0: cc9e 0bbc c1b0 5b3d 4ea4 84be 631f 843e
000001e0: f6ea 553e 49b0 a23e 3c7e 7e3e 804c 0a3e
000001f0: aba3 0a3d 8755 8abe d30f 6ebe f277 ed3b
00000200: c604 423e 8d3e a03b 6e86 1e3e e97a a93c
00000210: d724 56bd a046 7f3d 6f05 aaba e298 2dbe
00000220: 17e4 e3bd 9fa1 7f3e 55a2 633e 208e 48bd
00000230: 52e5 6fbe 2b71 803e 5ff8 3dbe 3f7e 413c
00000240: b715 d33d 3593 a8bb d15a b4bd dd48 833e
00000250: d8a0 393e d1f4 9bbe 2165 33be f9f6 c73b
00000260: 59cd 013e e402 063e 1d4a a2bd ddf4 67be
00000270: 858e 993e d8ea 71be 5c07 74be d7f7 9f3e
00000280: b5a2 fa3d fea6 133e 573e 3dbe 503f 4cbe
00000290: dda1 b43d 544e 6bbd 35a4 7a3e 0d02 d2bd
000002a0: 5a6c 9f3e 31e5 ee3d bc70 0fbe 957e 80be
000002b0: e687 443e 6106 19be 3833 81be 61e8 313d
000002c0: 8912 263e 8ae2 91bd 3c99 063d 6d47 0fbe
000002d0: f6cc 7a3e ae70 963e 6802 523e e797 9cbe
000002e0: c8f8 96be 23d5 363e d9c8 8a3e 4844 343e
000002f0: c76f 113d 233c 7bbd d5bd 71be 4eb1 3bbd
00000300: 7905 983e 6dc2 0cbd 7f0e 9cbe 113e 423d
00000310: 5ed5 93be 3eaf 663e 3d49 a2bc eefe 233d
00000320: c7e0 c43d 2bdf efbb cef9 c53d 8980 84be
00000330: f524 393c 2321 b43d f371 85be 94d5 88be
00000340: 08e6 293d 2697 6e3d 04f9 8cbd c3e6 38be
00000350: 09d1 41bb 41fa 0d3e 95e3 51be 2ad9 9fbe
00000360: 58c3 923e aa33 8fbe 079a f5bc 1bb9 053e
00000370: 2053 6ebe 0a72 83bd 4069 3cbd b668 973d
00000380: 60ab e03d dfee fabd 0eda 803e 5c21 923b
00000390: b27b 8d3e a70e 433d a551 07be d5b1 083d
000003a0: c719 a23e 1d40 61be 2fe2 51bd 6a2f 4dbe
000003b0: 557b 3bbe a0b6 853e a02f 9a3e fe48 2b3e
000003c0: ab92 7fbe 2d18 4bbe 4bac 95be 1d43 b0bd
000003d0: 29ed 063e 8e8c 813e 37fc d6bd 9af2 5abe
000003e0: 8982 913d 60bf 903e d5f0 a1bb c607 4b3e
000003f0: 86ea 753e 5283 f9bc 7d75 a63e 21af 823e

encoder.gru.bias_ih_l0 f4 [30]
0.15485656 -0.114433944 0.22066171 0.0017749779 0.06777213 0.2073447 -0.0074174344 0.12365378
-0.024367722 0.15547226 0.22467948 0.0691978 -0.02685544 -0.2539736 -0.17142104 -0.06526397
0.27742666 0.0117930155 0.10441064 -0.17581122 0.037613153 -0.23814525 -0.12283997 -0.31145784
0.24467537 -0.1807411 -0.14872314 0.203664 0.21434638 0.15867034
00000000: b892 1e3e 585c eabd 25f5 613e 60a6 e83a
00000010: 1dcc 8a3d 2b52 543e f30d f3bb 313e fd3d
00000020: d19e c7bc 1f34 1f3e 6112 663e 93b7 8d3d
00000030: f1ff dbbc d408 82be ff88 2fbe 1ea9 85bd
00000040: de0a 8e3e 7e37 413c 3fd5 d53d db07 34be
00000050: 4010 1a3d 59dc 73be 8693 fbbd 6777 9fbe
00000060: 2e8c 7a3e 3214 39be e14a 18be 4c8d 503e
00000070: 9e7d 5b3e 7a7a 223e

encoder.gru.bias_hh_l0 f4 [30]
0.30067658 -0.22373275 0.08772953 -0.13471557 -0.2561059 -0.15609254 -0.080870226 -0.04226246
-0.06950722 -0.021189405 -0.2908105 0.24294019 0.29568988 0.1715386 0.31102118 -0.08372487
-0.03302732 -0.27039367 0.028406207 -0.2292472 -0.32865196 -0.029948045 -0.10948485 -0.27315325
0.047207024 -0.010136273 0.326352 -0.017373737 0.051017705 0.24726552
00000000: 48f2 993e 331a 65be 8aab b33d e1f2 09be
00000010: 5020 83be b9d6 1fbe 4a9f a5bd 671b 2dbd
00000020: cd59 8ebd 6795 adbc 1de5 94be 50c5 783e
00000030: aa64 973e d1a7 2f3e 2b3e 9f3e f277 abbd
00000040: a847 07bd 0a71 8abe 22b4 e83c c7bf 6abe
00000050: 1245 a8be 9a55 f5bc 9839 e0bd beda 8bbe
00000060: 275c 413d 9c12 26bc 9c17 a73e 5e53 8ebc
00000070: f1f7 503d 2c33 7d3e

encoder.gru.weight_ih_l1 f4 [30, 10]
-0.1188121 0.18263887 0.2576002 -0.10146828 -0.21683277 0.20998733 -0.1143378 -0.30582687
-0.32854083 0.32814184 0.25717753 -0.2876623 -0.18247074 0.11470164 0.07407813 0.019786514
-0.003409537 -0.11902969 -0.2715097 0.03375935 -0.0037939737 0.2531846 -0.101979166 0.16454323
0.24929848 -0.2678824 0.009022974 0.27555323 -0.15221944 0.122832894 -0.07970221 -0.08139717
0.14954606 0.0061492 -0.15788163 0.19461547 -0.05409647 -0.039284438 0.106647104 -0.08308505
-0.28730914 -0.24834907 0.25922018 -0.07596067 0.22666132 -0.18448126 0.2654649 0.22258759
-0.016654095 -0.09281265 0.16010009 0.07833054 -0.15278068 -0.22590259 0.23989326 -0.108930856
0.17046273 -0.34483275 -0.33351755 0.21215832 -0.10648438 0.26978552 -0.020949235 0.21455148
-0.06242571 0.29310277 -0.245515 -0.11214831 -0.034318514 -0.26092976 -0.07275884 -0.26893303
0.041437674 0.08856521 -0.2537964 -0.2480526 -0.27071008 -0.004249064 0.025652232 -0.0350599
0.196575 -0.3211256 0.08748312 0.2579088 -0.25012618 -0.005326254 0.28867882 0.11237019
-0.054441016 -0.015047481 0.19717926 -0.04441062 -0.28309754 -0.08574996 0.21068153 0.1617696
-0.022740861 0.08566683 -0.14902101 -0.18324085 0.20603117 -0.23763737 -0.2435552 0.20272908
-0.2023112 -0.19898197 0.2518778 0.20145099 -0.2874911 -0.048140913 -0.30259717 -0.17878756
-0.2161191 -0.054261502 -0.121917814 -0.15906602 0.18119887 -0.19193403 -0.13912207 0.0166898
0.086158685 0.2561287 -0.0946723 -0.09175662 0.049674653 -0.024132177 0.10204706 0.025486447
0.3011985 -0.18625022 0.28252733 -0.19429514 0.12914425 0.15372466 0.038430974 -0.13711806
0.11812835 0.22510582 -0.21360908 -0.07918736 0.11591464 -0.12117125 -0.16604863 0.12926726
0.2694273 0.16891065 -0.15625526 -0.043048013 0.14602514 0.013640059 -0.1528926 0.086684324
0.2407818 0.08719072 0.25801584 -0.05690587 -0.042882904 0.23899163 -0.0984238 -0.05632114
-0.06251512 0.2515392 -0.03845454 0.18478695 0.11258525 0.15125714 -0.062587254 -0.3034621
0.29772806 -0.06853037 0.098127484 -0.30301118 0.026455885 0.009060943 0.25871986 0.21753971
-0.22024204 0.09259188 0.23284131 0.20915598 -0.23790246 0.3124834 0.043863792 0.19051814
0.016115936 0.08907152 0.22707108 0.048516884 0.18437532 0.2287861 0.17893192 0.16586062
-0.019087663 0.06440392 0.08576514 -0.06495015 -0.24743836 0.10780881 0.102596395 -0.033518326
-0.2561319 0.31011903 0.13436492 -0.18152437 0.2543871 -0.22817013 -0.04928934 0.090060115
-0.027903846 -0.15349105 -0.19530903 0.13467684 -0.05461074 0.0892264 0.31199166 -0.1756573
0.001446601 -0.27342242 -0.12536617 -0.14756384 0.029889883 -0.03512769 0.11790639 0.22947735
-0.16174184 0.27849787 0.11123697 0.08538444 0.11312025 0.23325889 0.25624397 -0.23789763
-0.26545212 0.2077192 -0.11500741 -0.2958157 0.17020713 -0.18306695 0.31352085 -0.044835165
-0.18177179 0.13195962 0.07604064 -0.23774904 -0.28925955 -0.2272868 -0.20210034 0.026972502
0.2989576 0.09419407 0.06299135 -0.1362509 -0.26317123 0.051620368 -0.34145257 0.2044226
00000000: c253 f3bd af05 3b3e 2ce4 833e 9ace cfbd
00000010: 6909 5ebe eb06 573e f029 eabd 5795 9cbe
00000020: 8136 a8be 3502 a83e c6ac 833e 7948 93be
00000030: 9cd9 3abe b2e8 ea3d 46b6 973d 5417 a23c
00000040: 8a72 5fbb d7c5 f3bd 5203 8bbe 3f47 0a3d
00000050: 51a4 78bb 69a1 813e 74da d0bd 057e 283e
00000060: 1a48 7f3e e227 89be 19d5 133c 5015 8d3e
00000070: 6adf 1bbe d08f fb3d ea3a a3bd 8fb3 a6bd
00000080: 9a22 193e 3a7f c93b b9ab 21be 4749 473e
00000090: 4394 5dbd b8e8 20bd cc69 da3d 7f28 aabd
000000a0: 2f1a 93be 384f 7ebe 82b8 843e 4591 9bbd
000000b0: e819 683e a8e8 3cbe 04eb 873e 00ee 633e
000000c0: 2b6e 88bc 8f14 bebd 47f1 233e c36b a03d
000000d0: 8a72 1cbe 0253 67be 94a6 753e 2417 dfbd
000000e0: c88d 2e3e eb8d b0be d0c2 aabe 0840 593e
000000f0: 7c14 dabd 5421 8a3e bb9d abbc 62b3 5b3e
00000100: 1ab2 7fbd 9111 963e 4968 7bbe 03ae e5bd
00000110: 9291 0cbd 9698 85be 9602 95bd 97b1 89be
00000120: 8dba 293d ad61 b53d 9af1 81be 8001 7ebe
00000130: 839a 8abe bb3b 8bbb a124 d23c f89a 0fbd
00000140: f54a 493e 936a a4be 5a2a b33d 9f0c 843e
00000150: 8a10 80be db87 aebb b6cd 933e 5822 e63d
00000160: 8bfd 5ebd b689 76bc 5ce9 493e e9e7 35bd
00000170: 29f2 90be ad9d afbd e6bc 573e eea6 253e
00000180: 0b4b babc 1772 af3d f798 18be 7da3 3bbe
00000190: d6f9 523e 3657 73be 8966 79be 3698 4f3e
000001a0: ab2a 4fbe eec1 4bbe 21f6 803e 2b49 4e3e
000001b0: 0932 93be 682f 45bd 04ee 9abe 1614 37be
000001c0: 534e 5dbe 4f41 5ebd 0cb0 f9bd 34e2 22be
000001d0: 328c 393e 5b8a 44be 0476 0ebe 0cb9 883c
000001e0: f773 b03d 4d23 833e 8de3 c1bd e5ea bbbd
000001f0: a677 4b3d d8b0 c5bc 0dfe d03d f4c8 d03c
00000200: b136 9a3e 61b8 3ebe 6ca7 903e 4ef5 46be
00000210: 643e 043e ff69 1d3e cc69 1d3d ad68 0cbe
00000220: 47ed f13d 2482 663e 57bc 5abe fc2c a2bd
00000230: a864 ed3d a228 f8bd a708 2abe a35e 043e
00000240: 60f2 893e eaf6 2c3e 6101 20be 1d53 30bd
00000250: 9d87 153e 8e7a 5f3c e18f 1cbe 8d87 b13d
00000260: 818f 763e 0c91 b23d a71a 843e 2116 69bd
00000270: fca5 2fbd 39ba 743e 6b92 c9bd ffb0 66bd
00000280: ed07 80bd bfc9 803e 8282 1dbd ca38 3d3e
00000290: 1893 e63d 27e3 1a3e bf2d 80bd 625f 9bbe
000002a0: d06f 983e a759 8cbd 10f7 c83d 4824 9bbe
000002b0: 03ba d83c 5974 143c ee76 843e bbc2 5e3e
000002c0: 2187 61be d0a0 bd3d f46d 6e3e fc2c 563e
000002d0: b49c 73be d3fd 9f3e 85aa 333d 3017 433e
000002e0: 9105 843c 216b b63d 5285 683e a4b9 463d
000002f0: e2cc 3c3e e746 6a3e ee39 373e 5ed7 293e
00000300: bb5d 9cbc 34e6 833d a2a5 af3d 9604 85bd
00000310: 7b60 7dbe deca dc3d 0f1e d23d 834a 09bd
00000320: b823 83be ecc7 9e3e f596 093e 86e1 39be
00000330: 073f 823e 6ea5 69be 9ee3 49bd 7071 b83d
00000340: 9b96 e4bc c22c 1dbe 17ff 47be bae8 093e
00000350: 83af 5fbd 55bc b63d 5fbd 9f3e 82df 33be
00000360: e09b bd3a 06fe 8bbe fd5f 00be fa1a 17be
00000370: a1db f43c 0de2 0fbd e878 f13d 1cfc 6a3e
00000380: a79f 25be 4697 8e3e 35d0 e33d 0ade ae3d
00000390: 97ab e73d 6bdb 6e3e 6932 833e 709b 73be
000003a0: 57e9 87be 58b4 543e 0189 ebbd 2875 97be
000003b0: c74a 2e3e e775 3bbe ce85 a03e 14a5 37bd
000003c0: 6222 3abe 6c20 073e 32bb 9b3d 7c74 73be
000003d0: d419 94be dfbd 68be 64f3 4ebe 70f5 dc3c
000003e0: f810 993e d2e8 c03d 9c01 813d 5b85 0bbe
000003f0: 61be 86be e16f 533d dfd2 aebe 2854 513e

encoder.gru.weight_hh_l1 f4 [30, 10]
0.20701298 0.21564622 0.006527527 -0.18913074 -0.10032766 0.0006719519 -0.16713633 0.23765261
-0.34451425 -0.10897742 -0.22495978 -0.08420696 0.08716656 -0.039240196 0.05497695 0.09132722
0.20610678 -0.2411177 -0.1994654 0.2921164 0.2658169 0.23259921 -0.26732427 0.016894892
0.13632295 -0.08575432 0.22808397 0.3088384 -0.1034493 0.13595304 -0.05236315 0.07334676
0.32186165 0.08974748 0.21356998 0.065608665 -0.06441652 0.32616034 -0.25763583 -0.20184898
0.09544982 0.26889312 -0.19780296 0.060413983 -0.2306529 0.109774165 -0.22283235 -0.22705525
-0.08634738 0.30487147 -0.15638964 -0.22784542 -0.045451447 0.13481845 0.10854388 0.24018845
0.06769183 0.22092399 -0.050560422 -0.06009219 -0.01371792 0.28114703 0.08094766 0.08400444
0.03050413 -0.18531811 -0.020886106 -0.10234295 0.29512712 -0.0067976327 0.027200012 0.31459787
-0.05902536 0.18739608 -0.19811909 -0.19702981 0.13843751 0.067850396 0.18124223 0.07226931
-0.020775458 0.259765 -0.000850318 -0.16590133 0.23673661 -0.14132929 -0.28209177 0.31946874
-0.28864548 -0.05155147 0.23989731 -0.1953454 0.2507581 0.27631748 0.1494542 -0.04834606
-0.05538011 0.23851033 -0.24793138 0.010542119 -0.28398994 -0.13013619 0.029984264 -0.08356335
0.12882914 -0.112611026 -0.25081527 0.25896692 0.098057635 -0.056567162 0.0007582488 -0.23266326
-0.03124431 0.24162081 -0.15564507 -0.2538671 0.126177 -0.18289605 -0.13787113 0.31664193
-0.29004824 -0.18363392 0.17800072 0.015093377 0.104246944 0.27515778 0.022581847 -0.23352113
0.035269026 -0.29323617 0.042794038 -0.01616982 -0.18767658 0.18861572 0.098826565 0.031807005
0.18638287 0.1936533 0.12155238 0.07825846 0.046728507 0.041371405 0.1734821 -0.20745452
0.08717404 0.2730026 0.079449385 -0.10493411 0.18048865 -0.035700746 -0.14942025 -0.2393015
0.11884137 -0.01079557 -0.30100787 0.20295236 0.2506599 -0.12816909 -0.22778662 -0.021245224
-0.10608141 0.057602596 -0.25087756 -0.2571373 -0.14367284 -0.23640591 0.09042772 0.26035988
0.020678671 0.15518545 0.07077624 -0.11295949 -0.19348781 0.09322549 -0.031667892 -0.27830637
0.30029148 -0.21835238 0.1650187 0.06408587 0.2659974 -0.13305596 0.091852106 -0.23359188
-0.23785411 0.001158095 0.2865699 -0.01505961 -0.010093482 0.18198329 -0.028578904 0.01731614
-0.17032292 -0.18654437 0.30241725 -0.19994333 -0.26137418 0.097499155 -0.0070834663 0.07687489
-0.1872593 0.13663967 0.12621982 -0.11878409 -0.12055934 0.16260497 0.11252745 -0.2047157
0.020846596 0.032322362 -0.20602922 0.06990723 0.114320554 0.19955312 -0.28852892 0.1946027
-0.012238342 0.02461114 0.08091435 0.05980586 -0.32620218 -0.23445138 -0.015136118 0.33186364
-0.2890815 0.2575115 -0.15861061 0.21654984 0.002515305 -0.23051931 0.28974593 -0.27483994
-0.12298807 -0.10057309 0.30431297 -0.20939943 -0.28169823 -0.010156073 -0.048228644 -0.23047528
-0.16565946 -0.32690704 0.23904637 -0.27507344 0.14268059 0.19831581 0.039196577 0.055744704
0.164244 -0.30305636 0.26956362 0.03269246 0.25410038 -0.18277553 -0.114164986 0.32344875
00000000: 36fb 533e 5dd2 5c3e dde4 d53b 7dab 41be
00000010: 9778 cdbd ee25 303a c925 2bbe 355b 733e
00000020: 2c64 b0be 8e2f dfbd db5b 66be b374 acbd
00000030: 6284 b23d 54ba 20bd 832f 613d c409 bb3d
00000040: a80d 533e 8fe7 76be a840 4cbe 4890 953e
00000050: 2719 883e 7d2e 6e3e bade 88be 2867 8a3c
00000060: 3e98 0b3e f69f afbd d88e 693e 1120 9e3e
00000070: 3add d3bd 4637 0b3e be7a 56bd d336 963d
00000080: 0dcb a43e 87cd b73d 17b2 5a3e d65d 863d
00000090: cfec 83bd 7dfe a63e d8e8 83be 80b1 4ebe
000000a0: 327b c33d 5cac 893e dc8c 4abe a774 773d
000000b0: 4630 6cbe 47d1 e03d 2a2e 64be 2c81 68be
000000c0: e5d6 b0bd 1d18 9c3e 9b24 20be 4f50 69be
000000d0: 4c2b 3abd d90d 0a3e 414c de3d f6f3 753e
000000e0: 04a2 8a3d e639 623e 7218 4fbd 3a23 76bd
000000f0: 20c1 60bc 81f2 8f3e e3c7 a53d 850a ac3d
00000100: cce3 f93c 08c4 3dbe 5719 abbc 2e99 d1bd
00000110: e71a 973e adbe debb 8fd2 de3c f912 a13e
00000120: 93c4 71bd c2e4 3f3e bbdf 4abe 2fc2 49be
00000130: 90c2 0d3e 26f5 8a3d 9097 393e ef01 943d
00000140: 4b31 aabc ebff 843e e0e7 5eba 0ae2 29be
00000150: 156b 723e a0b8 10be 556e 90be 6891 a33e
00000160: 57c9 93be a227 53bd a4a7 753e a008 48be
00000170: 5e63 803e 7c79 8d3e 860a 193e 8506 46bd
00000180: 41d6 62bd 0d3c 743e b9e1 7dbe dab8 2c3c
00000190: 2167 91be 6c42 05be 8fa1 f53c 4323 abbd
000001a0: c9eb 033e 9ca0 e6bd dc6a 80be 5097 843e
000001b0: 71d2 c83d f8b2 67bd 37c5 463a 473f 6ebe
000001c0: 11f4 ffbc 726b 773e 6c61 1fbe defa 81be
000001d0: 8b34 013e 1a49 3bbe 172e 0dbe e41e a23e
000001e0: 3481 94be 880a 3cbe d245 363e 364a 773c
000001f0: 6c7f d53d 7be1 8c3e 91fd b83c 2a20 6fbe
00000200: 4176 103d 0d23 96be cd48 2f3d 9276 84bc
00000210: 4a2e 40be 7b24 413e 9565 ca3d 1048 023d
00000220: 27db 3e3e 0d4d 463e 74f0 f83d f945 a03d
00000230: 6466 3f3d 1075 293d 4ba5 313e f56e 54be
00000240: 4e88 b23d ffc6 8b3e 5cb6 a23d b2e7 d6bd
00000250: 04d2 383e f23a 12bd 9f01 19be 740b 75be
00000260: 1b63 f33d e7df 30bc b41d 9abe bed2 4f3e
00000270: 7f56 803e c23e 03be e540 69be 770a aebc
00000280: 3641 d9bd b3f0 6b3d 0673 80be 80a7 83be
00000290: f91e 13be 6414 72be 2b32 b93d e44d 853e
000002a0: 5166 a93c efe8 1e3e 22f3 903d 4e57 e7bd
000002b0: ab21 46be 01ed be3d 31b6 01bd 2c7e 8ebe
000002c0: cebf 993e c497 5fbe a9fa 283e 743f 833d
000002d0: d030 883e d23f 08be f51c bc3d b632 6fbe
000002e0: 0790 73be 38cb 973a 4ab9 923e 95bc 76bc
000002f0: 225f 25bc d459 3a3e 4e1e eabc 94da 8d3c
00000300: 2269 2ebe 7d05 3fbe 6fd6 9a3e f2bd 4cbe
00000310: d6d2 85be a3ad c73d 6c1c e8bb 9570 9d3d
00000320: e7c0 3fbe 45eb 0b3e c53f 013e 1345 f3bd
00000330: d1e7 f6bd eb81 263e cb74 e63d fea0 51be
00000340: 7bc6 aa3c 7464 043d 53f9 52be 862b 8f3d
00000350: e520 ea3d a757 4c3e 10ba 93be ee45 473e
00000360: 5483 48bc 4d9d c93c 6cb6 a53d fdf6 743d
00000370: f903 a7be 0614 70be 7bfd 77bc 08ea a93e
00000380: 7e02 94be 8cd8 833e d26a 22be 3ebf 5d3e
00000390: d1d7 243b 410d 6cbe 9459 943e d2b7 8cbe
000003a0: 2be1 fbbd 44f9 cdbd e9ce 9b3e ce6c 56be
000003b0: c03a 90be a865 26bc 668b 45bd b601 6cbe
000003c0: a2a2 29be 5c60 a7be 92c8 743e 6dd6 8cbe
000003d0: dc1a 123e 4d13 4b3e 978c 203d 8f54 643d
000003e0: 942f 283e 342a 9bbe 3e04 8a3e 87e8 053d
000003f0: 7219 823e 8229 3bbe 55cf e9bd 139b a53e

encoder.gru.bias_ih_l1 f4 [30]
-0.11234813 0.1617868 0.16085824 0.06214799 0.07069282 0.026602572 -0.023690818 0.13420083
0.31003007 0.17159343 0.05870632 -0.12682514 0.22632168 -0.20671007 0.2932991 -0.17081717
0.17197272 0.16655111 0.17096844 -0.29152775 -0.14202894 -0.037137073 0.08666565 0.2639664
-0.118561625 -0.09997584 -0.0147149535 0.32803744 -0.013882094 0.14045985
00000000: c716 e6bd 70ab 253e 06b8 243e e48e 7e3d
00000010: 66c7 903d a3ed d93c 3f13 c2bc f16b 093e
00000020: 43bc 9e3e 30b6 2f3e 0a76 703d 73de 01be
00000030: dfc0 673e ceab 53be 4d2b 963e b2ea 2ebe
00000040: 9e19 303e 608c 2a3e 5a12 2f3e 2043 95be
00000050: 0970 11be 0b1d 18bd c37d b13d 9b26 873e
00000060: 70d0 f2bd 22c0 ccbd fd16 71bc 86f4 a73e
00000070: b971 63bc b5d4 0f3e

encoder.gru.bias_hh_l1 f4 [30]
0.17913228 0.33259436 0.25231263 0.3503286 0.33612043 -0.12845723 0.2595025 -0.07072054
0.34405726 -0.18441114 0.22860262 0.096074514 -0.020129899 0.32314098 -0.31469044 0.17229684
0.010116051 -0.19529393 0.3057434 0.22628918 -0.33394772 0.26519102 0.26700613 0.14712295
-0.2800705 -0.28545192 -0.12457945 0.0725524 0.26887843 0.071018316
00000000: 746e 373e cf49 aa3e 1f2f 813e 455e b33e
00000010: fa17 ac3e 4b8a 03be 83dd 843e eed5 90bd
00000020: 4628 b03e 46d6 3cbe ce16 6a3e b7c2 c43d
00000030: 75e7 a4bc bc72 a53e 1b1f a1be 956e 303e
00000040: cbbd 253c 22fb 47be 668a 9c3e 5ab8 673e
00000050: 32fb aabe 1ec7 873e 07b5 883e 66a7 163e
00000060: 6765 8fbe c126 92be 8323 ffbd 5a96 943d
00000070: 6faa 893e 0d72 913d

encoder.gru.weight_ih_l2 f4 [30, 10]
0.27059066 -0.17630698 0.032959234 -0.055279337 -0.07048695 0.083655685 -0.30542246 -0.11569083
0.10070432 -0.21290559 -0.31985202 -0.16681154 -0.06089586 -0.11901319 0.19727877 -0.035865493
-0.002100796 -0.034949936 -0.20381737 0.11249141 -0.1422315 -0.22349766 0.044607386 0.15180294
-0.3207328 -0.22972205 -0.17958152 0.25620282 -0.28758633 -0.012463982 -0.015444409 -0.06480688
0.21176216 -0.119835235 0.20009354 -0.116643846 -0.16028185 -0.047904443 0.044950917 0.31187147
-0.03290572 -0.06720865 0.11053121 -0.09651299 0.03754915 -0.09607097 -0.16097403 0.08461197
-0.18476072 0.24297345 -0.047905993 0.12901156 0.0871595 -0.24639992 -0.23096834 -0.0180387
0.21488301 0.2706956 0.12295049 0.23413737 -0.20359518 0.17718348 0.115297146 -0.12553042
0.23097289 0.0849896 -0.15425298 0.26815614 -0.11420049 -0.015202807 -0.24082161 -0.13044259
0.07684495 -0.19119008 0.21292952 -0.2148628 0.09220533 0.13942207 -0.293345 0.30966517
-0.08354107 0.11218067 -0.2724594 -0.29928294 0.11390182 0.2197712 0.13315718 0.047331035
-0.2007761 -0.034061387 0.05627691 0.27135658 -0.058600616 0.2133043 -0.21035945 -0.19225378
0.21932912 -0.08398448 -0.22193219 0.19249313 -0.13484764 -0.11512981 -0.07139598 0.2611613
0.27094358 -0.2101951 -0.28065357 -0.29768136 -0.2969867 0.20012084 -0.27075943 0.23638478
0.20971929 -0.016680392 -0.059004124 -0.17907797 0.14924674 0.17255268 0.14667763 -0.19917043
0.11186782 0.12152371 0.2190331 0.19922581 0.09404811 0.0068171187 0.30163252 -0.15250607
0.05873757 -0.28191733 -0.3239259 -0.21899207 0.30284575 0.010221221 -0.086820476 -0.09866349
-0.024984298 -0.040040545 -0.25617057 0.11302886 -0.150734 -0.012670307 -0.05121819 0.20584784
0.043029517 -0.29147828 0.30735543 -0.31291154 0.20531495 0.24315652 -0.17099543 -0.05660167
0.10743402 0.18380386 0.2716069 -0.15760203 0.24917528 0.038334228 -0.16147633 0.17967401
0.30730534 -0.22294271 -0.1541195 -0.09188926 -0.16339123 -0.19964941 0.14151198 -0.21607345
-0.13062769 0.13368072 0.061937276 0.10289084 -0.076117344 0.10513507 -0.047843546 0.2783947
0.0148737375 0.2293504 0.15864055 0.17818597 -0.21453518 0.14281617 0.027091328 -0.046835415
-0.220769 0.28883508 0.09226706 -0.20930153 -0.21694212 0.106536165 -0.09163025 0.08248192
0.10065814 -0.31231427 -0.05005288 0.25089702 0.21289511 0.24817397 -0.0560614 0.23480536
-0.14220051 0.15343374 -0.0878501 -0.23487325 -0.11805193 -0.3437004 -0.32141665 0.09813221
-0.05856864 0.16695751 0.2542112 -0.10358469 0.21697304 0.25886 -0.26297382 0.22990203
0.25298426 0.011019699 -0.1443892 0.18337421 0.25243008 0.12561578 -0.015234465 0.0011281603
-0.026511997 0.20945632 0.04256413 -0.19519646 -0.19425245 0.043091472 -0.0017266697 0.33163935
0.071323276 0.33734274 -0.1629748 -0.2577928 -0.05380738 -0.078917556 -0.08965739 -0.071281835
0.29259995 0.13775794 0.049050074 0.011883113 0.3042537 0.14079385 -0.09639581 -0.30641848
-0.29996544 -0.13641804 0.088072054 0.020571496 0.12190207 0.1352355 -0.10222276 0.18718596
00000000: dc8a 8a3e d189 34be 4300 073d 966c 62bd
00000010: 765b 90bd ac53 ab3d 5560 9cbe 50ef ecbd
00000020: 113e ce3d ec03 5abe a5c3 a3be a5d0 2abe
00000030: f06d 79bd 30bd f3bd 7203 4a3e b2e7 12bd
00000040: 82ad 09bb aa27 0fbd 80b5 50be e561 e63d
00000050: 22a5 11be 92dc 64be 3cb6 363d 3b72 1b3e
00000060: 1737 a4be 423c 6bbe 38e4 37be 042d 833e
00000070: 843e 93be bb35 4cbc 8c0a 7dbc 78b9 84bd
00000080: 2ed8 583e 2d6c f5bd 52e5 4c3e f8e2 eebd
00000090: ed20 24be 7337 44bd 741e 383d 9ead 9f3e
000000a0: 26c8 06bd b0a4 89bd 305e e23d 9aa8 c5bd
000000b0: 23cd 193d dbc0 c4bd 60d6 24be 0a49 ad3d
000000c0: ea31 3dbe 08ce 783e 1339 44bd 9b1b 043e
000000d0: ae80 b23d 4350 7cbe f782 6cbe e5c5 93bc
000000e0: 4b0a 5c3e 9d98 8a3e 77cd fb3d b5c1 6f3e
000000f0: 417b 50be 966f 353e e920 ec3d 0c8b 00be
00000100: 2884 6c3e 070f ae3d 7ef4 1dbe c34b 893e
00000110: f2e1 e9bd 3215 79bc f199 76be be92 05be
00000120: e360 9d3d 55c7 43be 320a 5a3e fe04 5cbe
00000130: 26d6 bc3d a9c4 0e3e 5131 96be 6f8c 9e3e
00000140: 9517 abbd fbbe e53d cc7f 8bbe 9d3b 99be
00000150: 5b45 e93d b40b 613e 5b5a 083e 30de 413d
00000160: 4098 4dbe f483 0bbd 9e82 663d 40ef 8a3e
00000170: 3307 70bd 716c 5a3e 7868 57be 2dde 44be
00000180: d097 603e 0e00 acbd 3142 63be eb1c 453e
00000190: 8015 0abe 2ec9 ebbd 0e38 92bd efb6 853e
000001a0: 1eb9 8a3e 623d 57be d3b1 8fbe b169 98be
000001b0: a40e 98be 7aec 4c3e fba0 8abe da0e 723e
000001c0: a7c0 563e 51a5 88bc 4fae 71bd 3760 37be
000001d0: 23d4 183e a6b1 303e a932 163e 55f3 4bbe
000001e0: f51a e53d 6ce1 f83d 374a 603e da01 4c3e
000001f0: 4c9c c03d 2362 df3b 946f 9a3e 8d2a 1cbe
00000200: ce96 703d 7857 90be 9ed9 a5be 753f 60be
00000210: 990e 9b3e e876 273c efce b1bd 1510 cabd
00000220: dfab ccbc 8e01 24bd ca28 83be ad7b e73d
00000230: 045a 1abe 1f97 4fbc 2aca 51bd c7c9 523e
00000240: b83f 303d a43c 95be b15d 9d3e f135 a0be
00000250: 153e 523e 06fe 783e 6d19 2fbe 27d7 67bd
00000260: 5e06 dc3d 1437 3c3e 0f10 8b3e 6d62 21be
00000270: ce27 7f3e 5a04 1d3d 0d5a 25be 77fc 373e
00000280: 2057 9d3e 184b 64be 81d1 1dbe 7030 bcbd
00000290: 0850 27be e570 4cbe 84e8 103e 5c42 5dbe
000002a0: 44c3 05be 99e3 083e f1b1 7d3d 6fb8 d23d
000002b0: 69e3 9bbd 0e51 d73d 98f7 43bd c089 8e3e
000002c0: fab0 733c d5da 6a3e ab72 223e 6276 363e
000002d0: 1caf 5bbe 673e 123e a2ee dd3c 7ed6 3fbd
000002e0: 4511 62be 31e2 933e 83f6 bc3d 2453 56be
000002f0: 1326 5ebe a22f da3d a4a8 bbbd 48ec a83d
00000300: db25 ce3d a8e7 9fbe 4004 4dbd 9375 803e
00000310: 2d01 5a3e 5121 7e3e a3a0 65bd d170 703e
00000320: 039d 11be bc1d 1d3e c1ea b3bd 9d82 70be
00000330: 36c5 f1bd 80f9 afbe b990 a4be 8af9 c83d
00000340: ace5 6fbd e9f6 2a3e f827 823e 3624 d4bd
00000350: 2e2e 5e3e 4c89 843e 81a4 86be 706b 6b3e
00000360: 2787 813e f88b 343c c3da 13be 73c6 3b3e
00000370: 843e 813e 6ca1 003e fa99 79bc c7de 933a
00000380: b02f d9bc b87b 563e ba57 2e3d 95e1 47be
00000390: 1dea 46be af80 303d 6c51 e2ba a2cc a93e
000003a0: f011 923d 30b8 ac3e dee2 26be 6bfd 83be
000003b0: 2165 5cbd 879f a1bd 4b9e b7bd 36fc 91bd
000003c0: a9cf 953e 6b10 0d3e bbe8 483d 63b1 423c
000003d0: 24c7 9b3e 432c 103e 2b6b c5bd e2e2 9cbe
000003e0: 1295 99be 2cb1 0bbe 1f5f b43d 8e85 a83c
000003f0: cba7 f93d 2d7b 0a3e 2b5a d1bd adad 3f3e

encoder.gru.weight_hh_l2 f4 [30, 10]
0.027841492 0.039485358 -0.10293581 -0.10775649 0.28563756 0.001008147 -0.27774796 -0.13521792
0.19816038 -0.30193472 0.30254272 -0.017536286 0.10476395 -0.05805782 -0.22228178 0.16220596
0.0638764 -0.18665671 0.14607303 -0.18975095 -0.21120283 -0.27037236 0.19152519 0.29623988
0.17630415 0.19514367 0.28881362 -0.037139457 -0.2518618 -0.17984872 0.20366369 -0.2115832
-0.079611085 0.013091091 -0.048057746 -0.30400878 0.25046408 -0.090937145 -0.02916823 -0.09672638
-0.07879697 -0.05095701 -0.17695975 0.2617303 0.052156586 0.060204726 -0.24435931 0.3128093
-0.097109295 0.20071144 -0.1304495 -0.007693786 -0.020733234 0.050740104 -0.07288121 -0.11102622
-0.1751204 -0.13190883 -0.2073252 0.24654761 -0.09940541 0.04928314 -0.30982783 -0.19150251
-0.25193065 0.09576317 0.2902364 -0.042243592 0.28919905 -0.2688953 -0.29318133 0.16617596
-0.2184154 -0.119606085 0.20442232 -0.029972004 0.19578284 -0.16000973 0.08248641 0.3207113
0.04468202 0.1758991 0.2896281 0.24683207 0.2691097 -0.1798948 0.1471505 -0.003992186
-0.14954908 -0.16578864 0.16236992 0.20566949 -0.0154701015 0.3119697 0.053378306 0.23054366
0.15860657 -0.097908504 -0.06807237 -0.23969683 0.31101617 -0.08000984 0.11854861 0.17163412
-0.22710162 0.14561513 0.20078592 -0.17112686 -0.11162978 0.05630533 0.27050182 0.2911173
-0.06330039 -0.15129791 0.15025495 -0.053495966 0.051049434 -0.25588182 0.03654687 0.08071556
-0.11655615 0.05841195 0.24913123 -0.299653 0.2739577 -0.20881692 -0.27178958 0.052367367
0.30863118 -0.22588727 -0.29681757 0.2647197 -0.155083 -0.28339675 -0.29015476 -0.09607423
-0.297356 -0.28417972 0.13827175 -0.044800032 0.09964037 0.16588637 0.057915974 0.26552534
-0.17721191 0.20268388 -0.01655321 0.24734205 0.19303623 -0.2346127 -0.17470564 -0.10239122
0.037195604 0.18036695 0.13311847 0.20605634 -0.010237927 -0.29710472 0.090716235 -0.24290971
-0.19966377 0.0720566 -0.09460862 -0.2890897 -0.26208958 0.16916166 -0.026070181 0.26325175
0.21265057 0.2817613 0.16814327 -0.32045302 -0.09453521 0.18876727 -0.018532813 -0.13599582
-0.08345673 0.21842237 -0.10913443 -0.16236043 -0.20599006 0.1281277 0.04988643 -0.02034042
0.06752603 0.25906676 0.19972458 0.23406021 0.29310292 0.042226076 0.22156584 -0.21361294
-0.17200835 -0.017529195 0.11719473 0.13677482 -0.24251337 -0.093110986 0.18319874 -0.17837949
0.3114581 -0.2542651 -0.059927177 -0.009981045 -0.13224007 -0.010797084 -0.10301764 0.07688293
0.31856966 -0.032128368 0.19403808 -0.09406597 0.19311275 0.0640603 -0.025411563 -0.31008404
0.23020446 -0.036491316 -0.017469145 -0.1413528 -0.050066736 -0.05033091 0.11017599 -0.28129423
-0.06243708 0.1980757 0.29739982 0.076882675 -0.20579816 -0.18038894 -0.16764168 -0.2103811
-0.24884096 0.35382083 -0.22107454 -0.20978794 -0.20222387 0.21170111 0.04367312 0.19613034
-0.024883626 0.14417069 0.2722408 0.29052365 -0.054821987 -0.25005946 -0.046693716 -0.06871543
-0.28203493 -0.17169237 0.09127832 0.07673893 0.1806637 -0.30504647 0.040759716 -0.25310946
00000000: d713 e43c 66bb 213d 03d0 d2bd 6faf dcbd
00000010: 163f 923e cd23 843a fb34 8ebe 9176 0abe
00000020: 8eea 4a3e 3097 9abe e1e6 9a3e 42a8 8fbc
00000030: 7b8e d63d 09ce 6dbd d69d 63be 5219 263e
00000040: a1d1 823d f022 3fbe 2b94 153e 134e 42be
00000050: 8e45 58be 3f6e 8abe 2e1f 443e c1ac 973e
00000060: 1389 343e bed3 473e 61df 933e 8b1f 18bd
00000070: 08f4 80be 432a 38be 378d 503e 44a9 58be
00000080: 230b a3bd 047c 563c 33d8 44bd 0aa7 9bbe
00000090: d43c 803e 413d babd 36f2 eebc 7b18 c6bd
000000a0: 4e60 a1bd 4cb8 50bd f034 35be 8401 863e
000000b0: 25a2 553d 3b99 763d 5439 7abe 8a28 a03e
000000c0: 3de1 c6bd 4d87 4d3e 8e94 05be 281c fcbb
000000d0: bed8 a9bc dbd4 4f3d be42 95bd b761 e3bd
000000e0: c352 33be 1c13 07be 0f4d 54be fa76 7c3e
000000f0: 1095 cbbd 1edd 493d c1a1 9ebe 3c19 44be
00000100: 0efd 80be 7b1f c43d de99 943e 9e07 2dbd
00000110: e611 943e a5ac 89be dd1b 96be 082a 2a3e
00000120: 49a8 5fbe 09f4 f4bd 1654 513e d987 f5bc
00000130: 4c7b 483e 97d9 23be a3ee a83d 4634 a43e
00000140: 7e04 373d e51e 343e 224a 943e 8cc1 7c3e
00000150: bfc8 893e 5836 38be 9fae 163e e2d0 82bb
00000160: 6523 19be 7fc4 29be 4d44 263e 069b 523e
00000170: 4f76 7dbc 7eba 9f3e 36a3 5a3d a313 6c3e
00000180: c369 223e 4184 c8bd 8769 8bbd 1673 75be
00000190: 833d 9f3e 33dc a3bd 9dc9 f23d dbc0 2f3e
000001a0: 548d 68be 221c 153e d39a 4d3e e13b 2fbe
000001b0: 279e e4bd 6ba0 663d 377f 8a3e 540d 953e
000001c0: a3a3 81bd d7ed 1abe 6fdc 193e 961e 5bbd
000001d0: 3619 513d f102 83be 2cb2 153d 334e a53d
000001e0: feb4 eebd 5e41 6f3d 421c 7f3e 1e6c 99be
000001f0: 2f44 8c3e 1ad4 55be 0128 8bbe 2a7f 563d
00000200: e804 9e3e fe4e 67be 79f8 97be 5789 873e
00000210: 14ce 1ebe 6119 91be 2a8f 94be 91c2 c4bd
00000220: 0c3f 98be 0180 91be 1c97 0d3e 3d80 37bd
00000230: 4010 cc3d 1ede 293e 4d39 6d3d f0f2 873e
00000240: 0a77 35be 5d8c 4f3e 999a 87bc 3c47 7d3e
00000250: 4aab 453e 503e 70be 09e6 32be 7db2 d1bd
00000260: 6b5a 183d 1db2 383e 3550 083e 6f00 533e
00000270: fabc 27bc 1c1e 98be 6fc9 b93d 53bd 78be
00000280: a974 4cbe 6992 933d 2ac2 c1bd 9103 94be
00000290: 9b30 86be b738 2d3e 2291 d5bc efc8 863e
000002a0: 12c1 593e 0443 903e c02d 2c3e 6b12 a4be
000002b0: ad9b c1bd 354c 413e 20d2 97bc 7d42 0bbe
000002c0: 5deb aabd 1daa 5f3e df81 dfbd d041 26be
000002d0: 0fef 52be e833 033e b755 4c3d f4a0 a6bc
000002e0: 164b 8a3d 66a4 843e 9a84 4c3e 7bad 6f3e
000002f0: 9611 963e 40f5 2c3d 28e2 623e 5abd 5abe
00000300: f522 30be 6399 8fbc ca03 f03d b30e 0c3e
00000310: 6d55 78be f9b0 bebd 7398 3b3e 1da9 36be
00000320: 7077 9f3e 092f 82be 3376 75bd 8987 23bc
00000330: f169 07be 41e6 30bc eafa d2bd cc74 9d3d
00000340: 901b a33e 0999 03bd ebb1 463e a9a5 c0bd
00000350: 59bf 453e 0c32 833d e92b d0bc 56c3 9ebe
00000360: b8ba 6b3e eb77 15bd 741b 8fbc cabe 10be
00000370: c712 4dbd c927 4ebd f3a3 e13d cc05 90be
00000380: 06be 7fbd 5bd4 4a3e ca44 983e aa74 9d3d
00000390: c1bc 52be e1b7 38be 43aa 2bbe 256e 57be
000003a0: 2ad0 7ebe 0128 b53e 5d61 62be a6d2 56be
000003b0: c613 4fbe 2dc8 583e 96e2 323d 64d6 483e
000003c0: bfd8 cbbc 7ba1 133e 2563 8b3e 84bf 943e
000003d0: 058d 60bd cb07 80be e941 3fbd adba 8cbd
000003e0: e266 90be 20d0 2fbe 21f0 ba3d 4d29 9d3d
000003f0: e8ff 383e 0d2f 9cbe a9f3 263d 9097 81be

encoder.gru.bias_ih_l2 f4 [30]
0.20669521 -0.16506971 0.32634994 0.2571166 -0.1531821 -0.08863705 0.034002706 -0.05076037
0.25902906 0.17529641 -0.29578036 -0.045709904 -0.09079006 -0.2583663 0.014477355 -0.022373393
0.2046924 -0.07695561 -0.12083956 0.14847523 -0.10246706 0.18603261 -0.114607856 0.13797946
-0.16850257 -0.03364051 -0.21738435 -0.11861387 0.0870439 -0.15406384
00000000: e9a7 533e 0908 29be 5717 a73e c9a4 833e
00000010: c5db 1cbe 5787 b5bd 6c46 0b3d 1bea 4fbd
00000020: 759f 843e e780 333e 8670 97be 4f3a 3bbd
00000030: 24f0 b9bd 9648 84be 6e32 6d3c 6848 b7bc
00000040: e29a 513e e79a 9dbd bb7a f7bd e409 183e
00000050: 40da d1bd 557f 3e3e 86b7 eabd 7d4a 0d3e
00000060: f08b 2cbe a2ca 09bd 019a 5ebe d4eb f2bd
00000070: 1244 b23d e9c2 1dbe

encoder.gru.bias_hh_l2 f4 [30]
0.33838362 -0.0015454133 -0.2665299 0.13343614 0.2811039 -0.17364417 -0.1767958 0.19266486
-0.28947228 -0.10201607 -0.19289367 0.06097493 0.080734126 -0.09792222 0.20034188 0.3039206
0.21291164 -0.23802653 0.28646272 0.015490582 0.0815442 0.2523533 -0.3155093 0.31276682
-0.005557392 -0.15602528 0.101408586 -0.33358863 0.026565641 0.09374342
00000000: 9e40 ad3e 778f caba 9b76 88be 7ca3 083e
00000010: daec 8f3e c7cf 31be f509 35be f049 453e
00000020: b635 94be cded d0bd eb85 45be d9c0 793d
00000030: ef57 a53d 728b c8bd 6c26 4d3e 7b9b 9b3e
00000040: 8205 5a3e 3abd 73be 3eab 923e 36cc 7d3c
00000050: a500 a73d 7434 813e 6f8a a1be f922 a03e
00000060: c81a b6bb 17c5 1fbe 4eaf cf3d 21cc aabe
00000070: 30a0 d93c 8dfc bf3d

decoder.gru.weight_ih_l0 f4 [30, 50]
-0.23601866 -0.10294764 -0.10630261 0.09084183 0.23199418 0.090679966 0.13963284 -0.2258201
0.040624566 0.345104 -0.032414813 0.34613428 -0.3570514 -0.0047494494 0.2166797 0.055444032
-0.04000959 0.1824119 -0.039193843 0.32242015 -0.25766063 0.15840448 0.25774494 -0.13532984
-0.2256973 0.12801085 0.111283496 -0.17352219 -0.13245896 -0.18807305 0.2520744 0.17486356
-0.15602489 0.19542888 0.12738322 -0.19832547 0.091058105 -0.19533959 -0.15204583 -0.16828759
-0.1759435 0.12461878 0.020971248 0.13477118 -0.08771566 -0.20292318 -0.2858919 -0.082771026
0.13909124 -0.20651686 0.16757713 -0.050917707 0.24011192 0.07061154 0.065155275 0.25652292
-0.2633483 0.10435402 -0.18757333 -0.14739276 -0.057320517 0.09672953 -0.16994922 -0.0828654
0.205492 0.25786498 0.016746162 -0.051906027 -0.24558157 0.0036571587 0.23824644 -0.0063571115
-0.07832744 0.3090463 0.1519998 -0.07968227 -0.047885235 0.18553315 -0.23392487 0.1833272
0.104002476 -0.15515494 -0.16245146 -0.2435104 -0.016165592 -0.14009166 -0.20482235 -0.2616162
0.1552406 -0.25618032 0.103557624 -0.09728573 -0.028581891 0.11782491 -0.19877775 0.029095741
-0.3481969 0.072808385 -0.21622336 0.13946898 -0.19005151 0.18500717 0.20692828 0.004009659
-0.348622 0.36778593 0.21946399 -0.08960029 -0.04066969 0.3797403 0.078588344 0.17340922
-0.105658546 0.23375624 -0.056446344 -0.076684624 0.031240944 0.15584539 -0.059519805 -0.09610822
-0.28279722 -0.19217981 -0.16321154 0.023864157 0.01107959 0.015733028 0.07787451 -0.09828793
0.1602219 0.060668264 0.2940704 -0.111486 0.19316012 -0.0028072677 -0.21429344 -0.13423267
-0.32879576 0.1947427 -0.049767893 -0.14284125 0.075849116 0.09922744 0.04658882 -0.3649595
-0.060375407 -0.12805511 -0.2681345 0.27824575 -0.11268038 0.022346059 0.26336652 0.119286485
0.00022195194 -0.24274476 -0.107871294 -0.2211167 -0.13393398 0.112328224 0.118809514 -0.25186253
-0.23126246 0.3274787 -0.23510334 -0.26986277 0.32829046 0.22389762 0.25363448 0.017444724
0.30155134 0.33955166 -0.1999097 0.1033655 0.07741634 -0.12518048 0.0973137 -0.22493447
0.051025365 -0.22728549 -0.05997018 0.116262205 0.06369969 0.23583627 0.10020204 0.11594823
-0.22357513 0.046111744 -0.11551518 -0.20477885 -0.30209762 0.25990304 -0.28525728 0.17015994
0.02127775 -0.049155667 0.16565605 -0.31771457 -0.0698286 0.3301165 -0.24298121 0.033542957
0.30434847 0.15192133 0.28876922 0.36380374 0.11180832 0.056149747 0.011592675 0.2614332
0.00880572 -0.18585375 0.14859897 -0.22639199 0.044345442 -0.21665125 -0.080970585 -0.14583059
0.33731633 0.0982824 0.10552268 0.14477548 -0.15315825 -0.30850005 0.099176995 0.15489715
0.1550933 0.14788212 -0.064165376 -0.1886228 0.10213446 0.15486749 0.2794276 -0.06729306
-0.2764559 0.18200055 -0.32505414 -0.26822463 -0.11598771 -0.027536532 -0.16147 0.060599677
-0.016622797 -0.11424838 -0.097331755 0.15218498 -0.2177534 -0.05638285 -0.1491797 -0.31455222
-0.15820104 0.14246377 0.14642535 -0.14060959 -0.13358267 -0.22184283 -0.0790247 0.31896672
00000000: e0ae 71be 36d6 d2bd 2fb5 d9bd 480b ba3d
00000010: e28f 6d3e 6bb6 b93d e9fb 0e3e 623d 67be
00000020: f265 263d 79b1 b03e 65c5 04bd 8338 b13e
00000030: 71cf b6be 45a1 9bbb 49e1 5d3e 4819 633d
00000040: 19e1 23bd 2fca 3a3e b989 20bd 4114 a53e
00000050: 18ec 83be c934 223e 25f7 833e e893 0abe
00000060: 311d 67be 4715 033e 9ae8 e33d cdaf 31be
00000070: 52a3 07be 3996 40be e50f 813e 6f0f 333e
00000080: fdc4 1fbe 821e 483e bf70 023e d515 4bbe
00000090: ac7c ba3d 1a07 48be e7b1 1bbe 9553 2cbe
000000a0: 882a 34be 2238 ff3d e5cb ab3c 7501 0a3e
000000b0: 45a4 b3bd 18cb 4fbe 6c60 92be db83 a9bd
000000c0: ef6d 0e3e 2879 53be 5799 2b3e 168f 50bd
000000d0: e6df 753e c89c 903d 2170 853d f956 833e
000000e0: 97d5 86be 8fb7 d53d 3913 40be 21ee 16be
000000f0: ebc8 6abd 221a c63d 2b07 2ebe 56b5 a9bd
00000100: 7f6c 523e e106 843e 3f2f 893c 6a9b 54bd
00000110: bc79 7bbe f1ac 6f3b e0f6 733e 514f d0bb
00000120: 236a a0bd 513b 9e3e d6a5 1b3e 7530 a3bd
00000130: 4f23 44bd 67fc 3d3e 008a 6fbe 20ba 3b3e
00000140: 40ff d43d f0e0 1ebe ad59 26be ca5a 79be
00000150: b46d 84bc 3074 0fbe f3bc 51be 8ff2 85be
00000160: 64f7 1e3e 112a 83be 0516 d43d be3d c7bd
00000170: 9224 eabc 304e f13d 658c 4bbe 315a ee3c
00000180: dd46 b2be 901c 953d a869 5dbe f5d0 0e3e
00000190: dd9c 42be 8572 3d3e 02e5 533e 7563 833b
000001a0: 957e b2be 704e bc3e 2bbb 603e 5b80 b7bd
000001b0: 4395 26bd 526d c23e edf2 a03d 3092 313e
000001c0: 8263 d8bd cc5d 6f3e 4834 67bd d40c 9dbd
000001d0: 02ed ff3c ef95 1f3e 0acb 73bd 63d4 c4bd
000001e0: ccca 90be c9ca 44be ed20 27be c47e c33c
000001f0: 2b87 353c 8de2 803c ac7c 9f3d 2f4b c9bd
00000200: 3611 243e 497f 783d 6590 963e c652 e4bd
00000210: c4cb 453e 23fa 37bb bd6f 5bbe 4a74 09be
00000220: eb57 a8be a16a 473e 6bd9 4bbd fa44 12be
00000230: c856 9b3d c237 cb3d ebd3 3e3d f9db babe
00000240: 344c 77bd e120 03be ed48 89be 3a76 8e3e
00000250: f9c4 e6bd 150f b73c fad7 863e 794c f43d
00000260: c5bb 6839 1592 78be a0eb dcbd 6b6c 62be
00000270: fd25 09be 570c e63d 6752 f33d 20f4 80be
00000280: 11d0 6cbe 4aab a73e eebe 70be 742b 8abe
00000290: b015 a83e 6b45 653e 61dc 813e 3de8 8e3c
000002a0: f064 9a3e b7d9 ad3e 21b5 4cbe 4bb1 d33d
000002b0: 758c 9e3d 502f 00be 684c c73d 3955 66be
000002c0: f9ff 503d 87bd 68be 4ba3 75bd e11a ee3d
000002d0: fc74 823d 107f 713e ba36 cd3d 4476 ed3d
000002e0: e1f0 64be abdf 3c3d 3993 ecbd 8cb1 51be
000002f0: 8aac 9abe 0312 853e 3e0d 92be 683e 2e3e
00000300: ad4e ae3c 7457 49bd bda1 293e 7cab a2be
00000310: 4c02 8fbd 0805 a93e 11d0 78be 5764 093d
00000320: 90d3 9b3e 4491 1b3e 8fd9 933e 7c44 ba3e
00000330: c3fb e43d 47fd 653d 34ef 3d3c 93da 853e
00000340: de45 103c 7250 3ebe 542a 183e 4dd3 67be
00000350: 91a3 353d d3d9 5dbe e8d3 a5bd 9d54 15be
00000360: bab4 ac3e 4848 c93d 461c d83d 0640 143e
00000370: 84d5 1cbe b8f3 9dbe 4f1d cb3d 5c9d 1e3e
00000380: c7d0 1e3e 696e 173e 2369 83bd 5626 41be
00000390: df2b d13d 9595 1e3e 2211 8f3e f2d0 89bd
000003a0: a18b 8dbe 5a5e 3a3e 7f6d a6be bd54 89be
000003b0: f78a edbd 4b94 e1bc 6458 25be 5e37 783d
000003c0: 882c 88bc 0efb e9bd df55 c7bd 61d6 1b3e
000003d0: bffa 5ebe b4f1 66bd 90c2 18be fd0c a1be
000003e0: 74ff 21be 06e2 113e 87f0 153e f6fb 0fbe
000003f0: e5c9 08be c42a 63be b4d7 a1bd 9b4f a33e
